src/simple-FT_ver1.00/data/experiments/fecu_to_fefe_finetune_target128_20260116_173509/models/finetuned_model.pth (torch, 235141 bytes, 9 tensors)

encoder.0.weight f4 [256, 2]
0.14940268 0.09019917 -0.092957005 -0.14961281 0.07293643 -0.1318668 0.046752464 -0.04101526
0.02296349 -0.066801995 0.14937627 0.17183581 -0.27682042 0.056351814 -0.11317006 -0.108976595
0.107322484 -0.054815073 -0.10599403 -0.07943708 0.17540249 -0.1671635 -0.051191464 -0.07781295
0.07903958 0.07961952 -0.21167023 -0.03908671 0.018428033 -0.088945165 -0.06711798 0.007957467
0.22304651 0.205742 -0.12531559 -0.04662895 -0.04387006 -0.101137295 0.12929365 0.053999368
-0.0036002158 0.07724855 -0.016747845 0.05802962 0.11292123 -0.16160865 -0.026284361 0.05774078
-0.15156253 -0.058311462 0.080939 0.0034427342 -0.18167308 0.049437705 0.13480914 0.044768993
-0.12361379 -0.11966529 -0.07694665 -0.022958178 0.1575042 -0.003167656 0.021528833 0.036754116
-0.16789123 -0.025164198 0.10906102 -0.067665026 -0.0016607153 -0.039183125 -0.14839351 -0.12721471
0.019192459 -0.14343782 0.19787948 0.11573165 0.17196357 -0.10397541 0.11660225 -0.17416002
0.078929216 0.07552166 0.03338608 -0.07227614 -0.03657101 -0.05144427 0.16270134 0.06519176
-0.024641719 -0.033945553 -0.07279211 0.0006041228 0.22371836 0.15164986 0.1426213 -0.10844032
0.06418706 0.07422577 0.20242599 0.088360555 0.14479479 -0.14294718 -0.3087587 -0.034380175
0.11590844 0.09963756 -0.2165367 0.06604899 -0.19256741 0.13671124 -0.12715802 0.07167482
0.09839129 0.10426081 0.09416092 -0.09555988 -0.11625177 -0.126158 0.016384404 -0.029523455
0.053611677 -0.15506752 -0.13860975 -0.021867283 -0.099929534 -0.039161917 -0.16661386 -0.15395403
-0.13842285 -0.07838028 0.030959863 -0.10482155 -0.1523571 -0.024913862 0.24691749 0.15795496
-0.0921548 -0.1258457 0.04527325 -0.1474089 -0.25860634 -0.036139 0.06962326 -0.08004165
0.029198296 0.017214248 -0.08167451 0.0059467326 0.100528434 -0.104136445 -0.05272634 -0.12581092
-0.08818623 -0.16049595 -0.11717487 -0.1117731 0.029701494 0.018059837 0.042915914 0.09224624
0.0044076787 -0.016120773 0.0027403329 -0.07758981 -0.01089607 0.032360077 0.22349894 0.176367
-0.28219697 -0.049620036 0.16660495 -0.012867633 -0.31816167 0.023824899 -0.016918007 -0.07990205
-0.22149654 0.07132072 0.10809014 -0.021679712 0.13388875 0.056433175 -0.17003499 -0.08459079
-0.028078163 0.025983611 -0.17595258 0.025104972 -0.05904781 -0.07547637 0.059226744 0.0020344232
0.005426236 -0.07917336 0.08861252 0.062133927 -0.012503216 -0.009222358 0.16740288 -0.043262426
-0.04335827 -0.08431341 0.12448768 -0.09954909 0.10125696 -0.057256002 0.10089126 0.067126974
0.080687776 -0.0179272 -0.024186501 0.03582656 -0.14806117 0.02117115 -0.013978578 -0.0019344715
0.16584073 -0.13909775 0.16682598 0.083015464 -0.16583876 0.06828862 -0.008727035 -0.12799954
-0.16273417 -0.030538524 -0.19013996 -0.009099671 0.10828797 -0.10953836 0.118465446 0.033864226
0.20056729 0.142741 -0.13600029 -0.0899926 -0.34296027 -0.14109957 0.04576602 0.08726595
0.16397373 0.045098357 -0.08307054 0.005061109 0.10388102 0.10926178 0.12636544 -0.12625793
-0.038974866 -0.016267246 0.035461456 -0.1539694 0.14444967 0.11669087 0.14910643 0.025822407
00000000: 04fd 183e 58ba b83d 3e60 bebd 1a34 19be
00000010: b25f 953d 1708 07be 837f 3f3d 9eff 27bd
00000020: ee1d bc3c 7ccf 88bd 18f6 183e baf5 2f3e
00000030: 68bb 8dbe 29d1 663d b4c5 e7bd 1f2f dfbd
00000040: e4cb db3d c585 60bd 6613 d9bd e8af a2bd
00000050: b69c 333e e92c 2bbe 24ae 51bd 655c 9fbd
00000060: 81df a13d 8f0f a33d 15c0 58be 6319 20bd
00000070: 63f6 963c e228 b6bd 2775 89bd 0960 023c
00000080: 4e66 643e 08ae 523e bb52 00be fffd 3ebd
00000090: 18b1 33bd 1221 cfbd 8e65 043e 712e 5d3d
000000a0: 99f1 6bbb 7d34 9e3d c732 89bc 78b0 6d3d
000000b0: 3f43 e73d bd7c 25be 4d52 d7bc 9981 6c3d
000000c0: 3533 1bbe 00d8 6ebd 59c3 a53d 7f9f 613b
000000d0: 8208 3abe 317f 4a3d 680b 0a3e b15f 373d
000000e0: 3a29 fdbd 1313 f5bd 3596 9dbd ca12 bcbc
000000f0: c848 213e 7398 4fbb 3c5d b03c 7c8b 163d
00000100: aeeb 2bbe 2625 cebc 625b df3d f693 8abd
00000110: 5cac d9ba 7c7e 20bd 78f4 17be 9344 02be
00000120: 8139 9d3c 5de1 12be eba0 4a3e b704 ed3d
00000130: 3817 303e 0ff1 d4bd 29cd ee3d 0157 32be
00000140: a4a5 a13d 1aab 9a3d d8bf 083d 8305 94bd
00000150: 7ccb 15bd 3ab7 52bd 2e9b 263e 4283 853d
00000160: 6edd c9bc 7e0a 0bbd 0814 95bd ff5d 1e3a
00000170: 6d16 653e 1a4a 1b3e 510b 123e f515 debd
00000180: 8174 833d ae03 983d c248 4f3e 61f6 b43d
00000190: 1645 143e bf60 12be 9f15 9ebe 3ad2 0cbd
000001a0: 6761 ed3d c70e cc3d ccbb 5dbe b144 873d
000001b0: 6430 45be 08fe 0b3e b635 02be 3fca 923d
000001c0: 5f81 c93d b186 d53d 71d7 c03d e6b4 c3bd
000001d0: 6815 eebd 902f 01be 9638 863c 2cdb f1bc
000001e0: eb97 5b3d 05ca 1ebe b7ef 0dbe 0423 b3bc
000001f0: dba7 ccbd 3f68 20bd d39c 2abe 20a6 1dbe
00000200: b8be 0dbe d785 a0bd 8a9f fd3c aeac d6bd
00000210: 8003 1cbe 2818 ccbc f0d7 7c3e f2be 213e
00000220: a8bb bcbd b2dd 00be 7270 393d 5cf2 16be
00000230: 0d68 84be 7d06 14bd a496 8e3d e0ec a3bd
00000240: 4431 ef3c e504 8d3c f744 a7bd cfdc c23b
00000250: dae1 cd3d 7d45 d5bd 93f7 57bd 94d4 00be
00000260: fb9a b4bd 0d59 24be 61f9 efbd 4ce9 e4bd
00000270: 8c50 f33c 39f2 933c 99c8 2f3d 99eb bc3d
00000280: 4a6e 903b b60f 84bc 2897 333b 68e7 9ebd
00000290: 6e85 32bc 008c 043d e8dc 643e 8d99 343e
000002a0: 1f7c 90be 613e 4bbd 7d9a 2a3e c4d2 52bc
000002b0: 16e6 a2be 6f2c c33c a297 8abc b0a3 a3bd
000002c0: fdcf 62be 9910 923d 5d5e dd3d a799 b1bc
000002d0: 221a 093e 7926 673d a71d 2ebe f03d adbd
000002e0: 2d04 e6bc 95db d43c ea2c 34be f1a8 cd3c
000002f0: 1edc 71bd 5b93 9abd be97 723d f553 053b
00000300: 91ce b13b a425 a2bd 7b7a b53d 2580 7e3d
00000310: 4ada 4cbc 6019 17bc a96b 2b3e f133 31bd
00000320: 7198 31bd 82ac acbd 66f3 fe3d 65e0 cbbd
00000330: cf5f cf3d 4585 6abd 14a0 ce3d de79 893d
00000340: a23f a53d 10dc 92bc c522 c6bc dfbe 123d
00000350: 599d 17be 1f6f ad3c 6806 65bc 188e fdba
00000360: 27d2 293e a46f 0ebe 6ed4 2a3e 0304 aa3d
00000370: a3d1 29be e7da 8b3d d6fb 0ebc 5012 03be
00000380: c9a3 26be ed2b fabc 0db4 42be c916 15bc
00000390: 15c6 dd3d a655 e0bd 039e f23d 37b5 0a3d
000003a0: 8361 4d3e b22a 123e a943 0bbe 0a4e b8bd
000003b0: 7d98 afbe 687c 10be 2675 3b3d 7eb8 b23d
000003c0: bbe8 273e 0eb9 383d e320 aabd a9d7 a53b
000003d0: 92bf d43d a4c4 df3d f165 013e c249 01be
000003e0: 1ca4 1fbd e342 85bc 0840 113d 28aa 1dbe
000003f0: 9dea 133e 9ffb ee3d 5baf 183e 8389 d33c

encoder.0.bias f4 [256]
-0.12915964 0.090025336 0.09095295 0.1030355 0.09636017 -0.13505882 -0.15030096 0.083757706
0.1137136 0.06603629 0.12487115 0.058729384 0.14552166 -0.15614466 0.08014122 -0.128086
-0.1277195 0.05051528 0.07752684 0.15258238 -0.11963003 -0.12133193 0.104797535 -0.123479374
-0.14177431 -0.12211002 -0.1175123 -0.11383865 0.07407101 -0.11334807 0.15318109 -0.12411765
0.08434891 0.10694158 -0.11668619 0.070538394 0.096925825 -0.11511552 0.12337369 0.10641725
0.14934912 0.09780368 0.106789306 -0.120226204 0.10212052 -0.11974339 -0.13646692 0.11985273
-0.08321199 -0.10809815 0.11963705 -0.17189689 -0.12761594 -0.14179951 0.11412585 -0.12623529
-0.13656159 0.06529709 0.059831347 0.11347096 0.107886076 0.07940756 0.07494368 0.052073825
0.07831674 0.10021435 0.08589445 -0.12298596 0.021890951 0.11512288 -0.16785876 0.10104262
0.1085971 -0.12166975 0.1099001 0.03156567 0.08318842 0.08687027 0.09934551 -0.101977825
-0.11590572 -0.11149491 -0.12242968 -0.11768032 -0.18484893 0.14954647 -0.17085518 0.074089475
-0.12231871 -0.1395591 -0.08982436 0.04378134 0.10844001 -0.13627635 0.10185305 0.1116695
0.10754521 -0.12745145 -0.11966941 0.14102225 0.08834727 0.11183866 0.11928311 0.16122733
-0.13317458 0.10506691 -0.13114618 -0.1201816 0.098497346 -0.11004934 -0.121145256 0.09932432
-0.13196573 0.05557548 0.07099545 0.14252077 -0.1180978 -0.1412683 -0.18982568 -0.11679283
0.16735126 -0.1135281 -0.1238397 0.12113829 0.099344656 0.108913444 -0.12713744 0.14275454
0.1404561 0.108983636 -0.124366015 0.10627582 -0.15922502 -0.11968251 0.07323875 -0.115064606
0.11832485 0.12648056 0.06543783 -0.12571126 0.12239203 0.10840842 0.10880816 0.12829252
0.08670056 -0.112336315 -0.13021947 0.083522834 -0.12798415 0.1095987 0.10674811 -0.12483895
0.099140994 0.123221725 0.10537098 0.10252041 -0.12476023 0.11396277 -0.1201118 0.13164273
0.022715135 0.10484831 -0.13368216 -0.12892194 0.09462566 -0.12345817 0.07958883 -0.1407132
-0.13164738 0.09102368 0.10241744 -0.12765716 -0.11618526 -0.14530529 0.11016294 -0.12239779
-0.13068537 -0.12103175 0.14376129 0.066755176 0.11423679 0.10576528 0.108130634 0.109131165
0.096989796 0.10114198 0.061836768 0.07630697 0.094550155 0.10412985 0.1092878 0.15664552
0.10521074 -0.16781214 -0.11736812 -0.11103881 0.09502849 0.15541112 0.13777739 -0.12521937
0.11336448 -0.1113276 -0.162478 0.1361462 0.09496267 0.10338473 0.1124317 0.110746525
0.10654893 0.13684072 -0.11748898 0.089909956 0.08971316 -0.119684495 -0.11422601 0.09436189
0.09628059 -0.068415985 0.101837635 0.10442507 -0.12201468 0.09357273 0.1096608 0.11672564
0.05161565 -0.11313801 0.09721316 0.089118645 0.09806021 0.089874536 0.095483966 0.120114855
0.120631814 0.1049313 -0.11988358 -0.11332953 -0.12081496 0.10027086 -0.13120934 0.09852226
0.1087964 0.070321076 0.08775926 0.11284321 -0.12709881 -0.124080926 0.16436769 -0.12606776
0.08886375 -0.11831469 -0.10327652 -0.14017648 0.12727349 -0.11950927 0.11193225 0.10910924
00000000: 6d42 04be 345f b83d 8a45 ba3d 4704 d33d
00000010: 7b58 c53d dc4c 0abe 7fe8 19be 2989 ab3d
00000020: ade2 e83d 093e 873d 72bc ff3d 398e 703d
00000030: a103 153e 63e4 1fbe 1421 a43d fa28 03be
00000040: e7c8 02be 1ce9 4e3d 64c6 9e3d 8e3e 1c3e
00000050: 9700 f5bd e07c f8bd 17a0 d63d c1e2 fcbd
00000060: 492d 11be d114 fabd 4aaa f0bd 3d24 e9bd
00000070: 8bb2 973d 0823 e8bd 81db 1c3e 6531 febd
00000080: 1fbf ac3d 3004 db3d 2bf9 eebd 6f76 903d
00000090: 0c81 c63d b0c1 ebbd 58ab fc3d 4af1 d93d
000000a0: faee 183e 4c4d c83d 5ab4 da3d 2839 f6bd
000000b0: 9024 d13d 063c f5bd fcbd 0bbe 5975 f53d
000000c0: 0c6b aabd 9062 ddbd 4504 f53d bd05 30be
000000d0: c1ad 02be e433 11be d0ba e93d d343 01be
000000e0: cdd6 0bbe 7bba 853d b711 753d 7663 e83d
000000f0: 60f3 dc3d 6ea0 a23d 127c 993d 5d4b 553d
00000100: 8764 a03d 2e3d cd3d 6ee9 af3d 10e0 fbbd
00000110: a754 b33c 8bc5 eb3d 2be3 2bbe 6fef ce3d
00000120: 2868 de3d fd2d f9bd 4e13 e13d 014b 013d
00000130: b15e aa3d 0ae9 b13d a975 cb3d c0d9 d0bd
00000140: fa5f edbd 7257 e4bd 69bc fabd 6102 f1bd
00000150: 0a49 3dbe b622 193e a9f4 2ebe 39bc 973d
00000160: 3b82 fabd 95e8 0ebe d6f5 b7bd 1054 333d
00000170: cc15 de3d 078c 0bbe 5598 d03d fbb2 e43d
00000180: aa40 dc3d a282 02be 3c15 f5bd 2368 103e
00000190: 6aef b43d ab0b e53d b44a f43d c718 253e
000001a0: eb5e 08be 522d d73d 2f4b 06be c521 f6bd
000001b0: fab8 c93d 8c61 e1bd 011b f8bd 8d6a cb3d
000001c0: 0622 07be 1da3 633d 1066 913d f7f0 113e
000001d0: 42dd f1bd a3a8 10be aa61 42be 1431 efbd
000001e0: 215e 2b3e 6c81 e8bd ab9f fdbd 5a17 f83d
000001f0: 3675 cb3d 030e df3d 5130 02be 3f2e 123e
00000200: b9d3 0f3e d032 df3d 9cb3 febd 23a7 d93d
00000210: e20b 23be 1b1c f5bd 33fe 953d fea6 ebbd
00000220: 4d54 f23d 1f84 013e 4504 863d 74ba 00be
00000230: aca8 fa3d 3c05 de3d d0d6 de3d 1d5f 033e
00000240: 1090 b13d 9510 e6bd 4158 05be 050e ab3d
00000250: 470e 03be 4975 e03d c19e da3d 90ab ffbd
00000260: 6f0a cb3d ac5b fc3d becc d73d 39f6 d13d
00000270: 4b82 ffbd 5065 e93d 2dfd f5bd 5acd 063e
00000280: 1715 ba3c b6ba d63d fae3 08be 1d04 04be
00000290: 19cb c13d a3d7 fcbd 78ff a23d 1f17 10be
000002a0: 92ce 06be a06a ba3d 3cc0 d13d 8fb8 02be
000002b0: 8af2 edbd e9ca 14be 1c9d e13d b1ab fabd
000002c0: 63d2 05be 7fdf f7bd 2936 133e f0b6 883d
000002d0: faf4 e93d 789b d83d 9873 dd3d 2980 df3d
000002e0: 96a2 c63d 8723 cf3d 8d48 7d3d d446 9c3d
000002f0: 83a3 c13d 0842 d53d 48d2 df3d af67 203e
00000300: ba78 d73d f2d6 2bbe b25e f0bd 5168 e3bd
00000310: 4c9e c23d 1824 1f3e 8415 0d3e 8239 00be
00000320: a32b e83d baff e3bd a260 26be e969 0b3e
00000330: ca7b c23d 60bb d33d 9742 e63d 13cf e23d
00000340: 5336 da3d f91f 0c3e 109e f0bd b622 b83d
00000350: 89bb b73d 251d f5bd 54ef e9bd ce40 c13d
00000360: c22e c53d ae1d 8cbd 4090 d03d d0dc d53d
00000370: d5e2 f9bd 0fa3 bf3d d795 e03d da0d ef3d
00000380: ef6a 533d e7b4 e7bd b117 c73d d683 b63d
00000390: cbd3 c83d 2410 b83d 198d c33d c7fe f53d
000003a0: d00d f73d 39e6 d63d 8685 f5bd 5019 e8bd
000003b0: d56d f7bd cf5a cd3d be5b 06be 0ac6 c93d
000003c0: a6d0 de3d 7f04 903d 20bb b33d 571a e73d
000003d0: 3126 02be 241e febd 0150 283e e817 01be
000003e0: 33fe b53d f94e f2bd a482 d3bd 6c8a 0fbe
000003f0: fb53 023e 47c1 f4bd bc3c e53d aa74 df3d

encoder.3.weight f4 [64, 256]
0.13102613 -0.10354951 -0.03446699 0.15332198 -0.07630722 0.103937924 -0.26522 0.09129889
0.15047547 0.0014089972 0.027643288 -0.02537337 0.2730617 -0.34320274 0.1408028 -0.14765437
-0.089456454 -0.116986014 -0.09944099 0.23418914 -0.11004472 0.006726865 0.054725192 0.020804156
-0.17124106 -0.10130976 -0.34796444 0.09317791 -0.07086628 -0.27372748 0.11615085 -0.17579605
-0.11331368 0.12824021 0.039959744 -0.0053636795 0.032705434 -0.0058116084 0.093507044 0.17279409
0.26235905 0.11183979 0.128338 0.13433038 0.023784287 -0.21050042 0.08607734 0.15827443
-0.0059260842 -0.026572721 0.16954203 -0.34089765 0.08095016 -0.3882265 -0.041912124 -0.253753
0.037670076 0.00870444 -0.055177227 0.1477672 0.08934881 -0.02506001 0.04211172 -0.02164799
0.05481125 0.037756335 0.056527767 0.087981865 -0.06803781 0.1763495 -0.25914758 0.18305624
-0.061031964 -0.28318265 0.15799761 0.02622977 -0.057948355 -0.06014244 0.11422697 0.11692925
-0.016869184 0.05604809 0.05229319 0.04895276 -0.26413834 0.17363898 -0.38039595 0.051201783
-0.25712317 -0.05306018 -0.017174758 -0.12685539 0.0037136765 -0.18811354 0.097239494 0.033481
0.054664418 -0.056920975 -0.19834179 0.27363253 0.10159225 0.24980295 0.2582691 0.1408858
0.013649384 0.051583637 -0.39918926 0.03699482 0.041193567 0.00943114 -0.29675025 0.06256271
-0.16151425 -0.051949747 0.04236521 0.30716193 -0.11663215 -0.26891762 -0.32163537 0.003921972
0.30280486 -0.07811026 -0.06777304 0.074532926 0.04687697 -0.047701936 -0.10843084 0.3102301
0.23602006 -0.08152125 -0.15910266 0.09213884 -0.30573127 -0.07615283 0.08472462 -0.20337975
0.26026854 0.17540541 -0.035943776 -0.14080878 0.15348412 0.053814426 0.02934496 0.16152397
0.10038061 0.054107875 -0.19037284 0.057057433 -0.121169135 0.027863774 0.1303494 -0.0731421
-0.107946776 0.26519683 0.044214085 0.15875171 0.10265666 0.03381808 -0.40208206 0.14514427
-0.10392696 0.09539902 -0.19873549 0.11993942 -0.092430115 0.023283156 -0.050142504 -0.39832273
-0.17191133 0.2541603 -0.030224666 0.1007324 -0.21827532 -0.2339521 0.06465797 -0.23788239
-0.41152713 -0.13609222 0.13760965 0.021108516 0.06409063 0.010691025 -0.058169074 0.010742277
0.09723775 -0.11125837 -0.032823708 -0.11601847 -0.085616745 0.09657893 0.25436363 0.07771166
0.032596253 -0.408138 -0.20723444 -0.12888084 -0.07141221 0.3214455 0.19465975 -0.18958595
-0.10871125 0.06677012 -0.2245481 0.24187706 -0.03017588 -0.016998101 0.10924092 0.0768112
0.085189715 0.29123336 -0.023988593 0.0019348001 0.15365875 -0.0200934 0.02745047 -0.030967437
-0.12787895 0.038290605 0.11961804 0.13781092 -0.23212245 -0.050488934 0.12371269 -0.019778205
-0.043910958 -0.17169572 0.06521722 -0.031099644 0.051703684 -0.08888768 0.018339371 0.083243996
0.25146985 0.18201046 0.11226187 -0.31089717 -0.05622428 -0.056266874 -0.2632215 0.06240013
-0.058005497 -0.14392297 -0.010451959 0.19195801 -0.0972566 0.06897751 0.25683123 -0.008847542
-0.14439672 0.057129662 -0.17477271 -0.30715865 0.047979746 0.056970205 0.094025135 -0.120508336
00000000: b72b 063e c411 d4bd 422d 0dbd 7000 1d3e
00000010: f646 9cbd 68dd d43d eaca 87be eafa ba3d
00000020: 3e16 1a3e 1aae b83a 2d74 e23c d0db cfbc
00000030: bece 8b3e 45b8 afbe 9c2e 103e b532 17be
00000040: f234 b7bd 5d96 efbd b8a7 cbbd 47cf 6f3e
00000050: 205f e1bd 096d dc3b 8627 603d 7a6d aa3c
00000060: d159 2fbe 7e7b cfbd 6528 b2be 0fd4 be3d
00000070: 5722 91bd 0226 8cbe 7fe0 ed3d e103 34be
00000080: 0111 e8bd 6751 033e d4ac 233d cec1 afbb
00000090: 22f6 053d 4e6f bebb 9f80 bf3d eff0 303e
000000a0: ed53 863e 430c e53d 096b 033e e78d 093e
000000b0: 44d7 c23c 6c8d 57be 5149 b03d b112 223e
000000c0: 992f c2bb 09af d9bc 6d9c 2d3e 238a aebe
000000d0: 33c9 a53d a0c5 c6be 0cac 2bbd eaeb 81be
000000e0: f04b 1a3d 119d 0e3c 8401 62bd 4950 173e
000000f0: 82fc b63d a64a cdbc 577d 2c3d 2057 b1bc
00000100: c381 603d 63a6 1a3d a989 673d d62f b43d
00000110: 6857 8bbd f794 343e feae 84be 1873 3b3e
00000120: a7fc 79bd 51fd 90be 20ca 213e d1df d63c
00000130: 415b 6dbd eb57 76bd d4ef e93d 9a78 ef3d
00000140: 3e31 8abc af92 653d 6231 563d b082 483d
00000150: 243d 87be 6bce 313e 42c3 c2be f6b8 513d
00000160: a6a5 83be a255 59bd 14b2 8cbc 61e6 01be
00000170: 2761 733b d6a0 40be 8025 c73d 6023 093d
00000180: cce7 5f3d f825 69bd 1c1a 4bbe 9019 8c3e
00000190: 990f d03d 58cc 7f3e d93b 843e 5e44 103e
000001a0: aaa1 5f3c 5d49 533d 8962 ccbe e187 173d
000001b0: 96ba 283d 1185 1a3c a6ef 97be e120 803d
000001c0: fe63 25be 42c9 54bd 2487 2d3d 5444 9d3e
000001d0: d6dc eebd 92af 89be 64ad a4be e383 803b
000001e0: 3d09 9b3e 46f8 9fbd 97cc 8abd b8a4 983d
000001f0: 1102 403d 1b63 43bd fd10 debd 7bd6 9e3e
00000200: 3eaf 713e 9df4 a6bd cfeb 22be 4ab3 bc3d
00000210: cf88 9cbe 04f6 9bbd 1a84 ad3d c842 50be
00000220: eb41 853e 7a9d 333e c839 13bd 2d30 10be
00000230: f12a 1d3e 846c 5c3d d764 f03c 8a66 253e
00000240: 5994 cd3d 38a0 5d3d 19f1 42be 0eb5 693d
00000250: 8627 f8bd 9242 e43c 507a 053e 86cb 95bd
00000260: 3313 ddbd e1c7 873e d419 353d cf8f 223e
00000270: a83d d23d d484 0a3d b3dd cdbe b3a0 143e
00000280: a8d7 d4bd 9060 c33d 5181 4bbe cca2 f53d
00000290: 004c bdbd 51bc be3c 3a62 4dbd f5f0 cbbe
000002a0: 8609 30be 4d21 823e b899 f7bc ca4c ce3d
000002b0: 9183 5fbe 2491 6fbe 666b 843d 7197 73be
000002c0: afb3 d2be c25b 0bbe 8be9 0c3e c4eb ac3c
000002d0: f341 833d 6929 2f3c b242 6ebd 6000 303c
000002e0: 9624 c73d 6edb e3bd 2772 06bd 179b edbd
000002f0: d557 afbd 2dcb c53d f33b 823e 4a27 9f3d
00000300: a683 053d 77f7 d0be 4435 54be 57f9 03be
00000310: 9140 92bd 8194 a43e e354 473e d222 42be
00000320: 01a4 debd c6be 883d f0ef 65be 9fae 773e
00000330: 6833 f7bc 9a3f 8bbc b4b9 df3d 314f 9d3d
00000340: f277 ae3d 8a1c 953e ba83 c4bc 1e99 fd3a
00000350: b858 1d3e ea9a a4bc cfdf e03c 6caf fdbc
00000360: b3f2 02be 9cd6 1c3d 4efa f43d 4e1e 0d3e
00000370: 82b1 6dbe 7ccd 4ebd 145d fd3d e705 a2bc
00000380: fadb 33bd 01d1 2fbe 9b90 853d aec4 febc
00000390: 3ec7 533d be0a b6bd 733c 963c d47b aa3d
000003a0: a8c0 803e f360 3a3e 8de9 e53d ea2d 9fbe
000003b0: 6e4b 66bd 1878 66bd f8c4 86be 4797 7f3d
000003c0: 2c97 6dbd 8b60 13be b23e 2bbc a490 443e
000003d0: 782e c7bd 1544 8d3d 627f 833e 48f5 10bc
000003e0: bcdc 13be cb00 6a3d 9ef7 32be e643 9dbe
000003f0: 6986 443d 9759 693d 4090 c03d 13cd f6bd

encoder.3.bias f4 [64]
0.11292044 -0.1119098 0.117202185 0.10998676 -0.11620993 -0.12170321 -0.108234376 0.11974791
-0.11655675 0.11648452 -0.123929374 0.11153038 0.10946677 -0.11829606 0.11045559 -0.11177349
-0.106805936 -0.12088862 -0.11152843 0.11708108 -0.10887638 -0.118648544 0.123494975 0.116149604
0.11100106 0.10943513 -0.12024528 0.117083766 0.11573315 0.11823659 0.122720346 -0.0837615
0.11874141 -0.11629221 -0.11907847 0.103158236 -0.117263176 -0.10756991 -0.12615676 -0.12087623
0.11549318 -0.11288984 0.12081812 -0.121084444 0.11630455 -0.11063714 0.11819884 0.11376517
-0.11128707 0.12296447 -0.12188488 -0.12211743 -0.12288685 -0.055967934 0.11591723 -0.11719039
0.11055804 0.11726335 -0.115662396 -0.11459788 0.11742749 -0.11800982 0.09757473 -0.121835046
00000000: d542 e73d f730 e5bd b307 f03d bd40 e13d
00000010: 79ff edbd 883f f9bd fca9 ddbd 643e f53d
00000020: 4eb5 eebd 708f ee3d afce fdbd 0a6a e43d
00000030: 1d30 e03d 3445 f2bd 8a36 e23d 80e9 e4bd
00000040: 12bd dabd 7494 f7bd 0469 e4bd 35c8 ef3d
00000050: 94fa debd 02fe f2bd efea fc3d d8df ed3d
00000060: 8654 e33d 871f e03d 2843 f6bd 9dc9 ef3d
00000070: 8005 ed3d 0626 f23d ce54 fb3d 268b abbd
00000080: b22e f33d 9c2a eebd 6adf f3bd a044 d33d
00000090: ad27 f0bd 9d4d dcbd 3d2f 01be f58d f7bd
000000a0: b087 ec3d ca32 e7bd 7e6f f73d 1ffb f7bd
000000b0: 1431 ee3d ba95 e2bd 3c12 f23d b7fd e83d
000000c0: 7aea e3bd ccd4 fb3d c89e f9bd b418 fabd
000000d0: 1aac fbbd a23e 65bd 0366 ed3d 8401 f0bd
000000e0: 416c e23d c427 f03d 68e0 ecbd 4bb2 eabd
000000f0: d37d f03d 22af f1bd 43d5 c73d a784 f9bd

regressor.0.weight f4 [256, 64]
0.16360211 -0.05371939 0.16915865 -0.063466325 -0.15089247 -0.1688417 0.049457226 0.15503228
-0.10729867 0.08418468 -0.06000526 0.043776102 -0.05871086 -0.14067094 0.09556907 -0.0040712752
-0.07891317 -0.12830591 -0.13862363 -0.03572592 -0.14518201 0.05324005 -0.011487627 0.10033453
0.0248778 -0.006213229 0.0370269 0.11187671 0.12863623 0.100835286 0.18118827 0.00747566
-0.018742662 -0.110307686 0.039896164 0.16387099 -0.16271414 0.05140988 -0.13462885 0.08526299
-0.04326183 -0.00872883 0.1387234 0.081017345 0.056066725 -0.015501945 0.035119306 -0.07767837
0.02468184 0.08148695 -0.1759058 -0.17630582 -0.15615666 -0.0016956992 0.13735338 0.06468093
-0.05515832 0.010828178 0.069258004 -0.16765337 0.046323624 -0.17292796 -0.037333656 -0.18217835
-0.22459596 -0.044887953 0.0120444745 -0.08751106 0.17384297 0.32461172 0.34277442 -0.105086684
-0.04831927 0.053124875 0.06490634 -0.050456323 -0.08771538 0.018627968 -0.13665165 0.097505875
0.014856242 0.15255654 -0.089747705 -0.09047658 0.094687276 0.023873897 -0.10809446 0.028991744
-0.26284292 0.10356184 -0.07785853 -0.07562802 -0.118291534 -0.32965466 -0.06597989 -0.20725486
-0.025658112 0.05384816 0.00024665834 0.05508846 -0.10251551 0.23560375 -0.08039708 0.00898325
-0.05130061 0.13087465 0.021787116 -0.14947608 0.025441013 0.06970885 0.021928646 -0.07366738
0.081096396 0.09763971 -0.048320204 -0.012968154 -0.07935959 -0.20436798 -0.0027511665 0.069218464
0.09161884 -0.14401107 0.1399962 0.21492766 -0.05790525 0.13962086 -0.052622315 -0.060762018
0.106124416 0.05538757 -0.029674044 -0.032521028 -0.16430604 -0.04449122 -0.14445099 0.102348864
-0.12578228 -0.04418809 -0.13521777 0.027713895 0.08914421 -0.0074951546 0.20725253 -0.13272554
-0.018903205 -0.09221308 0.07652274 0.17947656 0.07887837 -0.15320334 0.056427594 -0.10570475
0.22324507 -0.13128047 0.08982072 0.18978897 0.052112676 0.1293888 -0.10230319 -0.0012880388
0.07673138 -0.03608364 -0.11026804 -0.11230152 -0.07776329 -0.022068793 -0.009695769 -0.14405406
0.1258885 -0.16107577 0.05181544 0.088216566 0.022047473 -0.015798906 -0.05048789 -0.0015206501
-0.13665935 0.018905316 -0.1028335 -0.10668002 -0.12649365 0.110396996 -0.06195714 -0.18045607
0.050128054 0.18837817 -0.1991176 -0.24218719 0.15483402 -0.10196114 0.045769494 0.12754603
0.1012149 0.018897764 -0.07022944 -0.08169122 0.024855433 0.0461945 0.08834439 0.09629904
0.008427102 -0.06451788 0.15714091 -0.09801933 -0.118376486 0.016337067 0.05442631 0.021824066
-0.023727186 0.0914334 -0.09341328 0.023966866 0.10534065 0.0047674067 0.10630052 -0.088057555
-0.04519482 0.098321155 0.03460018 -0.114519306 -0.06602946 0.03733789 -0.04895902 0.1361116
-0.12753122 0.0801122 -0.026247602 -0.14155266 -0.07778819 0.10448711 -0.030512005 -0.13615423
0.111435615 0.04605229 0.106389545 -0.07199212 -0.062697776 0.12847361 0.09204547 -0.027478362
-0.07656988 0.05329525 0.0008134884 0.08998111 -0.11162956 -0.04233393 0.11383962 -0.008280715
0.104670934 -0.011504421 0.09137993 0.047650844 -0.013846985 0.112479255 -0.0024267705 0.076567
00000000: 5087 273e dd08 5cbd ed37 2d3e a2fa 81bd
00000010: 8e83 1abe d7e4 2cbe a993 4a3d c8c0 1e3e
00000020: 68bf dbbd 0469 ac3d 13c8 75bd 924e 333d
00000030: cc7a 70bd 0b0c 10be b7b9 c33d 5568 85bb
00000040: 3a9d a1bd a062 03be 5af3 0dbe 5855 12bd
00000050: 98aa 14be 3d12 5a3d 9a36 3cbc 317c cd3d
00000060: 87cc cb3c 5898 cbbb 85a9 173d 9e1f e53d
00000070: 37b9 033e bb82 ce3d 6b89 393e 62f6 f43b
00000080: 368a 99bc ffe8 e1bd 296a 233d cccd 273e
00000090: 899e 26be 2b93 523d 25dc 09be 5d9e ae3d
000000a0: 5133 31bd 5e03 0fbc 820d 0e3e 6cec a53d
000000b0: 39a6 653d dffb 7dbc 43d9 0f3d d615 9fbd
000000c0: 9231 ca3c a1e2 a63d a620 34be 8389 34be
000000d0: 88e7 1fbe 3942 deba 5da6 0c3e 6f77 843d
000000e0: b1ed 61bd ac68 313c 24d7 8d3d 53ad 2bbe
000000f0: d7bd 3d3d 0714 31be 2deb 18bd f68c 3abe
00000100: 7cfc 65be 6edc 37bd 3056 453c 0039 b3bd
00000110: e403 323e 8233 a63e 2180 af3e b037 d7bd
00000120: 6dea 45bd 7899 593d 9ded 843d 4aab 4ebd
00000130: 1fa4 b3bd ae99 983c 69ee 0bbe 29b1 c73d
00000140: 9867 733c c837 1c3e a5cd b7bd c94b b9bd
00000150: 67eb c13d 3193 c33c a160 ddbd 1880 ed3c
00000160: 5993 86be 3b18 d43d 4b74 9fbd dde2 9abd
00000170: d542 f2bd 7fc8 a8be 7720 87bd 9e3a 54be
00000180: f630 d2bc e38f 5c3d ec51 8139 70a4 613d
00000190: a7f3 d1bd 1c42 713e 39a7 a4bd 7b2e 133c
000001a0: 9720 52bd 0104 063e e57a b23c 4210 19be
000001b0: ac69 d03c 83c3 8e3d b4a3 b33c ecde 96bd
000001c0: de15 a63d 54f7 c73d 68eb 45bd 6178 54bc
000001d0: 4887 a2bd d745 51be ea4c 34bb 69c2 8d3d
000001e0: a9a2 bb3d a377 13be 2a5b 0f3e ff15 5c3e
000001f0: 0e2e 6dbd c5f8 0e3e 7f8a 57bd 98e1 78bd
00000200: c257 d93d 14de 623d fb16 f3bc c534 05bd
00000210: d83f 28be 6d3c 36bd f6ea 13be 489c d13d
00000220: 12cd 00be 92fe 34bd 8776 0abe 4008 e33c
00000230: 3d91 b63d ea99 f5bb 023a 543e 34e9 07be
00000240: e5da 9abc 36da bcbd f4b7 9c3d b4c8 373e
00000250: fc8a a13d 56e1 1cbe 9f20 673d bb7b d8bd
00000260: 5b9a 643e 636e 06be edf3 b73d 0a58 423e
00000270: 1a74 553d 7f7e 043e 5684 d1bd 69d3 a8ba
00000280: 5725 9d3d 70cc 13bd 36d4 e1bd 57fe e5bd
00000290: 5c42 9fbd 9dc9 b4bc 01db 1ebc e882 13be
000002a0: eae8 003e 0cf1 24be 6d3c 543d e3aa b43d
000002b0: e79c b43c b56c 81bc 64cc 4ebd 8d50 c7ba
000002c0: 6ef0 0bbe 52df 9a3c 5f9a d2bd 0e7b dabd
000002d0: 8d87 01be d217 e23d c5c6 7dbd 7ac9 38be
000002e0: 1353 4d3d 35e6 403e 7ce5 4bbe ebff 77be
000002f0: cf8c 1e3e 01d1 d0bd cb78 3b3d 6d9b 023e
00000300: c249 cf3d 7ccf 9a3c 74d4 8fbd ba4d a7bd
00000310: 9f9d cb3c 7236 3d3d e7ed b43d 6e38 c53d
00000320: d411 0a3c f321 84bd 8ce9 203e 5cbe c8bd
00000330: 5f6f f2bd 50d5 853c 1fee 5e3d 62c8 b23c
00000340: 845f c2bc 6f41 bb3d 764f bfbd 2956 c43c
00000350: d7bc d73d e837 9c3b 16b4 d93d 8557 b4bd
00000360: 341e 39bd 9a5c c93d ebb8 0d3d 1989 eabd
00000370: 743a 87bd 9eef 183d 4189 48bd d760 0b3e
00000380: 8b97 02be dd11 a43d 3605 d7bc 2ef3 10be
00000390: 6a4f 9fbd 57fd d53d 50f4 f9bc 046c 0bbe
000003a0: 5b38 e43d 53a1 3c3d c3e2 d93d 9b70 93bd
000003b0: b167 80bd 968e 033e 5682 bc3d 4d1a e1bc
000003c0: abd0 9cbd 1f4c 5a3d 4840 553a 0448 b83d
000003d0: 0a9e e4bd 5866 2dbd bf24 e93d d6ab 07bc
000003e0: b75d d63d 0a7d 3cbc 6725 bb3d 882d 433d
000003f0: 77de 62bc 865b e63d 740a 1fbb 29cf 9c3d

regressor.0.bias f4 [256]
0.085429825 -0.037946694 0.09372843 -0.055810887 0.11528306 -0.016750246 0.11672589 -0.12394146
0.1079992 0.08329299 -0.050215308 -0.016277557 -0.03159559 -0.045765277 -0.045825027 0.08127886
-0.047540735 -0.051563732 0.088938646 -0.058343157 -0.058120396 0.0873272 -0.011571997 0.09882841
0.11566498 -0.040646974 -0.04903364 0.109768495 -0.053524997 0.090755634 0.082956515 0.050565947
-0.045433734 0.1110861 0.11335137 0.11425129 0.107375704 0.15476435 0.034802344 0.10594776
-0.03496427 0.09234114 -0.04008635 -0.038283005 -0.047324095 -0.034012068 0.09163201 0.02779206
-0.029519212 -0.0010431542 0.116063185 -0.046605572 0.108834274 -0.03952822 0.10888539 0.12425336
0.1145584 0.112014905 0.08945582 -0.04339706 0.051558632 -0.04959016 0.13770692 0.110324
0.11004545 -0.047013056 -0.027484234 -0.03494778 0.08620789 -0.05230139 -0.0416214 -0.032063074
0.1038407 0.10715827 -0.041282292 0.13365279 0.10480212 0.110283345 0.102011785 0.11245063
0.10046651 0.090300225 0.09887529 0.11263772 0.11316051 -0.027115704 0.12810884 -0.044651274
0.084366284 -0.045720194 0.11633342 0.12366156 0.104904555 -0.05522778 -0.16456568 0.10677896
0.10437842 0.091665745 -0.06793502 0.0859223 0.094287604 0.19627754 0.11662596 -0.03437063
-0.046205934 -0.13300094 0.11116512 -0.015736736 -0.04224561 0.11267369 0.08359237 -0.038999
-0.0022556824 -0.034739498 0.015124457 0.002468078 0.10595386 -0.2064646 -0.0112116095 -0.045246452
0.10902436 0.10995047 -0.0778556 0.114552714 0.10385366 0.12906612 0.09743835 0.014788565
-0.0344984 -0.044658422 -0.01132203 -0.06619419 0.08774315 -0.01668118 0.116583236 -0.066627905
0.11437388 -0.040674232 0.0038178214 0.112456284 -0.01986031 0.1146522 0.06302003 -0.02156496
0.11050194 0.12422917 -0.04330375 -0.047371402 -0.044583123 0.1121244 0.117270395 -0.027934086
0.104462884 -0.11941171 0.11896721 0.028226526 -0.0400804 -0.033981044 0.13231422 -0.043695237
-0.0473731 0.09894714 0.09465439 -0.045205683 -0.03968907 0.10278923 0.0003740986 0.11587975
0.11089023 -0.040653292 -0.04190572 0.1073798 0.12248711 -0.034121085 -0.051191844 0.06541244
0.11769564 0.08666162 0.1058922 -0.037664194 -0.04683564 -0.041632075 0.12108565 0.07440536
-0.032071915 -0.044312842 0.07924874 0.09427003 0.11738541 -0.039596807 0.12308877 -0.04595131
0.10333849 0.12106181 -0.04222535 -0.04118604 -0.04046983 0.11869108 -0.010640822 -0.04568607
-0.029816128 -0.037405938 -0.043838482 -0.043176156 0.08130929 -0.04226084 0.11447804 0.10133385
0.09350204 0.11862049 -0.04789536 0.054207478 0.12735024 -0.045011144 -0.048177313 0.077390596
0.044224422 0.093868434 -0.03510423 0.116625056 -0.014184144 0.10494743 0.099233426 0.07299885
0.04787486 -0.048927955 0.11019448 0.10141889 0.114403285 0.12029823 -0.0375149 -0.04781781
-0.04840873 0.11584223 -0.048064865 0.10772001 -0.03693121 0.010074561 -0.06835142 0.11377872
0.1050214 -0.038431365 0.13671829 -0.036940016 0.10883094 -0.037930496 0.12044518 0.120820045
-0.05065374 -0.051348384 0.10932497 -0.045115896 -0.047726527 -0.04202631 0.10843956 -0.035109814
00000000: d5f5 ae3d fe6d 1bbd b1f4 bf3d f599 64bd
00000010: 8619 ec3d d037 89bc fc0d ef3d 05d5 fdbd
00000020: af2e dd3d 8495 aa3d 91ae 4dbd 8358 85bc
00000030: 616a 01bd 5f74 3bbd 06b3 3bbd 8875 a63d
00000040: 13ba 42bd 7e34 53bd 7725 b63d 3cf9 6ebd
00000050: a70f 6ebd 9ad8 b23d 7998 3dbc 8d66 ca3d
00000060: c3e1 ec3d 717d 26bd 80d7 48bd 4ece e03d
00000070: 073d 5bbd 17de b93d 1be5 a93d 3d1e 4f3d
00000080: b918 3abd 1c81 e33d c324 e83d 95fc e93d
00000090: cbe7 db3d 8c7a 1e3e e78c 0e3d 24fb d83d
000000a0: b236 0fbd 5a1d bd3d 9631 24bd a4ce 1cbd
000000b0: e9d6 41bd 3d50 0bbd 90a9 bb3d 2dac e33c
000000c0: 46d2 f1bc 72ba 88ba 89b2 ed3d 7ce5 3ebd
000000d0: 81e4 de3d 58e8 21bd 4eff de3d 8c78 fe3d
000000e0: 989d ea3d 1268 e53d 9d34 b73d 1ec1 31bd
000000f0: 252f 533d 0d1f 4bbd 0b03 0d3e 8df1 e13d
00000100: 825f e13d c390 40bd 9e26 e1bc 6725 0fbd
00000110: c38d b03d fb39 56bd 337b 2abd 9254 03bd
00000120: 6faa d43d cc75 db3d 9f17 29bd 47dc 083e
00000130: 7ea2 d63d 3cdc e13d 8eeb d03d 844c e63d
00000140: 63c1 cd3d 53ef b83d 217f ca3d 9bae e63d
00000150: b3c0 e73d c121 debc f72e 033e 41e4 36bd
00000160: 3bc8 ac3d 1945 3bbd 3740 ee3d 4642 fd3d
00000170: 33d8 d63d 8636 62bd e883 28be edae da3d
00000180: 5ac4 d53d 40bb bb3d 8421 8bbd 08f8 af3d
00000190: dc19 c13d fbfc 483e 97d9 ee3d 38c8 0cbd
000001a0: 6f42 3dbd 6631 08be 8aaa e33d 54ea 80bc
000001b0: bc09 2dbd 77c1 e63d 7a32 ab3d 6abd 1fbd
000001c0: 12d4 13bb 014b 0ebd 92cc 773c 7abf 213b
000001d0: 56fe d83d 756b 53be e6b0 37bc 5854 39bd
000001e0: 2a48 df3d b62d e13d c272 9fbd 9d9a ea3d
000001f0: 3ab1 d43d e929 043e c28d c73d bd4b 723c
00000200: 324e 0dbd c0eb 36bd 0980 39bc d290 87bd
00000210: aeb2 b33d f8a6 88bc 31c3 ee3d 3674 88bd
00000220: da3c ea3d 069a 26bd 6a34 7a3b 7b4f e63d
00000230: 17b2 a2bc c6ce ea3d a510 813d 00a9 b0bc
00000240: d74e e23d dd6b fe3d 465f 31bd 8408 42bd
00000250: cb9c 36bd 7aa1 e53d 762b f03d 06d6 e4bc
00000260: a3f0 d53d 208e f4bd 15a5 f33d 513b e73c
00000270: 582b 24bd b52f 0bbd 617d 073e c7f9 32bd
00000280: 4c0a 42bd cca4 ca3d 29da c13d 9829 39bd
00000290: 0291 22bd 2983 d23d aa22 c439 5d52 ed3d
000002a0: 6b1a e33d 1184 26bd 55a5 2bbd f1e9 db3d
000002b0: 86da fa3d 8dc2 0bbd 8aae 51bd f5f6 853d
000002c0: 690a f13d a67b b13d 02de d83d c545 1abd
000002d0: bad6 3fbd 6586 2abd c1fb f73d d661 983d
000002e0: d75d 03bd 6281 35bd 2a4d a23d a510 c13d
000002f0: c367 f03d 4330 22bd f715 fc3d 7137 3cbd
00000300: 21a3 d33d 41ef f73d 7df4 2cbd b1b2 28bd
00000310: b1c3 25bd 4f14 f33d d856 2ebc 5121 3bbd
00000320: f440 f4bc f836 19bd fb8f 33bd 7bd9 30bd
00000330: 7c85 a63d b419 2dbd 7673 ea3d 1f88 cf3d
00000340: ff7d bf3d 4def f23d ed2d 44bd a908 5e3d
00000350: 1a68 023e 9b5d 38bd 9355 45bd f67e 9e3d
00000360: ab24 353d 183e c03d 74c9 0fbd 1ed9 ee3d
00000370: 9d64 68bc aeee d63d e53a cb3d 6c80 953d
00000380: 6e18 443d ae68 48bd a5ad e13d b5b4 cf3d
00000390: 454c ea3d eb5e f63d 39a9 19bd 9cdc 43bd
000003a0: 3c48 46bd b13e ed3d aadf 44bd 4f9c dc3d
000003b0: 2e45 17bd c60f 253c d4fb 8bbd d104 e93d
000003c0: 7615 d73d 356a 1dbd e1ff 0b3e 6a4e 17bd
000003d0: c2e2 de3d 025d 1bbd f6ab f63d 8070 f73d
000003e0: 4c7a 4fbd af52 52bd c5e5 df3d 72cb 38bd
000003f0: e47c 43bd c823 2cbd 8f15 de3d 4fcf 0fbd

regressor.3.weight f4 [64, 256]
-0.114413984 -0.07307478 0.08287849 0.024885496 0.036074076 0.06107395 0.072181165 0.06734756
0.076931715 0.14177588 -0.01189238 0.06388187 0.021527188 0.042440306 0.08851384 -0.08025837
0.109995864 0.08698128 -0.018632637 0.005334512 -0.040828478 -0.007271373 -0.105027705 0.0036827887
0.059888974 -0.0794398 -0.038259856 -0.00215297 -0.076486476 0.037609104 -0.014104977 -0.05243544
-0.029891679 -0.03986864 -0.121172026 -0.021314235 -0.06316036 -0.08708797 -0.036579084 -0.03921596
-0.10284721 0.10727442 -0.061315827 0.06215175 0.06256849 0.041445505 -0.00030800345 -0.06249763
-0.13240205 -0.030728197 -0.003084535 0.03911834 0.12009966 -0.006938642 -0.03468713 -0.023697611
0.0696288 -0.02539312 -0.0024425043 -0.09233999 0.08560366 0.06338329 0.0611343 -0.09418074
0.09721814 0.018161498 -0.07337413 -0.13032566 -0.0063252742 0.09355848 -0.07377295 -0.07887455
0.025560126 -0.03991026 0.038571496 0.087222874 0.08845748 0.023964899 0.06328921 -0.009575775
-0.081431344 -0.023451978 0.097506665 0.017839229 0.02324775 0.10160854 0.07858413 -0.036571834
-0.030578194 0.06369619 0.08299217 -0.027557986 0.06612844 -0.03706717 -0.042000037 0.007882271
0.05905253 -0.034641214 0.020558927 0.13064729 0.060483392 -0.02713414 -0.0025528294 -0.0798391
0.07705027 0.05707873 -0.055778913 -0.012770684 0.0724092 0.07819659 -0.07772357 -0.07155679
-0.12866274 -0.12801269 -0.059849795 -0.10672689 -0.07880915 -0.052753493 -0.016428584 0.0010441698
0.06939813 -0.12087231 0.01881777 0.0068287067 0.03867127 0.09929838 0.030654263 0.05635921
-0.03149223 0.06383445 0.07235336 0.08529064 0.0015393272 -0.14816 -0.061274577 -0.022006886
-0.04699037 0.13254862 -0.043830693 -0.14763603 -0.13046794 0.05837253 0.055622604 0.03534864
0.005414713 -0.08148554 0.043136712 -0.021675766 0.07408671 -0.13775465 0.1253975 0.040027015
-0.0058784313 0.017718298 0.03882754 -0.05326482 0.1188723 -0.11307234 -0.055383716 -0.11183403
-0.060794424 -0.052390315 -0.13742034 -0.029253025 0.03982794 -0.10672835 -0.027847374 0.02918784
-0.07075185 0.04929132 0.052093524 -0.07909292 -0.082008444 -0.11908976 -0.0067267115 -0.04668988
-0.05842921 0.053217333 0.05448841 -0.041895494 -0.059442617 -0.10657732 -0.05504594 -0.1347149
-0.15244801 -0.098963246 0.07262617 -0.1104341 -0.07164643 -0.089505695 0.03352229 -0.072165176
-0.053569596 -0.038173538 0.091254406 -0.03798823 -0.012176363 -0.11105863 0.012046286 -0.015582702
0.040175606 0.05806009 0.09478409 -0.09055473 0.09386545 0.066369526 -0.015463497 0.07765367
-0.07337161 0.109314606 0.107604586 -0.027868489 -0.004983371 0.014021878 0.08521209 -0.039355937
0.004822577 0.08675884 0.10571749 -0.085038394 -0.026767261 -0.053590506 0.07209407 -0.13874887
-0.05504584 0.008246808 0.011964321 -0.10186236 0.056624267 0.021719249 0.090922065 0.11165686
0.109190404 -0.1339918 -0.060221028 -0.028820192 0.030310735 -0.027660934 -0.109839864 0.08477639
-0.13111517 -0.008412374 -0.11738484 0.10236091 -0.12611346 0.027227595 0.015887193 -0.1411246
0.02631175 0.06629891 0.083461896 -0.013150136 0.12979017 0.047598876 0.049137685 0.0014959988
00000000: e151 eabd 3ba8 95bd 33bc a93d abdc cb3c
00000010: 69c2 133d ae28 7a3d b8d3 933d 84ed 893d
00000020: 608e 9d3d b22d 113e 42d8 42bc 7fd4 823d
00000030: c959 b03c e3d5 2d3d bf46 b53d 805e a4bd
00000040: 8345 e13d 3e23 b23d 79a3 98bc 21cd ae3b
00000050: c33b 27bd b344 eebb c418 d7bd f15a 713b
00000060: 244e 753d 55b1 a2bd 5eb6 1cbd d818 0dbb
00000070: f1a4 9cbd 010c 1a3d 9018 67bc 8bc6 56bd
00000080: 65df f4bc 4d4d 23bd 0a29 f8bd 319b aebc
00000090: 385a 81bd 2d5b b2bd f3d3 15bd eaa0 20bd
000000a0: 8fa1 d2bd b1b2 db3d 4e26 7bbd d592 7e3d
000000b0: e923 803d c3c2 293d 867b a1b9 84fd 7fbd
000000c0: 6794 07be b3b9 fbbc e925 4abb 8d3a 203d
000000d0: cff6 f53d 8c5d e3bb 1814 0ebd 7e21 c2bc
000000e0: 8b99 8e3d 3b05 d0bc 6c12 20bb c01c bdbd
000000f0: f950 af3d 19cf 813d f667 7a3d d5e1 c0bd
00000100: 4e1a c73d 6cc7 943c 2d45 96bd 1774 05be
00000110: 3f44 cfbb 979b bf3d 4616 97bd fb88 a1bd
00000120: 7863 d13c f178 23bd 25fd 1d3d e8a1 b23d
00000130: 3229 b53d 0952 c43c c69d 813d b6e3 1cbc
00000140: 7ac5 a6bd 5d1e c0bc 93b1 c73d 9323 923c
00000150: 1172 be3c 2318 d03d b7f0 a03d 59cc 15bd
00000160: 1f7f fabc 2673 823d ccf7 a93d 49c1 e1bc
00000170: 596e 873d bfd3 17bd 3b08 2cbd a424 013c
00000180: 11e1 713d f2e3 0dbd 326b a83c 67c8 053e
00000190: 6fbd 773d 6a48 debc 5f4d 27bb af82 a3bd
000001a0: 88cc 9d3d 63cb 693d 6e78 64bd 223c 51bc
000001b0: 464b 943d 8925 a03d 892d 9fbd 5e8c 92bd
000001c0: 2ac0 03be c215 03be 0f25 75bd a193 dabd
000001d0: b166 a1bd 0c14 58bd 3d95 86bc 86dc 883a
000001e0: 9b20 8e3d e78b f7bd b927 9a3c 58c3 df3b
000001f0: c465 1e3d f35c cb3d a61e fb3c ead8 663d
00000200: fffd 00bd a3bb 823d 002e 943d dcac ae3d
00000210: 40c3 c93a 41b7 17be 0dfb 7abd c947 b4bc
00000220: f978 40bd d3ba 073e d087 33bd e62d 17be
00000230: 6399 05be 0918 6f3d 87d4 633d bcc9 103d
00000240: e86d b13b e4e1 a6bd 1fb0 303d 6091 b1bc
00000250: c6ba 973d 8e0f 0dbe 3468 003e 5ef3 233d
00000260: db9f c0bb f725 913c a009 1f3d 362c 5abd
00000270: 5273 f33d 7992 e7bd 09da 62bd 3d09 e5bd
00000280: 9303 79bd 3a97 56bd ebb7 0cbe 0aa4 efbc
00000290: 9f22 233d 6594 dabd 2d20 e4bc 561b ef3c
000002a0: 59e6 90bd b2e5 493d 0560 553d 78fb a1bd
000002b0: 0bf4 a7bd 55e5 f3bd bf6b dcbb e33d 3fbd
000002c0: 7853 6fbd 6bfa 593d 3d2f 5f3d 9c9a 2bbd
000002d0: 1a7a 73bd 3645 dabd da77 61bd b4f2 09be
000002e0: 551b 1cbe 3ead cabd 08bd 943d 462b e2bd
000002f0: 5dbb 92bd c34e b7bd ab4e 093d 56cb 93bd
00000300: cb6b 5bbd db5b 1cbd 97e3 ba3d 8c99 1bbd
00000310: 5e7f 47bc b572 e3bd c95d 453c 974e 7fbc
00000320: 2d8f 243d 6bd0 6d3d 291e c23d c274 b9bd
00000330: 873c c03d bfec 873d 9b5a 7dbc e308 9f3d
00000340: db43 96bd 56e0 df3d cb5f dc3d 754c e4bc
00000350: 8c4b a3bb 05bc 653c ad83 ae3d b133 21bd
00000360: b506 9e3b 9eae b13d 6982 d83d 9c28 aebd
00000370: 0447 dbbc b881 5bbd 0ea6 933d 2f14 0ebe
00000380: bf77 61bd 9f1d 073c 0006 443c 379d d0bd
00000390: d9ee 673d 91ec b13c 5935 ba3d 5aac e43d
000003a0: 389f df3d 2535 09be 53aa 76bd 5318 ecbc
000003b0: 384e f83c 2f99 e2bc b9f3 e0bd 3e9f ad3d
000003c0: 0e43 06be 0ed4 09bc 7767 f0bd 99a2 d13d
000003d0: e323 01be 680c df3c dc25 823c f882 10be
000003e0: bd8b d73c b9c7 873d 12ee aa3d ab73 57bc
000003f0: b7e7 043e 0af7 423d 9944 493d 6415 c43a

regressor.3.bias f4 [64]
-0.049996417 0.09082388 -0.046679303 0.09552112 -0.04249016 -0.051294956 0.11849859 -0.06169373
-0.06942393 -0.110904746 -0.06203832 0.09738602 0.11158385 -0.05514324 -0.078759916 0.0822007
-0.03733314 -0.064802095 0.07851051 -0.038373668 -0.05382581 0.09829694 0.09263494 -0.06517608
-0.056525625 -0.0573128 -0.0478217 -0.04731431 -0.046232324 -0.043673366 -0.057022586 -0.046980146
-0.07021779 -0.07543265 -0.04992129 0.10380801 -0.055331826 -0.051857136 -0.06378365 0.13646579
0.09360036 -0.07281167 -0.055344753 0.115279265 0.11260498 0.09384872 -0.043371778 -0.071143806
-0.1045741 -0.07202083 -0.06267092 -0.05147833 -0.038840126 0.09081409 0.08413557 -0.05197465
0.122390054 0.11454331 -0.04974974 -0.040292714 -0.05501023 0.10051509 -0.058201186 0.10879268
00000000: 0bc9 4cbd df01 ba3d cc32 3fbd 94a0 c33d
00000010: 290a 2ebd a91a 52bd 64af f23d 91b2 7cbd
00000020: 222e 8ebd 0722 e3bd e51b 7ebd 5272 c73d
00000030: 1386 e43d e1dd 61bd e14c a1bd d758 a83d
00000040: a2ea 18bd f6b6 84bd 1eca a03d b52d 1dbd
00000050: 7478 5cbd e84f c93d 63b7 bd3d 097b 85bd
00000060: 6a87 67bd d4c0 6abd b0e0 43bd a6cc 41bd
00000070: 1b5e 3dbd d8e2 32bd 8490 69bd 416e 40bd
00000080: 58ce 8fbd 6f7c 9abd 447a 4cbd 4b99 d43d
00000090: a0a3 62bd 2668 54bd 01a1 82bd b0bd 0b3e
000000a0: 8cb1 bf3d 491e 95bd 2eb1 62bd 8917 ec3d
000000b0: 719d e63d c233 c03d 9ba6 31bd d8b3 91bd
000000c0: f22a d6bd a87f 93bd 9c59 80bd f1da 52bd
000000d0: d316 1fbd bdfc b93d 454f ac3d 5fe3 54bd
000000e0: a3a7 fa3d af95 ea3d 62c6 4bbd f909 25bd
000000f0: 6852 61bd dbda cd3d 5e64 6ebd b2ce de3d

regressor.5.weight f4 [1, 64]
-0.32704043 0.10015016 -0.26247633 0.11741206 -0.19647728 -0.28476262 0.09399885 -0.35725754
-0.28613728 -0.22676998 -0.40773937 0.27293226 0.08298555 -0.37269574 -0.07408735 0.10745337
-0.43427762 -0.23021886 0.10397887 -0.4166876 -0.24915053 0.19017954 0.37787065 -0.17639947
-0.18994066 -0.22701028 -0.23686835 -0.33425686 -0.24302691 -0.2844513 -0.19111931 -0.21323325
-0.13159956 -0.32395577 -0.20132422 0.2523766 -0.46455935 -0.2890563 -0.13509434 0.22781117
0.3738714 -0.21133855 -0.36574972 0.2916861 0.25285646 0.21964629 -0.24673095 -0.26924857
-0.33242044 -0.22127531 -0.32014033 -0.48341486 -0.3469678 0.34751284 0.12656957 -0.18269618
0.11599077 0.0891102 -0.4066755 -0.26921672 -0.23566881 0.22376001 -0.19808057 0.2905229
00000000: d871 a7be 871b cd3d 4c63 86be bc75 f03d
00000010: 5731 49be 68cc 91be 7882 c03d 76ea b6be
00000020: 9680 92be 6436 68be 37c3 d0be c7bd 8b3e
00000030: 54f4 a93d fad1 bebe 1cbb 97bd 8310 dc3d
00000040: a359 debe 7ebe 6bbe e0f2 d43d 1458 d5be
00000050: 5121 7fbe 6dbe 423e 4378 c13e 10a2 34be
00000060: ce7f 42be 6275 68be 9e8d 72be b723 abbe
00000070: 0cdc 78be 9aa3 91be c8b4 43be d159 5abe
00000080: 09c2 06be 88dd a5be f027 4ebe 8137 813e
00000090: b9da edbe 30ff 93be 2c56 0abe 5547 693e
000000a0: 126c bf3e 2269 58be 8c43 bbbe e157 953e
000000b0: 6776 813e f5ea 603e 0aa7 7cbe f3da 89be
000000c0: 0333 aabe ff95 62be 6fe9 a3be 2782 f7be
000000d0: c3a5 b1be 34ed b13e 749b 013e b514 3bbe
000000e0: 928c ed3d 697f b63d c537 d0be c6d6 89be
000000f0: 2a53 71be 5821 653e a2d5 4abe 6bbf 943e
