src/simple-FT_ver1.00/data/experiments/fecu_to_fefe_finetune_target256_20260120_165217/models/finetuned_model.pth (torch, 828549 bytes, 9 tensors)

encoder.0.weight f4 [512, 2]
0.080310635 0.0007697994 -0.10076384 -0.047317546 0.0075751953 -0.06087712 -0.020618508 0.06971871
0.02029738 -0.035588484 -0.09294215 -0.022501722 -0.1268687 -0.020762034 0.00053614273 -0.07587043
0.18043602 0.11206541 -0.07188292 -0.043968838 0.16297776 0.091888696 0.040066738 -0.071248375
0.014778124 0.038763016 0.032590993 -0.09000006 0.0030489159 0.0076956404 0.037456337 -0.0757447
0.06551363 -0.021925878 0.17936572 0.01723084 0.08558954 -0.025499985 0.22424883 0.10355834
-0.13383487 0.023281954 -0.27483413 -0.06846246 0.09272311 -0.09472478 0.12505968 0.07646764
0.028425662 0.08467036 0.03246923 -0.035133842 -0.06920205 0.038506 0.21298896 0.06734576
0.080858625 0.054776464 0.11329658 0.042365402 0.024622502 -0.10026384 -0.10749477 -0.02457683
-0.2991216 -0.05858055 -0.0041917902 -0.02583531 -0.03143344 0.04794845 -0.055990364 -0.04946813
0.059654176 0.006190156 0.037311003 -0.02496313 -0.011851777 0.014003551 -0.05857714 0.051977497
0.024657292 -0.057227 0.061027106 0.0040925583 0.015427857 -0.10510477 0.022015035 -0.029425763
0.09448487 0.074773245 0.013594865 0.012559743 0.17600712 0.11998737 0.07216317 -0.1138366
0.20955397 0.007454301 0.038578574 0.027107438 -0.112119906 0.056760207 0.06030529 -0.03711102
-0.08302546 -0.008927166 0.16508383 0.12217933 -0.059576094 0.03171181 0.046645083 0.043237764
0.20000306 0.10707566 -0.04738471 0.022009186 0.07292181 -0.10650374 0.22726308 0.054211672
-0.059092216 0.058763977 0.14030513 0.10445828 -0.009624466 -0.054696973 -0.12301194 -0.09523679
0.019185703 -0.068371296 0.12902877 0.088405274 0.12952821 0.09393919 0.14044705 0.044404257
-0.1306491 0.042588178 -0.06476001 0.05527851 0.07516393 -0.0066701286 0.08172621 0.08532017
0.0103076985 -0.066637106 -0.21164511 -0.014814277 0.07112428 -0.011818097 0.072619036 -0.0136592295
-0.21868229 -0.03502896 -0.12658632 0.019331792 -0.03264966 -0.023881854 0.06108435 0.0077023106
0.023837328 -0.095977016 0.050279252 0.05080985 0.058233533 -0.03985397 0.04872097 -0.013217901
0.019990027 0.0065239174 -0.1844016 0.03535866 -0.0059491503 -0.006307578 0.07808339 0.03809155
-0.15502201 -0.042051073 0.08456529 0.07936517 -0.12633342 -0.026426205 0.06921466 0.037153363
0.11905252 0.111964785 0.006615014 -0.0040888526 0.09425522 0.0015494773 0.041053385 -0.017092902
0.052502695 -0.030339906 0.18672065 0.04885353 0.220926 0.051274 -0.0078089973 -0.07654257
0.060256403 -0.039620023 0.03430294 0.0026100078 -0.12984535 0.017857444 0.17118675 0.07373032
-0.17915487 -0.0027718453 0.13852692 0.053860463 0.0059801354 -0.07061085 -0.094378375 -0.031321116
-0.0069271936 0.02192184 -0.11544104 0.0005381215 0.1116852 -0.06400655 -0.18721679 0.011067002
0.051122807 0.05273743 -0.062290043 0.05477972 0.016870728 -0.020569615 -0.07889257 0.02654777
-0.075430125 0.039425686 0.05573571 -0.004436532 0.08648087 -0.050717056 -0.053556938 0.061864536
0.074064836 -0.096965946 -0.15670232 -0.003862592 -0.19143936 0.028442783 0.15126786 0.03677749
0.10928629 0.10109564 0.07898218 -0.0892241 0.0015372423 0.0173053 -0.07590113 -0.026241135
00000000: e779 a43d 5dcc 493a 465d cebd 0bd0 41bd
00000010: 5839 f83b 495a 79bd 25e8 a8bc afc8 8e3d
00000020: b146 a63c 3bc5 11bd 7458 bebd 8855 b8bc
00000030: dee9 01be 2415 aabc ee8b 0c3a f561 9bbd
00000040: 38c4 383e 8d82 e53d 5a37 93bd ab18 34bd
00000050: a4e3 263e 2430 bc3d 051d 243d abea 91bd
00000060: f21f 723c f8c5 1e3d 227e 053d f451 b8bd
00000070: 52d0 473b b62b fc3b d16b 193d 0a20 9bbd
00000080: 032c 863d e69d b3bc a6ab 373e b127 8d3c
00000090: 9249 af3d 58e5 d0bc 7ca1 653e 6516 d43d
000000a0: 020c 09be ccb9 be3c 0fb7 8cbe 0c36 8cbd
000000b0: 9de5 bd3d 11ff c1bd a50f 003e 119b 9c3d
000000c0: efdc e83c a767 ad3d 75fe 043d 81e8 0fbd
000000d0: ceb9 8dbd 78b8 1d3d c719 5a3e 93ec 893d
000000e0: 3599 a53d 495d 603d 0a08 e83d 5887 2d3d
000000f0: 21b5 c93c 2157 cdbd 3826 dcbd 5955 c9bc
00000100: 7726 99be 29f2 6fbd 495b 89bb 92a4 d3bc
00000110: 5ac0 00bd 9865 443d 2756 65bd 189f 4abd
00000120: f057 743d cbd6 ca3b 6cd3 183d 7a7f ccbc
00000130: f52d 42bc 266f 653c 95ee 6fbd 5be6 543d
00000140: 17fe c93c dc66 6abd 8ff7 793d de1a 863b
00000150: 1fc5 7c3c 2b41 d7bd e058 b43c 4c0e f1bc
00000160: 4981 c13d b722 993d ffbc 5e3c 61c7 4d3c
00000170: 363b 343e f0bb f53d 49ca 933d 2a23 e9bd
00000180: 5195 563e 3643 f43b 9104 1e3d 6b10 de3c
00000190: 1f9f e5bd 647d 683d ae02 773d ba01 18bd
000001a0: 4109 aabd 4043 12bc bc0b 293e 2839 fa3d
000001b0: 1006 74bd 3ee4 013d ea0e 3f3d 151a 313d
000001c0: 9acd 4c3e 7c4a db3d 7816 42bd 9c4c b43c
000001d0: 0858 953d a21e dabd a7b7 683e 0f0d 5e3d
000001e0: ae0a 72bd 7fb2 703d 26ac 0f3e 39ee d53d
000001f0: f0af 1dbc ef09 60bd afed fbbd 820b c3bd
00000200: 562b 9d3c 4006 8cbd 1e20 043e d30d b53d
00000210: 0ba3 043e 3163 c03d 5ad1 0f3e 3de1 353d
00000220: e1c8 05be f170 2e3d e5a0 84bd b86b 623d
00000230: 8cef 993d 1891 dabb 1260 a73d 57bc ae3d
00000240: 9fe1 283c 0979 88bd 7fb9 58be 95b7 72bc
00000250: 9ba9 913d b1a0 41bc 4ab9 943d f6ca 5fbc
00000260: 40ee 5fbe 877a 0fbd d89f 01be b55d 9e3c
00000270: a6bb 05bd e1a3 c3bc 9533 7a3d aa63 fc3b
00000280: 8046 c33c 998f c4bd 9ef1 4d3d fd1d 503d
00000290: 4986 6e3d eb3d 23bd a48f 473d e58f 58bc
000002a0: 20c2 a33c 96c6 d53b c6d3 3cbe 3ed4 103d
000002b0: 17f1 c2bb cdaf cebb 2fea 9f3d e305 1c3d
000002c0: 17be 1ebe bf3d 2cbd 9130 ad3d 358a a23d
000002d0: 8c5d 01be c57b d8bc 6ac0 8d3d 202e 183d
000002e0: cfd1 f33d cb4d e53d c2c2 d83b c8fb 85bb
000002f0: e108 c13d d517 cb3a 9827 283d 6a06 8cbc
00000300: 110d 573d 658b f8bc b333 3f3e a41a 483d
00000310: 6d3a 623e b004 523d 9ee2 ffbb 5ac2 9cbd
00000320: 6bcf 763d 9b48 22bd 3d81 0c3d aa0c 2b3b
00000330: 2ef6 04be c649 923c 944b 2f3e ecff 963d
00000340: 6074 37be d9a7 35bb 00da 0d3e ca9c 5c3d
00000350: 03f5 c33b 6c9c 90bd 7349 c1bd 924a 00bd
00000360: 83fd e2bb 6e95 b33c 5a6c ecbd b910 0d3a
00000370: 36bb e43d de15 83bd c2b5 3fbe 5f52 353c
00000380: 2666 513d 3403 583d d823 7fbd b360 603d
00000390: 7b34 8a3c 9c81 a8bc 6e92 a1bd b57a d93c
000003a0: 1c7b 9abd d47c 213d 214b 643d 5460 91bb
000003b0: e21c b13d b0bc 4fbd 855e 5bbd ab65 7d3d
000003c0: 4eaf 973d 1596 c6bd 9376 20be 8a23 7dbb
000003d0: ae08 44be d700 e93c f6e5 1a3e fea3 163d
000003e0: 7ed1 df3d 3b0b cf3d 69c1 a13d 20bb b6bd
000003f0: 4b7d c93a d8c3 8d3c 0d72 9bbd a6f7 d6bc

encoder.0.bias f4 [512]
0.11150514 0.025492955 0.054208346 0.056365985 0.06717286 -0.09282368 0.03840644 -0.013689457
-0.07476249 0.024778085 -0.08337427 0.07682559 -0.08151951 0.07804867 -0.080246605 0.06807483
0.08369649 -0.03645729 0.110846326 -0.054620568 -0.08553976 -0.124959305 0.066286124 -0.031645488
-0.07764829 0.06639416 0.04496554 -0.06870565 -0.06745088 -0.07274218 0.054245126 0.04007463
-0.114515364 0.06184613 -0.09224639 0.055015754 -0.07804363 0.07886944 0.082495496 -0.06694186
0.05917381 0.110714346 0.063325025 0.06713595 -0.08000326 -0.07360031 -0.06924215 0.07175907
-0.06550652 -0.07197217 0.054992907 0.082162775 -0.012968418 -0.06593949 -0.08501591 -0.06545986
-0.05246185 0.041681167 0.08272565 -0.05755035 0.01582968 -0.07558814 0.06550897 0.024866058
0.07845672 -0.072149836 -0.0693912 -0.07377777 0.045405272 -0.074871026 -0.08818951 -0.0564135
0.051529046 -0.097442746 -0.083582506 0.10085986 -0.09275548 -0.09556172 0.06508878 -0.08372831
0.061350085 -0.078525275 0.078828156 0.08953397 0.068821795 -0.090394944 -0.08355808 -0.06664329
-0.089835204 -0.07283346 0.034981996 -0.07453073 -0.082265414 0.06643066 -0.082709506 0.07882128
0.076227576 -0.06019355 -0.06019928 0.0641595 0.087863274 -0.070365794 -0.078226805 -0.059776165
-0.087045796 -0.06467707 0.057185076 -0.010029685 -0.07369719 0.03478332 0.07633802 -0.103337616
-0.08000139 -0.08966389 0.07200623 -0.0756273 -0.08850318 -0.063821115 0.08727389 0.045181178
0.07413675 -0.08453638 -0.097630404 -0.067935824 -0.060275216 0.07773455 0.08283734 -0.080505066
0.06886741 -0.06452607 0.075760424 0.071048655 0.06519761 0.08388259 -0.05866956 -0.060767323
0.0655931 0.054066014 0.0704484 -0.085725695 -0.08206854 -0.078769006 -0.054209154 0.070123285
-0.08761923 0.075152196 -0.09018919 -0.06766867 0.061536506 -0.08742296 -0.067042686 -0.06487769
-0.06686762 0.055292323 0.0555552 -0.07680671 -0.07386216 0.08920138 0.07630246 -0.07190816
0.061266728 -0.08280946 0.09042948 -0.07425921 -0.0674299 -0.07344806 -0.027395548 0.08733551
-0.087316565 0.07722377 0.0639271 0.07208803 0.029391648 -0.0038949659 0.05547336 -0.09352343
-0.08032816 0.038335405 -0.067762434 0.092266865 -0.065714136 0.07412025 -0.06876315 -0.07222016
-0.057820827 0.044328332 -0.071285404 -0.06302829 -0.08184192 -0.072193414 0.07975852 0.0854237
0.060354505 0.097885616 -0.07169239 -0.09006282 0.084077075 -0.069431275 0.055088673 -0.10459053
0.077914774 -0.07663732 0.085891016 -0.03857519 0.018589301 -0.08127615 0.08870176 0.087213404
0.03262689 -0.08479779 -0.0666265 -0.05556461 -0.08248634 -0.09284693 -0.07774985 -0.07632591
0.07107093 0.07252383 -0.091367245 -0.06773 0.064858094 -0.06675063 0.037501935 -0.087765
0.08901304 -0.08207319 0.07664971 0.068534195 0.061908826 -0.07595377 -0.1005276 0.064834066
-0.073687315 -0.09401696 -0.0890414 0.078447305 -0.080614015 0.065798566 -0.058082838 0.061186474
-0.080650926 -0.05197626 -0.002272659 0.05892069 -0.09664086 0.07310396 0.079573706 -0.07476884
-0.054065373 0.05095951 0.06462207 0.052803837 -0.079486124 0.051433306 0.060601313 -0.08595763
00000000: cf5c e43d 9ad6 d03c 9209 5e3d 05e0 663d
00000010: ed91 893d 571a bebd 1250 1d3d bf49 60bc
00000020: 141d 99bd 69fb ca3c 21c0 aabd bc56 9d3d
00000030: b3f3 a6bd fbd7 9f3d 5558 a4bd d16a 8b3d
00000040: 1169 ab3d 3d54 15bd 6603 e33d d1b9 5fbd
00000050: 782f afbd aaea ffbd 05c1 873d b39e 01bd
00000060: 1106 9fbd a9f9 873d c92d 383d 8cb5 8cbd
00000070: b023 8abd daf9 94bd 2330 5e3d 4c25 243d
00000080: 0887 eabd 5e52 7d3d adeb bcbd 3358 613d
00000090: 57d5 9fbd 4d86 a13d 66f3 a83d d018 89bd
000000a0: 3d60 723d 34be e23d 8db0 813d 937e 893d
000000b0: c0d8 a3bd c2bb 96bd d4ce 8dbd 6bf6 923d
000000c0: 4828 86bd 2566 93bd 3e40 613d f544 a83d
000000d0: 7d79 54bc 490b 87bd d21c aebd d20f 86bd
000000e0: 3de2 56bd dfb9 2a3d 116c a93d eab9 6bbd
000000f0: 3fad 813c f4cd 9abd 9129 863d e7b3 cb3c
00000100: ebad a03d 4bc3 93bd f91c 8ebd cd18 97bd
00000110: e1fa 393d fb55 99bd b49c b4bd d811 67bd
00000120: 1f10 533d 1090 c7bd 4e2d abbd 9d8f ce3d
00000130: 96f6 bdbd ddb5 c3bd 444d 853d c079 abbd
00000140: 3a4a 7b3d dcd1 a0bd a870 a13d 965d b73d
00000150: 71f2 8c3d fc20 b9bd 8020 abbd 477c 88bd
00000160: 85fb b7bd b629 95bd 4849 0f3d 91a3 98bd
00000170: c57a a8bd cc0c 883d 9a63 a9bd 0d6d a13d
00000180: 341d 9c3d 838d 76bd 8593 76bd 0e66 833d
00000190: a9f1 b33d f11b 90bd 6035 a0bd dad7 74bd
000001a0: 1145 b2bd 6975 84bd e63a 6a3d 8c53 24bc
000001b0: 8dee 96bd f478 0e3d 1c57 9c3d aca2 d3bd
000001c0: c5d7 a3bd b4a1 b7bd 0178 933d 7ce2 9abd
000001d0: 2841 b5bd a5b4 82bd a7bc b23d e60f 393d
000001e0: 02d5 973d 6921 adbd 73f2 c7bd f021 8bbd
000001f0: 25e3 76bd 4b33 9f3d a0a6 a93d d7df a4bd
00000200: 5b0a 8d3d 3f26 84bd 4828 9b3d f581 913d
00000210: 5386 853d a3ca ab3d 7e4f 70bd 28e7 78bd
00000220: ad55 863d 5374 5d3d 4047 903d f490 afbd
00000230: 8d13 a8bd a551 a1bd 6b0a 5ebd cc9c 8f3d
00000240: b671 b3bd 65e9 993d 1cb5 b8bd df95 8abd
00000250: b40d 7c3d cf0a b3bd ad4d 89bd 98de 84bd
00000260: e4f1 88bd 347a 623d d98d 633d d64c 9dbd
00000270: 0b45 97bd 37af b63d 7744 9c3d 9644 93bd
00000280: d2f2 7a3d 0298 a9bd 1733 b93d 3615 98bd
00000290: b018 8abd f06b 96bd a16c e0bc f6dc b23d
000002a0: 07d3 b2bd 7f27 9e3d 36ec 823d e4a2 933d
000002b0: c1c6 f03c af42 7fbb 0938 633d 3689 bfbd
000002c0: 1783 a4bd 9605 1d3d 08c7 8abd 69f6 bc3d
000002d0: 2295 86bd 5ccc 973d b2d3 8cbd 2ae8 93bd
000002e0: 88d5 6cbd a091 353d 15fe 91bd fa14 81bd
000002f0: bd9c a7bd 24da 93bd 6f58 a33d 9ff2 ae3d
00000300: 4936 773d 4178 c83d 76d3 92bd db72 b8bd
00000310: 9a30 ac3d fc31 8ebd a9a4 613d 8f33 d6bd
00000320: c891 9f3d 07f4 9cbd a1e7 af3d 0501 1ebd
00000330: 9748 983c 1c74 a6bd 45a9 b53d f19c b23d
00000340: c6a3 053d 77aa adbd 7973 88bd b797 63bd
00000350: 99ee a8bd 8826 bebd 503b 9fbd c250 9cbd
00000360: a38d 913d 6087 943d c01e bbbd 07b6 8abd
00000370: 52d4 843d 8eb4 88bd a19b 193d 23be b3bd
00000380: 784c b63d fd15 a8bd 86fa 9c3d a85b 8c3d
00000390: 1c94 7d3d a68d 9bbd 6ae1 cdbd b9c7 843d
000003a0: 60e9 96bd f78b c0bd 565b b6bd fba8 a03d
000003b0: f618 a5bd 66c1 863d 45e8 6dbd ab9e 7a3d
000003c0: 502c a5bd 0fe5 54bd e4f0 14bb d256 713d
000003d0: a5eb c5bd 87b7 953d 8af7 a23d 6820 99bd
000003e0: a773 5dbd ebba 503d 9358 843d d648 583d
000003f0: 9fc9 a2bd bbab 523d 1539 783d 8e0a b0bd

encoder.3.weight f4 [128, 512]
-0.0019017222 0.06757521 0.07021192 -0.03528048 -0.017996322 0.061494816 -0.042673204 0.016921284
0.08605329 -0.03591214 -0.0129455915 -0.024820037 -0.025215412 -0.124627456 0.09963333 0.007319965
-0.09623995 -0.014555202 -0.058966357 -0.06234029 0.20508377 0.11565692 -0.021115832 -0.022729082
0.026847528 -0.08589784 -0.08206462 0.010275005 0.06406336 0.115216225 -0.1070975 -0.019531798
0.06428218 -0.018836886 -0.036737103 0.023849923 0.060578316 -0.098066755 -0.049447376 0.019672941
0.026486933 -0.0042136484 -0.060592055 -0.075574495 0.10969369 0.05956901 0.062382128 -0.127981
0.015184233 0.11290266 -0.004994298 -0.16191696 0.104507096 0.08665155 -0.008258347 -0.03072449
-0.07652096 -0.015497729 -0.044651862 -0.045739546 -0.0690889 0.087015286 0.037209943 0.067426585
0.00933694 0.050501317 -0.0027555763 0.043126244 0.05247613 0.1142527 0.002916131 -0.03869597
-0.067291476 0.15901907 0.046162155 -0.016089773 0.14052473 0.20388864 -0.07580625 -0.021527078
-0.08437101 0.05477117 -0.028092634 -0.13477273 -0.018942397 0.023002913 0.11923841 -0.02813016
0.12415664 -0.008301913 -0.034777395 -0.029104918 -0.04007964 -0.014120344 0.02145095 -0.014473498
-0.123928934 0.12490275 0.040572736 0.07703987 -0.043436818 0.04619726 0.08336848 0.023213007
0.03278862 0.095247105 -0.09409726 0.09600498 -0.0153510785 -0.06833306 -0.0061666975 0.22705834
0.051030565 0.08263422 -0.0480951 0.16830614 0.10024014 0.02425809 -0.09932607 -0.044768397
-0.088200144 0.21640962 0.17709011 0.015315175 0.019806605 -0.13578278 -0.1036631 0.1106913
-0.12400949 -0.038975045 -0.07617975 0.0009857306 -0.024217825 -0.01265366 -0.07552444 0.0071674157
-0.017838312 0.090635516 -0.09644879 0.15319234 0.1295983 0.050085146 -0.03804713 -0.12945211
0.013126032 -0.15715781 0.022368105 0.1701039 -0.06002912 0.15491001 0.1269156 0.083488844
0.015370498 -0.08346003 -0.0071516386 0.12850238 0.10303379 -0.06490504 -0.122022614 0.028538773
0.07311141 0.07376482 -0.1686908 0.055773966 -0.079871565 0.02184866 -0.07684468 -0.08774646
0.16743533 -0.047782194 -0.09905026 -0.0137498705 0.09787105 0.045573805 0.04000599 0.084908925
0.05798162 0.039043814 0.09429875 -0.0069469525 -0.05349987 0.010464503 0.06314095 0.01724678
0.006798564 -0.061673407 0.065973714 0.051993817 0.16574557 0.07229235 -0.109582886 -0.13030744
-0.056367148 -0.056873307 0.10476381 0.09331286 -0.08383482 0.025204334 0.035253767 0.13790385
-0.14683013 0.040418874 -0.11364512 -0.027841853 -0.06442542 -0.04536301 -0.111052245 -0.054985005
0.07263713 0.06706522 -0.057052176 0.07963312 -0.01269295 0.18578786 0.033215307 0.077665746
0.0034027346 -0.158657 0.1922233 0.032650672 -0.07457323 0.020324279 0.016667278 0.124164626
-0.11217029 0.04153108 0.018056307 0.044829983 -0.07772395 0.002108908 0.06267252 -0.11442373
0.030687856 0.03007947 0.16177051 -0.14507766 0.029205786 -0.007338245 -0.050510988 0.05818961
0.07918148 0.06918921 -0.022710703 -0.029481543 0.13131173 -0.021333316 -0.16429721 0.09690567
-0.036942128 -0.108439244 -0.1145881 0.051977392 -0.027603798 0.030480286 -0.02827176 0.087428816
00000000: 3543 f9ba df64 8a3d 44cb 8f3d 4482 10bd
00000010: 066d 93bc fde1 7b3d 19ca 2ebd 819e 8a3c
00000020: b53c b03d 9c18 13bd bf19 54bc 6453 cbbc
00000030: 8d90 cebc ae3c ffbd 8f0c cc3d 51dc ef3b
00000040: 7319 c5bd f178 6ebc b586 71bd 8858 7fbd
00000050: 7b01 523e 89dd ec3d 1cfb acbc 5732 babc
00000060: 59ef db3c 35eb afbd 7f11 a8bd 7f58 283c
00000070: a733 833d 7cf6 eb3d ef55 dbbd 2601 a0bc
00000080: 60a6 833d d04f 9abc a579 16bd ea60 c33c
00000090: f820 783d 39d7 c8bd 5589 4abd 2629 a13c
000000a0: 20fb d83c a512 8abb 602f 78bd cdc6 9abd
000000b0: 16a7 e03d a2fe 733d 6784 7f3d 740d 03be
000000c0: 4ac7 783c 8339 e73d 35a7 a3bb 8fcd 25be
000000d0: d107 d63d 5e76 b13d 054e 07bc edb1 fbbc
000000e0: 05b7 9cbd 30ea 7dbc dfe4 36bd 6459 3bbd
000000f0: 7b7e 8dbd 1235 b23d 7469 183d f316 8a3d
00000100: f7f9 183c 78da 4e3d e696 34bb 25a5 303d
00000110: 36f1 563d 52fd e93d 8f1c 3f3b aa7f 1ebd
00000120: 1dd0 89bd e5d5 223e 8714 3d3d b3ce 83bc
00000130: b7e5 0f3e 2fc8 503e 4f40 9bbd 8e59 b0bc
00000140: b5ca acbd bc57 603d 8622 e6bc dd01 0abe
00000150: 162d 9bbc 9b70 bc3c 4433 f43d 3971 e6bc
00000160: d645 fe3d bf04 08bc be72 0ebd 706d eebc
00000170: 8c2a 24bd 0459 67bc e7b9 af3c 4022 6dbc
00000180: 74ce fdbd 03cd ff3d 992f 263d 14c7 9d3d
00000190: ceea 31bd 5739 3d3d 18bd aa3d 3429 be3c
000001a0: 5c4d 063d ea10 c33d 10b6 c0bd 429e c43d
000001b0: 1783 7bbc 34f2 8bbd 0212 cabb fb81 683e
000001c0: 6d05 513d 213c a93d 5eff 44bd 7258 2c3e
000001d0: b44a cd3d e7b8 c63c 776b cbbd 115f 37bd
000001e0: 47a2 b4bd 7c9a 5d3e 1c57 353e 80ec 7a3c
000001f0: 7641 a23c a40a 0bbe 524d d4bd 1fb2 e23d
00000200: b0f8 fdbd 4ca4 1fbd 2104 9cbd a133 813a
00000210: 7664 c6bc 4c51 4fbc 8fac 9abd a4dc ea3b
00000220: a721 92bc 1d9f b93d f186 c5bd 74de 1c3e
00000230: 6bb5 043e 1526 4d3d 4fd7 1bbd 188f 04be
00000240: 920e 573c faed 20be 513d b73c b72f 2e3e
00000250: 18e1 75bd bba0 1e3e 2af6 013e 33fc aa3d
00000260: 8bd4 7b3c 18ed aabd 4b58 eabb 2196 033e
00000270: 6103 d33d efec 84bd fee6 f9bd 25ca e93c
00000280: 6fbb 953d 0312 973d 48bd 2cbe 3e73 643d
00000290: b493 a3bd f6fb b23c be60 9dbd 6bb4 b3bd
000002a0: 2b74 2b3e 43b7 43bd ddda cabd 2347 61bc
000002b0: 9e70 c83d 99ab 3a3d 52dd 233d bbe4 ad3d
000002c0: 237e 6d3d 68ec 1f3d b41f c13d 43a3 e3bb
000002d0: ae22 5bbd 4f73 2b3c 0b50 813d 1f49 8d3c
000002e0: 7dc6 de3b 419d 7cbd 3a1d 873d 78f7 543d
000002f0: 35b9 293e 030e 943d fe6c e0bd 506f 05be
00000300: 3de1 66bd fcf3 68bd 698e d63d d01a bf3d
00000310: 97b1 abbd 5279 ce3c 4166 103d ab36 0d3e
00000320: a35a 16be 438e 253d c6be e8bd 9914 e4bc
00000330: 79f1 83bd 90ce 39bd 5c6f e3bd f537 61bd
00000340: c7c2 943d 7d59 893d 8baf 69bd b016 a33d
00000350: 17f6 4fbc 2c3f 3e3e c60c 083d 380f 9f3d
00000360: 6a00 5f3b fb76 22be 2fd6 443e b6bc 053d
00000370: dab9 98bd 1a7f a63c d189 883c 064a fe3d
00000380: 89b9 e5bd 7e1c 2a3d d2ea 933c a59f 373d
00000390: bc2d 9fbd 9b35 0a3b 735a 803d fd56 eabd
000003a0: 1965 fb3c 3869 f63c 2ba7 253e 3d8f 14be
000003b0: f940 ef3c a975 f0bb 9ce4 4ebd 3a58 6e3d
000003c0: e629 a23d 13b3 8d3d cc0b babc 4783 f1bc
000003d0: 9576 063e 35c3 aebc 873d 28be 7b76 c63d
000003e0: a150 17bd 6515 debd 2aad eabd 3fe6 543d
000003f0: 5c21 e2bc cbb1 f93c 2e9a e7bc e10d b33d

encoder.3.bias f4 [128]
-0.09639674 -0.07152925 -0.0046128603 0.07580694 -0.06809303 -0.057368793 0.069419 -0.053277586
-0.099904485 -0.0850768 -0.1231528 0.08256691 0.059636824 -0.079014406 0.07214594 -0.08241793
-0.08720779 -0.058620054 -0.091360405 0.100037314 -0.09306785 0.059693623 0.0936028 -0.062177848
-0.059640106 0.08883409 0.09224646 0.08053005 -0.06572899 -0.07081024 -0.08304069 0.083853476
-0.08054847 0.08338058 0.075455666 -0.072318405 0.08124986 -0.07367043 0.07873716 -0.09087586
-0.09792309 -0.08626108 -0.08045077 0.05764006 0.07179568 0.074828 0.07825764 -0.0779824
-0.09115829 0.08219985 0.07632738 -0.08907242 0.076324776 0.07952651 -0.05609431 -0.08034712
0.065630585 0.07753525 0.09445199 -0.06310963 -0.06080288 0.07820877 0.07976106 0.07722793
0.06786368 -0.08387995 0.07127103 -0.086007275 -0.09448398 0.07155951 0.08489807 0.061583806
-0.07381907 0.07203192 -0.0764209 -0.07539365 0.07071697 -0.09944314 -0.08561641 0.05697366
0.08441573 -0.064824164 -0.065625615 0.07647993 0.08491608 -0.06163459 -0.096372806 -0.060701318
-0.08930503 0.06403026 -0.073397964 -0.074527815 0.05950884 -0.07491899 0.08295764 0.07382205
0.0679093 -0.080375336 -0.07024277 0.08441158 -0.07125358 -0.08050373 -0.0847093 0.049359728
0.0701675 -0.079625666 -0.07557304 -0.0728522 -0.07495114 0.075698376 0.09524498 0.08464286
-0.08512499 0.07253811 0.07137235 0.072481416 -0.06879535 0.0770998 -0.07334271 0.07704138
0.06461701 0.07807538 -0.08013889 -0.0460262 0.07634911 0.07327226 0.07277412 0.08475937
00000000: a76b c5bd ed7d 92bd 7a27 97bb ab40 9b3d
00000010: 5c74 8bbd 8afb 6abd 8c2b 8e3d 9939 5abd
00000020: b99a ccbd bf3c aebd 8937 fcbd d718 a93d
00000030: be45 743d 4ed2 a1bd 40c1 933d bbca a8bd
00000040: ff99 b2bd 951b 70bd 2a1b bbbd 5de0 cc3d
00000050: 5b9a bebd 4d81 743d d3b2 bf3d 33ae 7ebd
00000060: 2f49 74bd a6ee b53d b6eb bc3d f0ec a43d
00000070: ec9c 86bd f604 91bd 3d11 aabd 5fbb ab3d
00000080: 99f6 a4bd 70c3 aa3d 8088 9a3d ac1b 94bd
00000090: 5466 a63d 86e0 96bd f340 a13d 1f1d babd
000000a0: e78b c8bd a6a9 b0bd 60c3 a4bd fc17 6c3d
000000b0: 9d09 933d 6c3f 993d 8b45 a03d 3db5 9fbd
000000c0: 33b1 babd 6558 a83d 8851 9c3d 9a6b b6bd
000000d0: 2a50 9c3d cbde a23d 26c3 65bd 088d a4bd
000000e0: 5469 863d cdca 9e3d 0c70 c13d 9f3f 81bd
000000f0: 710c 79bd eb2b a03d c459 a33d ad29 9e3d
00000100: 1dfc 8a3d 40c9 abbd 8cf6 913d 9524 b0bd
00000110: d180 c1bd cb8d 923d 0adf ad3d 4d3f 7c3d
00000120: 742e 97bd 7985 933d 9082 9cbd fc67 9abd
00000130: 0fd4 903d d8a8 cbbd a857 afbd 365d 693d
00000140: 27e2 ac3d 88c2 84bd b966 86bd 82a1 9c3d
00000150: 7be8 ad3d 8d74 7cbd 1b5f c5bd f2a1 78bd
00000160: 8ee5 b6bd 4c22 833d ac51 96bd 0aa2 98bd
00000170: 8bbf 733d 216f 99bd b2e5 a93d 0430 973d
00000180: 0814 8b3d d39b a4bd 71db 8fbd fadf ac3d
00000190: 66ed 91bd 24df a4bd 127c adbd 6d2d 4a3d
000001a0: fab3 8f3d c812 a3bd 0ac6 9abd 8933 95bd
000001b0: fc7f 99bd c007 9b3d cd0f c33d 3c59 ad3d
000001c0: 0356 aebd dc8e 943d ab2b 923d 2371 943d
000001d0: 94e4 8cbd 80e6 9d3d b434 96bd dfc7 9d3d
000001e0: ec55 843d fce5 9f3d dc1f a4bd f885 3cbd
000001f0: ec5c 9c3d c40f 963d 990a 953d 5296 ad3d

regressor.0.weight f4 [512, 128]
0.13338728 0.10786448 0.061767686 0.032127254 0.008745161 0.0423386 -0.0786992 -0.00095151004
0.023531437 0.10297373 0.15334445 -0.15182689 0.0304257 0.12296513 -0.06817417 0.025936052
0.14807479 0.061379813 0.07142878 -0.067937165 0.1135932 -0.06458813 -0.041270953 0.105399646
0.095882 -0.04804383 -0.17216153 0.0050594844 0.13026187 0.10250769 0.09359495 -0.008554843
0.15865244 -0.061568376 -0.13762973 0.09269527 -0.047603294 0.06662222 -0.026701245 0.09450062
0.19964428 0.15692942 0.09253808 -0.1159559 0.0055303816 -0.10703822 -0.03057158 0.10607378
0.022632474 -0.12212157 -0.09219448 0.018831378 -0.014755913 0.008597208 0.027776359 0.12523979
0.04050854 0.02693054 -0.19395888 -0.0059728604 -0.044018168 -0.07472567 -0.13921542 -0.11841027
0.045683093 0.08531501 -0.13092706 0.0043442654 0.15491924 -0.014149525 -0.10222403 0.07157445
0.12594207 -0.12844652 0.08988133 0.110129386 0.028518373 0.049906436 0.086080596 0.05427236
-0.13622928 -0.036788907 -0.03264713 -0.08419846 -0.08060205 0.12018453 0.07378494 -0.049747393
0.11186015 0.0073900577 0.045043368 0.10227051 0.033213217 0.10643453 -0.029577753 -0.024625743
-0.12436857 0.0141846 0.043242693 -0.08774248 0.02986074 0.08157668 0.14342335 0.009584014
-0.09747117 0.1530548 0.04671434 0.11105186 0.08646871 0.032100674 -0.12613125 0.02387284
0.026853776 -0.026818663 -0.06312822 -0.00041701723 0.06402762 -0.13339332 0.014083707 -0.06303242
0.058684323 -0.031992603 -0.0029714555 0.09321309 -0.06853715 -0.016048163 -0.019473651 -0.09509104
0.0593484 -0.08022525 -0.050994493 0.010395115 -0.08551467 -0.014179154 0.07348672 -0.06656329
-0.08238393 0.062001593 -0.021535005 0.046844963 0.020081835 -0.12416906 0.068270706 -0.1051196
-0.021149328 0.02135631 -0.03416313 -0.009548018 -0.061114494 0.040928457 0.08597404 0.081181265
-0.0088887075 -0.004472246 0.13117023 -0.049307376 -0.0051494627 -0.090061724 0.027262054 -0.031115167
-0.102070644 0.11075724 0.028274128 -0.10403754 0.035789505 0.007771782 -0.025686216 -0.003973997
0.018065097 -0.08234038 -0.06869821 -0.0053244694 -0.010676044 0.078646 -0.040150616 0.052980024
-0.10292749 0.08797099 -0.032960773 -0.11944179 0.09174117 -0.044259325 0.056105345 0.028366921
0.018558754 0.030213311 -0.017711265 -0.07091529 -0.0034035011 0.024324914 -0.0121268425 0.02940407
-0.020797398 -0.071909636 0.118363574 0.04717819 -0.07432575 0.04751641 0.09772749 -0.076389946
0.047078304 0.08750594 0.029646657 -0.11962317 3.0996634e-05 -0.09296446 -0.039279565 0.03212065
0.081201665 0.01969641 0.060103714 -0.037170287 0.0030512046 -0.04133389 -0.11364873 -0.07285278
-0.078135855 0.066205956 -0.08136915 -0.02146918 0.034286797 0.06276047 -0.04797201 0.011355243
-0.022821836 -0.046453375 -0.007024292 0.007311462 0.041504983 -0.044808675 -0.09197892 -0.007046851
-0.05423528 0.02594018 -0.046395935 -0.05214275 0.003932737 0.06619917 0.030636832 -0.04214343
0.044083066 0.100911506 0.094170615 -0.024388988 0.02625133 0.062096052 -0.0333124 0.05109176
0.100394 0.00088710606 -0.103216626 0.095145576 0.07239096 0.10323018 0.06497325 0.12097439
00000000: ad96 083e 0de8 dc3d 1d00 7d3d de97 033d
00000010: dd47 0f3c 3d6b 2d3d 0c2d a1bd c26e 79ba
00000020: 00c5 c03c e4e3 d23d 5406 1d3e 8278 1bbe
00000030: 513f f93c 24d5 fb3d e69e 8bbd d877 d43c
00000040: eba0 173e 6669 7b3d 4149 923d a422 8bbd
00000050: 8da3 e83d c846 84bd bb0b 29bd c5db d73d
00000060: c85d c43d 9bc9 44bd 1d4b 30be 08ca a53b
00000070: 5e63 053e 8def d13d b6ae bf3d 9d29 0cbc
00000080: c975 223e 1f2f 7cbd cfee 0cbe 05d7 bd3d
00000090: acfb 42bd 3b71 883d 92bc dabc 8b89 c13d
000000a0: 8d6f 4c3e 1bb2 203e 9b84 bd3d 497a edbd
000000b0: 3438 b53b db36 dbbd 4071 fabc 363d d93d
000000c0: bd67 b93c e01a fabd 76d0 bcbd 4344 9a3c
000000d0: c9c2 71bc 4edb 0c3c 3f8b e33c dc3e 003e
000000e0: 48ec 253d 709d dc3c 289d 46be fcb7 c3bb
000000f0: 654c 34bd c609 99bd 7d8e 0ebe 1581 f2bd
00000100: 321e 3b3d a3b9 ae3d be11 06be 575a 8e3b
00000110: 26a3 1e3e 69d3 67bc d55a d1bd a095 923d
00000120: f5f6 003e 7c87 03be b413 b83d 848b e13d
00000130: 5d9f e93c b16a 4c3d 064b b03d b24c 5e3d
00000140: b07f 0bbe f7af 16bd ffb8 05bd 3e70 acbd
00000150: b012 a5bd 4f23 f63d 8f1c 973d ecc3 4bbd
00000160: ef16 e53d 4c28 f23b 657f 383d 3373 d13d
00000170: 950a 083d 59fa d93d 0b4d f2bc edbb c9bc
00000180: f3b4 febd 8666 683c 401f 313d 54b2 b3bd
00000190: 839e f43c ad11 a73d 92dd 123e 4506 1d3c
000001a0: f79e c7bd 66ba 1c3e 8957 3f3d 286f e33d
000001b0: 8216 b13d ff7b 033d 8d28 01be f990 c33c
000001c0: 73fc db3c d0b2 dbbc 5e49 81bd 1ba3 dab9
000001d0: ea20 833d 4298 08be 59bf 663c 2417 81bd
000001e0: f95e 703d ad0a 03bd c0bc 42bb 81e6 be3d
000001f0: 355d 8cbd 7077 83bc 3587 9fbc 17bf c2bd
00000200: 4f17 733d 234d a4bd 9adf 50bd 4650 2a3c
00000210: 5122 afbd af4f 68bc 3580 963d 5652 88bd
00000220: e8b8 a8bd 62f5 7d3d 2e6a b0bc 81e0 3f3d
00000230: a982 a43c 594c febd 83d1 8b3d f248 d7bd
00000240: 5b41 adbc 6ef3 ae3c a3ee 0bbd 4a6f 1cbc
00000250: 3153 7abd 99a4 273d 2813 b03d 5d42 a63d
00000260: f1a1 11bc eb8b 92bb 7d51 063e 88f6 49bd
00000270: d3bc a8bb 4872 b8bd ac54 df3c 3ce5 febc
00000280: 6a0a d1bd b1d4 e23d 259f e73c a211 d5bd
00000290: 0498 123d 6faa fe3b e66b d2bc 4e38 82bb
000002a0: 41fd 933c 13a2 a8bd a6b1 8cbd e378 aebb
000002b0: 93ea 2ebc 2711 a13d f974 24bd 9501 593d
000002c0: a6cb d2bd 222a b43d e001 07bd e69d f4bd
000002d0: cbe2 bb3d 4449 35bd b8ce 653d bf61 e83c
000002e0: 8708 983c e881 f73c 3717 91bc 093c 91bd
000002f0: 460d 5fbb 0b45 c73c aaaf 46bc cee0 f03c
00000300: 4e5f aabc 5c45 93bd 9a68 f23d eb3d 413d
00000310: 1938 98bd 91a0 423d 5a25 c83d 5572 9cbd
00000320: 2ed5 403d 5036 b33d 8cdd f23c fefc f4bd
00000330: 6202 0238 2764 bebd 9ce3 20bd f190 033d
00000340: 0f4d a63d 5e5a a13c 502f 763d df3f 18bd
00000350: b8f6 473b ba4d 29bd aac0 e8bd d733 95bd
00000360: b105 a0bd fd96 873d dea4 a6bd 22e0 afbc
00000370: 5070 0c3d 9088 803d 4c7e 44bd 570b 3a3c
00000380: dcf4 babc e545 3ebd 082c e6bb fd94 ef3b
00000390: 2101 2a3d 4d89 37bd 725f bcbd 45e9 e6bb
000003a0: d025 5ebd 8080 d43c aa09 3ebd a393 55bd
000003b0: 30de 803b 6e93 873d 18fa fa3c 979e 2cbd
000003c0: 7290 343d b1aa ce3d 86dc c03d 6acb c7bc
000003d0: 070d d73c 6e58 7e3d 9572 08bd 9845 513d
000003e0: 5f9b cd3d ae8c 683a 3d63 d3bd afdb c23d
000003f0: b641 943d 586a d33d b210 853d 6cc1 f73d

regressor.0.bias f4 [512]
-0.09008352 0.062270876 -0.096557766 -0.10128002 0.042916946 -0.1210145 0.053747427 -0.083625995
0.044580538 0.05775133 -0.075581394 -0.08425992 0.056873553 0.049309667 0.051349364 0.057916053
0.030978484 0.045224935 0.049932275 0.04548136 0.043841917 -0.10050321 0.037010252 0.059642963
-0.09578972 -0.096664295 0.055632412 0.051970974 0.047248304 0.048439313 -0.10383643 0.04650729
0.05472312 0.049071927 -0.12610546 0.069147795 0.039509248 0.046949398 -0.12550147 -0.08463991
-0.10389481 -0.11222161 -0.1167351 0.041810818 -0.09126388 0.031310234 -0.088825546 0.050820567
-0.092756175 0.05334589 0.033521097 -0.0958117 -0.09028912 0.038485542 -0.09450972 0.06821371
0.07817189 0.050252732 -0.093482144 -0.08899944 -0.08224257 -0.11101429 0.042616125 -0.105311655
-0.106282525 0.05714394 0.05177061 0.046296354 -0.0754343 0.059832823 -0.0957501 -0.09506281
-0.08675706 -0.08803749 0.026424238 0.0454497 0.033436082 0.041395195 0.041345485 -0.072449416
-0.07975508 -0.0919124 -0.088429675 0.04437786 -0.11071819 0.05386162 -0.10427447 -0.09490875
0.04831522 0.06423124 -0.107898615 0.053151954 0.056253083 -0.083261244 -0.102524936 0.03703481
-0.10648055 0.038931504 -0.098181 0.062485144 -0.090901755 -0.107455835 -0.09318688 0.051766954
-0.07920346 -0.07705796 0.047834527 -0.13522232 0.050378323 -0.09965593 -0.09119244 -0.10641843
0.04662886 -0.08910309 0.04145647 -0.080844626 0.05731911 -0.02673034 -0.090168275 -0.07520683
0.03390248 -0.12795791 -0.12521553 -0.08825056 -0.07730573 -0.08182677 -0.07836605 -0.087019004
0.054301966 -0.09883557 0.047966164 -0.08780575 -0.1033298 0.052184958 0.04793874 -0.08416834
0.04390035 -0.07695184 -0.059094053 -0.082919866 -0.08191695 -0.09661802 0.061664585 -0.12702496
-0.088429295 -0.12493257 0.053850338 -0.10770245 0.04708368 0.055143215 0.035631713 -0.085739605
0.04675559 -0.113517165 -0.07822259 -0.10556317 -0.09913364 0.051617812 -0.10918055 -0.096281774
0.05373969 -0.0988352 -0.11859097 -0.10146073 0.02956274 0.045688123 0.0492544 -0.09853861
0.05376233 0.036218062 -0.10993755 -0.07547399 -0.095478386 -0.105636135 0.049606603 0.052357472
-0.11673406 -0.10603868 -0.09146313 0.0034180235 -0.12774508 0.05157421 -0.08909376 -0.091425486
-0.093854174 -0.09218191 -0.087273516 0.030075843 0.034968965 0.04856267 -0.24108887 0.045117125
0.057643607 -0.09059949 -0.09146608 -0.113554105 -0.084727064 0.04476429 -0.102308586 -0.104253
0.04523126 -0.06249754 -0.0967427 0.069134526 -0.09642243 0.04090276 -0.0758287 -0.08443974
0.052283645 -0.077065215 0.05161853 -0.10327454 -0.07600373 0.043470297 0.051357083 0.05583705
-0.0691641 0.052383102 -0.099756226 -0.10177626 0.05153719 -0.09763424 -0.09247859 -0.06694254
-0.088541746 0.048594754 0.04989559 0.045634132 -0.09091005 -0.10263723 -0.08487266 -0.10814472
-0.08871337 0.047489718 -0.11213417 -0.11819018 -0.07641247 0.059758637 0.036577724 -0.080971
-0.07715668 -0.09090294 -0.087247096 -0.08902019 -0.07237121 -0.08018427 0.058142405 0.04103734
-0.06787309 0.056050006 0.052708317 0.047546178 0.051445086 -0.10710452 0.055682283 0.028388167
00000000: b57d b8bd bf0f 7f3d 14c0 c5bd e66b cfbd
00000010: aec9 2f3d 73d6 f7bd 4326 5c3d 1b44 abbd
00000020: 159a 363d a98c 6c3d 6bca 9abd 7790 acbd
00000030: 3ef4 683d eff8 493d b653 523d 6239 6d3d
00000040: 97c6 fd3c c83d 393d c985 4c3d aa4a 3a3d
00000050: 9593 333d a1d4 cdbd 1098 173d 2e4c 743d
00000060: 672d c4bd eef7 c5bd d0de 633d 84df 543d
00000070: 7087 413d 4d68 463d 32a8 d4bd 6e7e 3e3d
00000080: 5a25 603d a5ff 483d ca21 01be 5c9d 8d3d
00000090: 73d4 213d 034e 403d 7583 00be b057 adbd
000000a0: cdc6 d4bd 72d4 e5bd d012 efbd d241 2b3d
000000b0: 8fe8 babd 293f 003d 2bea b5bd 3a29 503d
000000c0: f3f6 bdbd 3881 5a3d 6b4d 093d ed38 c4bd
000000d0: 81e9 b8bd 04a3 1d3d 508e c1bd a1b3 8b3d
000000e0: 9518 a03d cfd5 4d3d 9173 bfbd 5745 b6bd
000000f0: cb6e a8bd 765b e3bd 3f8e 2e3d a3ad d7bd
00000100: a7aa d9bd c40f 6a3d 6b0d 543d 3fa1 3d3d
00000110: 4c7d 9abd 4313 753d a118 c4bd 4ab0 c2bd
00000120: afad b1bd 004d b4bd a577 d83c 7729 3a3d
00000130: 46f4 083d 028e 293d e259 293d 5c60 94bd
00000140: a256 a3bd 923c bcbd 9e1a b5bd 8fc5 353d
00000150: 38c0 e2bd 019e 5c3d da8d d5bd 855f c2bd
00000160: 2ee6 453d ab8b 833d f3f9 dcbd ddb5 593d
00000170: a269 663d df84 aabd 98f8 d1bd d0b1 173d
00000180: 7912 dabd a476 1f3d 1f13 c9bd 6cf0 7f3d
00000190: b32a babd ce11 dcbd c3d8 bebd 9609 543d
000001a0: 6c35 a2bd 90d0 9dbd 23ee 433d b877 0abe
000001b0: 8059 4e3d 6918 ccbd 1ac3 babd e8f1 d9bd
000001c0: e7fd 3e3d ae7b b6bd 42ce 293d de91 a5bd
000001d0: 71c7 6a3d 96f9 dabc 25aa b8bd 0a06 9abd
000001e0: 54dd 0a3d 6607 03be 8038 00be b6bc b4bd
000001f0: 7752 9ebd cb94 a7bd 617e a0bd 0537 b2bd
00000200: bd6b 5e3d 4e6a cabd 2b78 443d 80d3 b3bd
00000210: 939e d3bd e5bf 553d 6a5b 443d 7360 acbd
00000220: dad0 333d ed98 9dbd 9b0c 72bd e4d1 a9bd
00000230: 13c4 a7bd abdf c5bd 0194 7c3d d512 02be
00000240: 6b1a b5bd a6dc ffbd 2c92 5c3d 1a93 dcbd
00000250: d1da 403d dadd 613d 8ff2 113d 3f98 afbd
00000260: ca82 3f3d b07b e8bd 2a33 a0bd 8131 d8bd
00000270: 9406 cbbd 336d 533d 0d9a dfbd 612f c5bd
00000280: 261e 5c3d 1c6a cabd d3df f2bd a5ca cfbd
00000290: 8f2d f23c 7823 3b3d fbbe 493d 9cce c9bd
000002a0: e435 5c3d 6459 143d f026 e1bd 1b92 9abd
000002b0: 2c8a c3bd c257 d8bd 4b30 4b3d ca74 563d
000002c0: 4412 efbd cf2a d9bd 0651 bbbd eb00 603b
000002d0: 9bcf 02be 7b3f 533d ca76 b6bd 493d bbbd
000002e0: 9e36 c0bd dfc9 bcbd 75bc b2bd 9d61 f63c
000002f0: 9e3b 0f3d a6e9 463d 00e0 76be bccc 383d
00000300: b41b 6c3d 3a8c b9bd 9152 bbbd 0e8f e8bd
00000310: 6285 adbd c35a 373d 2a87 d1bd 9982 d5bd
00000320: 6a44 393d 6cfd 7fbd 0921 c6bd 6796 8d3d
00000330: 1f79 c5bd a789 273d 144c 9bbd beee acbd
00000340: 6027 563d 5ed4 9dbd f46d 533d 9a81 d3bd
00000350: d8a7 9bbd e90d 323d ce5b 523d 64b5 643d
00000360: e8a5 8dbd aa8f 563d fe4c ccbd 1270 d0bd
00000370: a918 533d 76f4 c7bd 6a65 bdbd 2c19 89bd
00000380: 6055 b5bd 4b0b 473d 515f 4c3d dbea 3a3d
00000390: 0c2f babd 7833 d2bd b8d1 adbd fb7a ddbd
000003a0: 5baf b5bd 9484 423d 9aa6 e5bd b10d f2bd
000003b0: 247e 9cbd 79c5 743d 86d2 153d 20d4 a5bd
000003c0: 5204 9ebd 522b babd 9bae b2bd 3850 b6bd
000003d0: 5b37 94bd a737 a4bd bb26 6e3d c516 283d
000003e0: 0c01 8bbd b194 653d ade4 573d c8bf 423d
000003f0: 15b8 523d 9d59 dbbd 1b13 643d 4d8e e83c

regressor.3.weight f4 [128, 512]
-0.0505265 0.050674286 -0.03438059 0.030898478 -0.017612243 -0.11711767 -0.04734892 0.00013490258
-0.027884563 -0.03436991 0.018194852 0.07282725 -0.071246035 -0.16160741 -0.08232908 0.01847624
0.08784278 -0.08205369 -0.036043946 -0.012481673 -0.048072778 -0.047037512 -0.0027950234 -0.044812452
0.024288574 -0.02320285 0.0018525585 -0.01374502 0.07085438 0.009164107 0.07022546 0.0030821254
-0.07267947 -0.102547996 0.027322978 0.07294388 -0.02219083 0.07445856 -0.033818945 0.025488852
0.040297396 0.023516212 0.04849331 -0.100546375 0.005094152 -0.0414931 -0.08421896 -0.02878532
0.031806245 -0.030732548 0.08666975 -0.011426537 -0.055597033 0.059463963 0.0001828537 -0.06033618
0.038624797 -0.090574875 0.009864782 0.011383608 0.06811443 0.090908185 -0.08113831 0.009606937
-0.030418852 -0.069060355 -0.059950143 0.055314556 -0.03247839 -0.06833809 -0.041633274 -0.001293075
-0.00039166637 0.05721324 0.040628016 -0.022606954 0.05090921 0.057051826 -0.012959148 -0.016174078
-0.07147733 0.034644786 0.049222548 0.037862528 -0.092812955 0.0024074337 -0.1024594 -0.0152697805
-0.056552622 -0.080718 -0.1187456 -0.04396912 0.015928842 -0.053700678 -0.009615384 0.065024815
0.0012847512 -0.048351206 -0.066821195 -0.08031943 -0.05470968 0.037831593 -0.08586022 -0.05748407
0.04216169 -0.08714856 0.08847299 -0.10095271 -0.051457077 -0.004565505 0.013416783 0.049019214
-0.08160444 0.05749761 -0.059017632 -0.046769585 0.06552329 -0.1146299 -0.012745227 0.066736214
-0.0059684534 -0.012942208 0.14699478 0.016554879 -0.036129605 -0.00032400552 -0.009461955 -0.057328463
0.004676268 0.05780564 -0.05167113 0.009240247 0.0798237 0.020190781 0.0716359 -0.0858854
-0.016173162 0.044897426 -0.00052267837 -0.08723908 0.063873105 -0.0012311841 -0.020078296 -0.010337452
-0.030219844 0.007819033 0.0279824 0.048791926 0.065014586 0.0006763808 0.041573234 0.08762909
-0.023989184 -0.028392265 -0.020535354 0.058755513 -0.039148685 -0.02174876 -0.01383827 -0.065861166
0.014911347 -0.031817243 0.03264132 0.039600402 0.06752119 -0.03360911 -0.030690648 0.04236451
-0.03750396 -0.08950666 -0.05830453 0.08757844 0.044461314 -0.07476105 -0.037275057 -0.035315923
-0.031693555 -0.058241483 0.013983691 0.043667354 -0.0732504 0.08221567 0.017184919 0.07446637
-0.032812532 -0.04832258 -0.07238008 -0.04978653 -0.023645455 0.043806035 0.10821706 -0.0037699135
0.011609713 -0.10875063 -0.079260305 0.06607581 -0.029550936 0.089614674 -0.07150416 -0.058103867
-0.073026255 0.027446203 0.06525305 0.055957396 -0.046020184 -0.03163815 0.07955333 0.01552278
0.062139735 -0.037407447 -0.02613039 -0.0867287 -0.031218503 -0.042288013 -0.10246851 -0.026582621
-0.057799082 -0.06798647 -0.050928354 -0.062016465 -0.03662085 0.030118441 -0.07130095 0.00070158753
0.006896732 -0.04630598 0.0514534 -0.056129888 0.10725789 0.058524422 -0.02519275 -0.08398456
0.040072042 -0.106966764 -0.10028205 0.042221297 -0.009694602 0.083215035 0.028558452 -0.012549049
0.053269174 0.07873523 -0.041128498 0.07526143 0.0099578295 -0.0054371 -0.06553134 0.07010042
0.07862992 -0.053468943 -0.041941877 -0.021828836 -0.006732444 0.044755988 0.0453054 0.039353848
00000000: e0f4 4ebd d78f 4f3d a9d2 0cbd ce1e fd3c
00000010: 8d47 90bc 64db efbd f1f0 41bd a374 0d39
00000020: 2b6e e4bc 76c7 0cbd 5f0d 953c 7426 953d
00000030: 71e9 91bd 6a7c 25be 269c a8bd 7c5b 973c
00000040: eae6 b33d c40b a8bd d1a2 13bd ee7f 4cbc
00000050: f6e7 44bd 68aa 40bd b62c 37bb 438d 37bd
00000060: d5f8 c63c e713 bebc 8cd1 f23a cb32 61bc
00000070: 1a1c 913d 0d25 163c 5ed2 8f3d 7cfd 493b
00000080: f9d8 94bd af04 d2bd 70d4 df3c 9a63 953d
00000090: 8bc9 b5bc bb7d 983d bc85 0abd ffcd d03c
000000a0: e20e 253d 12a5 c03c eca0 463d 42eb cdbd
000000b0: d8ec a63b abf4 29bd fd7a acbd 31cf ebbc
000000c0: 4447 023d d3c2 fbbc e97f b13d 5f36 3bbc
000000d0: b7b9 63bd 7c90 733d 6bbc 3f39 1223 77bd
000000e0: 0935 1e3d 527f b9bd e59f 213c 5082 3a3c
000000f0: 947f 8b3d 122e ba3d d82b a6bd 6a66 1d3c
00000100: f530 f9bc 846f 8dbd 488e 75bd 8491 623d
00000110: 0f08 05bd d7f4 8bbd a787 2abd 667c a9ba
00000120: 9258 cdb9 6e58 6a3d 9069 263d 3832 b9bc
00000130: 2d86 503d 2daf 693d 9b52 54bc 807f 84bc
00000140: b562 92bd b1e7 0d3d 959d 493d bd15 1b3d
00000150: b814 bebd 09c6 1d3b 3cd6 d1bd 1a2e 7abc
00000160: b9a3 67bd 7b4f a5bd e530 f3bd f718 34bd
00000170: 347d 823c 3ef5 5bbd d889 1dbc bb2b 853d
00000180: 1965 a83a ea0b 46bd 8dd9 88bd 837e a4bd
00000190: 4217 60bd 4df5 1a3d 7cd7 afbd 6b74 6bbd
000001a0: bcb1 2c3d f27a b2bd 5431 b53d 4bc0 cebd
000001b0: a8c4 52bd 3b9a 95bb 11d2 5b3c 5fc8 483d
000001c0: 3b20 a7bd 9d82 6b3d 79bc 71bd 7791 3fbd
000001d0: 1331 863d 15c3 eabd 5bd1 50bc ffac 883d
000001e0: 0493 c3bb 8e0b 54bc cd85 163e 199e 873c
000001f0: a3fc 13bd 49df a9b9 5106 1bbc 40d1 6abd
00000200: 613b 993b 9bc5 6c3d 1ba5 53bd 6864 173c
00000210: 9c7a a33d 2367 a53c d8b5 923d afe4 afbd
00000220: 947d 84bc 5de6 373d 5a04 09ba 67aa b2bd
00000230: e7cf 823d af5f a1ba 3d7b a4bc 6b5e 29bc
00000240: 9b8f f7bc 671b 003c 593b e53c 0bda 473d
00000250: 5e26 853d 264f 313a b248 2a3d e176 b33d
00000260: f784 c4bc e596 e8bc c239 a8bc 9fa9 703d
00000270: 5f5a 20bd 752a b2bc e9b9 62bc 38e2 86bd
00000280: b94e 743c cc52 02bd e8b2 053d 0834 223d
00000290: 8d48 8a3d b5a9 09bd f46a fbbc 6986 2d3d
000002a0: c19d 19bd 454f b7bd bbd0 6ebd 535c b33d
000002b0: 111d 363d 521c 99bd bbad 18bd 6ea7 10bd
000002c0: 1ad1 01bd 9f8e 6ebd da1b 653c 8adc 323d
000002d0: 4e04 96bd b060 a83d 63c7 8c3c d381 983d
000002e0: 6f66 06bd e6ed 45bd 023c 94bd f6ec 4bbd
000002f0: 1db4 c1bc f56d 333d e8a0 dd3d a710 77bb
00000300: aa36 3e3c a6b8 debd 3a53 a2bd c152 873d
00000310: ce14 f2bc e687 b73d c670 92bd 52fe 6dbd
00000320: ca8e 95bd dcd6 e03c 64a3 853d 9533 653d
00000330: a97f 3cbd 0197 01bd dbec a23d 4253 7e3c
00000340: 3c86 7e3d 8d38 19bd 660f d6bc d19e b1bd
00000350: f2bd ffbc 3236 2dbd 03db d1bd ccc3 d9bc
00000360: bbbe 6cbd 7e3c 8bbd 409a 50bd fa04 7ebd
00000370: bfff 15bd f3ba f63c 3c06 92bd beea 373a
00000380: fbfd e13b 57ab 3dbd cdc0 523d 74e8 65bd
00000390: 06aa db3d 4eb7 6f3d 0761 cebc 1900 acbd
000003a0: 9522 243d 6411 dbbd ad60 cdbd 3df0 2c3d
000003b0: 1cd6 1ebc a56c aa3d 6af3 e93c 879a 4dbc
000003c0: c730 5a3d f03f a13d 5b76 28bd aa22 9a3d
000003d0: 2a26 233c b329 b2bb 4c35 86bd cf90 8f3d
000003e0: b908 a13d 4002 5bbd 3fcb 2bbd 63d2 b2bc
000003f0: d59b dcbb 0e52 373d 2892 393d 8031 213d

regressor.3.bias f4 [128]
-0.05775306 0.06553157 0.06476586 0.06259202 0.061705396 0.06777731 -0.045578633 -0.048365094
0.062485006 0.054389957 0.05686992 0.06287949 0.06506087 -0.041576184 -0.013427408 0.058418266
-0.035159998 0.0633494 -0.049013212 -0.08816293 -0.03268466 -0.08237929 -0.054779507 0.06300343
0.05856129 -0.03672632 0.062590346 -0.033400934 -0.051938884 -0.038102955 -0.036487892 0.0549394
0.06238169 0.057576362 -0.064513154 0.06248317 -0.07681387 0.06301112 0.06532526 -0.045794938
-0.082130596 0.06276552 0.06536923 -0.03827071 0.06336701 0.062055055 -0.050578542 -0.04844409
0.07140591 -0.05324989 -0.04337702 -0.04571856 0.01835807 0.06482208 0.063862644 0.06580152
-0.080986224 0.06189704 -0.042108007 -0.034279045 -0.050271936 0.06397361 -0.0932275 0.06169322
0.06369765 -0.044931825 -0.041342437 0.0652059 0.06319808 -0.04997829 0.063835695 0.06330531
0.059934095 -0.044873003 0.056230184 0.056172285 0.06532477 0.06413688 -0.04978164 0.010541864
0.06124535 -0.050201893 0.057876807 0.07333207 -0.04426212 0.062565126 -0.053154774 -0.00079960225
-0.039132807 -0.035884034 0.06924643 0.062837824 0.06752701 -0.03793345 0.063911796 0.04880968
-0.037451897 -0.03733493 0.06459943 0.06346637 -0.046834905 -0.04722879 0.06473443 -0.041089695
-0.047271594 -0.06908368 0.063699864 0.062858015 0.062761724 0.06308644 0.061824407 -0.069005035
-0.036506154 0.063113384 0.06462622 -0.007653494 -0.0427267 -0.04282848 0.057065915 0.06782481
-0.079800084 -0.037519556 -0.046456855 0.061360665 -0.042522445 0.06346097 0.06262849 0.06423137
00000000: 798e 6cbd 6a35 863d f7a3 843d 3f30 803d
00000010: ccbe 7c3d d5ce 8a3d a9b0 3abd 7a1a 46bd
00000020: 47f0 7f3d 01c8 5e3d 6ff0 683d f6c6 803d
00000030: a23e 853d ca4b 2abd a2fe 5bbc fe47 6f3d
00000040: ee03 10bd 55bd 813d 14c2 48bd c48e b4bd
00000050: 5ae0 05bd 79b6 a8bd 7a60 60bd f107 813d
00000060: f7dd 6f3d 566e 16bd 5e2f 803d 6bcf 08bd
00000070: debd 54bd d811 1cbd 5474 15bd 2308 613d
00000080: f183 7f3d 31d5 6b3d 791f 84bd 5aee 7f3d
00000090: 9750 9dbd f90b 813d 40c9 853d 7993 3bbd
000000a0: 1634 a8bd 358b 803d 4ee0 853d bfc1 1cbd
000000b0: 90c6 813d 712d 7e3d 722b 4fbd 4f6d 46bd
000000c0: 433d 923d 8f1c 5abd 1aac 31bd 6343 3bbd
000000d0: aa63 963c 70c1 843d 6bca 823d f3c2 863d
000000e0: 1bdc a5bd c087 7d3d 7279 2cbd 2f68 0cbd
000000f0: f2e9 4dbd 9904 833d 0fee bebd 08b2 7c3d
00000100: ea73 823d 6f0a 38bd b056 29bd ac8a 853d
00000110: ff6d 813d 09b6 4cbd 4abc 823d 37a6 813d
00000120: 747d 753d c1cc 37bd 9f51 663d e914 663d
00000130: fec8 853d 325a 833d d5e7 4bbd c8b7 2c3c
00000140: 67dc 7a3d 80a0 4dbd 3b10 6d3d 202f 963d
00000150: 324c 35bd 2522 803d d2b8 59bd 669c 51ba
00000160: b949 20bd 23fb 12bd 13d1 8d3d 1eb1 803d
00000170: 9a4b 8a3d 1b60 1bbd 30e4 823d a9ec 473d
00000180: 2967 19bd 83ec 18bd b54c 843d a8fa 813d
00000190: f5d5 3fbd fa72 41bd 7c93 843d ab4d 28bd
000001a0: dc9f 41bd bf7b 8dbd 1375 823d b4bb 803d
000001b0: 3889 803d 7733 813d 973b 7d3d 8352 8dbd
000001c0: 7a87 15bd 9741 813d c05a 843d 29ca fabb
000001d0: 3102 2fbd eb6c 2fbd f3bd 693d bce7 8a3d
000001e0: 3a6e a3bd 1bae 19bd 8b49 3ebd 5255 7b3d
000001f0: 042c 2ebd d3f7 813d 5e43 803d bd8b 833d

regressor.5.weight f4 [1, 128]
-0.102498785 0.086717375 0.096968174 0.20635015 0.15649165 0.072077304 -0.28907293 -0.16677353
0.24675992 0.10280265 0.09334449 0.19015385 0.09958349 -0.11114573 -0.332234 0.083577
-0.2544788 0.25904644 -0.26258117 -0.06547958 -0.25244173 -0.30662784 -0.17667302 0.15884298
0.18649459 -0.27109367 0.18149067 -0.31282175 -0.23758972 -0.25375977 -0.30676746 0.12238865
0.21841662 0.17949213 -0.1291122 0.18090634 -0.36535734 0.17437398 0.12787363 -0.22514942
-0.26254636 0.14793049 0.12596448 -0.295525 0.1845074 0.1566524 -0.2148118 -0.22723952
0.07097316 -0.25518525 -0.1939804 -0.1877559 -0.5349005 0.10849487 0.12044667 0.11420835
-0.2653676 0.25697586 -0.272706 -0.34548736 -0.27898645 0.20861696 -0.21744514 0.20908134
0.22832212 -0.19832385 -0.28632239 0.10049573 0.14917815 -0.25296342 0.15225017 0.15622856
0.07377417 -0.17068335 0.21453863 0.07224482 0.112654135 0.13848494 -0.16481972 -0.5105476
0.26092795 -0.1880164 0.14608902 0.058358915 -0.18082826 0.117056936 -0.23531182 -0.4907405
-0.24845628 -0.26285616 0.08254433 0.10068691 0.1660177 -0.14334732 0.19286609 0.08414714
-0.15973139 -0.28109154 0.08727837 0.16415322 -0.30463627 -0.25324404 0.11856935 -0.19351731
-0.25465864 -0.1370471 0.22228906 0.1434286 0.24529263 0.13076176 0.26379266 -0.12744269
-0.25412238 0.15593037 0.12484442 -0.453142 -0.15758729 -0.18576685 0.08025288 0.11374242
-0.056363862 -0.26265532 -0.12747926 0.24426751 -0.15194409 0.2585074 0.20346302 0.1512262
00000000: e2ea d1bd e198 b13d 4097 c63d 744d 533e
00000010: 593f 203e 449d 933d 5e01 94be aec6 2abe
00000020: a2ae 7c3e 328a d23d 652b bf3d b1b7 423e
00000030: 6ef2 cb3d 5fa0 e3bd 931a aabe 6b2a ab3d
00000040: 0c4b 82be bca1 843e 0a71 86be 281a 86bd
00000050: 0b40 81be 53fe 9cbe c6e9 34be bca7 223e
00000060: 70f8 3e3e cacc 8abe b1d8 393e 2c2a a0be
00000070: b84a 73be cdec 81be a010 9dbe e7a6 fa3d
00000080: 9ba8 5f3e c9cc 373e fd35 04be 833f 393e
00000090: 1e10 bbbe 188f 323e 4ef1 023e 928d 66be
000000a0: 7a6c 86be 177b 173e d5fc 003e 0e4f 97be
000000b0: 82ef 3c3e 7d69 203e a0f7 5bbe 7ab1 68be
000000c0: 605a 913d a4a7 82be cca2 46be 1543 40be
000000d0: 3def 08bf 8f32 de3d beac f63d 11e6 e93d
000000e0: 43de 87be 5792 833e 1fa0 8bbe b8e3 b0be
000000f0: 50d7 8ebe af9f 553e f0a9 5ebe 6b19 563e
00000100: 46cd 693e 6815 4bbe d998 92be b5d0 cd3d
00000110: 28c2 183e 6c84 81be 78e7 1b3e 61fa 1f3e
00000120: e916 973d 9ec7 2ebe 04b0 5b3e 18f5 933d
00000130: 36b7 e63d ffce 0d3e 80c6 28be 3fb3 02bf
00000140: 5998 853e 5f87 40be 5c98 153e c209 6f3d
00000150: 0b2b 39be 8cbb ef3d 95f5 70be 5742 fbbe
00000160: 536b 7ebe 1595 86be 000d a93d f034 ce3d
00000170: 8b00 2a3e a4c9 12be b07e 453e 5655 ac3d
00000180: a090 23be 3beb 8fbe 01bf b23d c817 283e
00000190: 49f9 9bbe 34a9 81be 7dd4 f23d 6729 46be
000001a0: 9e62 82be 1356 0cbe be9f 633e f2de 123e
000001b0: fe2d 7b3e 69e6 053e d50f 873e 5680 02be
000001c0: 541c 82be 36ac 1f3e 6eae ff3d 3a02 e8be
000001d0: 905e 21be aa39 3ebe 9f5b a43d c9f1 e83d
000001e0: cbdd 66bd c27a 86be ec89 02be 4321 7a3e
000001f0: 3b97 1bbe 155b 843e 9c58 503e 0adb 1a3e
