src/simple-FT_ver1.00/data/experiments/fecu_to_fefe_finetune_target256_20260120_165217/models/pretrained_model.pth (torch, 818757 bytes, 9 tensors)

encoder.0.weight f4 [512, 2]
00000000: e9fa 9d3d 01e9 f8bb a586 d3bd 6b07 26bd
00000010: 6085 0d3c 1030 5abd c19f dfbc 3f4b 883d
00000020: debd 9f3c 0f63 14bd 5da3 c7bd 2ec0 fcbc
00000030: 7e8c 05be 0063 babc 349c fc3a c51f 9dbd
00000040: d161 433e 61b2 083e aa71 96bd 9aca 15bd
00000050: ed77 313e 21c1 e03d 4296 283d b9c5 87bd
00000060: cbbd aa3c 286e 423d 77b1 0b3d 5332 a9bd
00000070: 2430 d83b 9ce0 473c 0418 193d cf1b 91bd
00000080: c4fb 813d f4b1 e1bc f7ce 3d3e 433d a83c
00000090: 539f ad3d ade5 01bd 3829 6f3e 1e24 f73d
000000a0: cd0d 0bbe e2fe ba3c 94e2 92be 8287 c2bd
000000b0: 6bb3 bf3d 06c5 bebd 785a 073e 9df5 b33d
000000c0: f89a 183d 40cd cb3d d73f fb3c 228a 15bd
000000d0: 42de 90bd 680b 473d 102c 633e 0240 a93d
000000e0: 8b2b b33d 5d4a 843d 43eb f83d 8edb 5f3d
000000f0: a41d df3c c5d8 b3bd b76e e2bd 3a8d 88bc
00000100: 8c35 9fbe cdad acbd c867 b1bb 532c a4bc
00000110: 5c72 e8bc edee 6e3d 5893 60bd a099 0cbd
00000120: ca33 833d a0c9 273c 7105 0f3d cb9e e5bc
00000130: 650b 7abc 5b18 453c c803 67bd ad6b 803d
00000140: b46d d03c 0e5b 5bbd bf58 6f3d 2a36 4bbb
00000150: b9fc 953c abe6 b9bd 6e1e a93c e216 f6bc
00000160: 12f5 d23d 477f b73d 3530 983c aa70 983c
00000170: d888 3f3e 93f4 0e3e c660 953d 789c dabd
00000180: cecc 5c3e 9548 833c 73ed 343d 49f6 0a3d
00000190: b43d edbd 2cb1 853d c66f 743d 54da 22bd
000001a0: 84bd adbd 1b15 57bb bc99 333e c5db 113e
000001b0: 9515 66bd 0739 1e3d ad88 583d db57 593d
000001c0: 0bac 543e acd1 fc3d 82e9 56bd 8b11 d73c
000001d0: 86e7 9a3d be73 cdbd 0236 733e 914d 8c3d
000001e0: bdf5 7fbd a056 883d 548f 1a3e fae2 fe3d
000001f0: abfb e8bb 320a 36bd 7165 03be a50e c9bd
00000200: 9e5a aa3c 650a 7dbd f81e 0e3e a3c6 d73d
00000210: 6bd6 0d3e e176 de3d 49ed 183e a5f3 683d
00000220: 791c 07be 963e 533d c0f2 78bd a6da 863d
00000230: 0930 a43d 997e 14bb e8d8 b53d 5a37 c13d
00000240: fbcf 243c eda6 7fbd e039 60be 94cd febc
00000250: 0807 9c3d e9fe 26bc 5e98 8f3d 9343 adbc
00000260: 480b 68be 2cd8 5abd 9253 03be 5794 9d3c
00000270: e755 0abd 050f 88bc c07d 833d a8c9 3e3c
00000280: b1bd e23c d66b aabd 3bd1 6d3d dfbf 7e3d
00000290: a4c1 703d 125d 2dbd c7a9 403d 908b 98bc
000002a0: 16d4 893c be4b cf3a ff31 41be 3a82 013d
000002b0: e45d 96bb 9c9a d3bb e610 ad3d 137e 413d
000002c0: b404 27be 2e6d 73bd f107 bf3d a84f bc3d
000002d0: d3cb 04be e670 e1bc c7f2 9c3d 7079 413d
000002e0: 9a86 043e 2b71 063e 7a04 983b 6010 92bb
000002f0: 2598 cd3d be3a e43b fbe8 203d 3ede adbc
00000300: 2850 503d fee8 07bd f171 483e 519c 813d
00000310: 07ea 6a3e de32 883d 63b4 ccbb 6301 81bd
00000320: 073b 713d b2c3 2dbd 699f 1a3d 3bb1 a43b
00000330: 5ac6 06be 8f39 8e3c cf0a 393e 1745 b63d
00000340: 2446 3fbe 2c31 76bc 2b31 163e e4ac 843d
00000350: 551e 073c 2fbe 74bd 2493 c3bd 220a e1bc
00000360: 6b53 04bb a038 f43c b834 f1bd 6e21 993b
00000370: a22c e23d 0417 8fbd 73f1 45be c501 a23a
00000380: c712 6b3d 2a4d 803d e859 70bd b6c2 853d
00000390: 3959 853c 050f b4bc 8118 a2bd da23 013d
000003a0: a6ea 96bd 22f3 3c3d b6ae 723d 4d88 e2bb
000003b0: 0501 af3d 889a 60bd 2db5 73bd cb6b 7c3d
000003c0: aa50 9a3d 9e03 bcbd 4a82 26be c870 55bc
000003d0: 03b6 47be 702d c33c 94c6 213e 6d00 413d
000003e0: a251 f33d 4b0a eb3d c248 a03d f148 b3bd
000003f0: 2d88 e1ba a583 613c 8c22 a2bd 0362 07bd
0.07713873 -0.0075961356 -0.10328416 -0.040534418 0.008637756 -0.053268492 -0.027297856 0.06654977
0.019499715 -0.036227282 -0.09747956 -0.030853357 -0.13041875 -0.022752285 0.0019272626 -0.07672075
0.19080283 0.13349296 -0.073458984 -0.03657017 0.17330904 0.109743364 0.041158922 -0.066295095
0.020842453 0.047468334 0.03410479 -0.08261552 0.0065975357 0.012199547 0.03737642 -0.07085382
0.063468486 -0.027550675 0.18535982 0.020537024 0.08477654 -0.031713177 0.23355567 0.12067436
-0.13579483 0.022826616 -0.2868849 -0.09498502 0.09360393 -0.09314923 0.13218105 0.087870814
0.037257165 0.09951258 0.03067009 -0.036508687 -0.07073642 0.048594862 0.22184777 0.08264162
0.087485395 0.06459496 0.121542476 0.054652743 0.027235813 -0.0878158 -0.110562734 -0.016668905
-0.3109554 -0.08431587 -0.005413983 -0.020040667 -0.028374843 0.058333326 -0.054828018 -0.034326196
0.06406362 0.010240942 0.0349173 -0.02802982 -0.015261506 0.012029733 -0.05640009 0.062705375
0.025442936 -0.053553633 0.058434244 -0.0031007626 0.018308984 -0.090771995 0.020644393 -0.030040208
0.1030065 0.08959823 0.018577674 0.01860841 0.18704545 0.13960485 0.07293849 -0.10674375
0.21562502 0.01602582 0.04417176 0.033926282 -0.115840346 0.065279335 0.059676908 -0.039758995
-0.08483413 -0.0032818976 0.17539114 0.14243992 -0.056172926 0.038628604 0.05286472 0.0530623
0.20768754 0.12344679 -0.052468784 0.026253482 0.07563691 -0.10031842 0.23751071 0.06850732
-0.062490214 0.066571474 0.15093738 0.12445636 -0.0071100793 -0.044443317 -0.12831666 -0.09817246
0.020795163 -0.06177749 0.13879001 0.10535934 0.13851325 0.10862518 0.14934267 0.056872983
-0.13194455 0.05157336 -0.06077838 0.06584673 0.080169745 -0.0022658466 0.08879262 0.094343856
0.010059352 -0.062415052 -0.21897078 -0.031103887 0.076185286 -0.010192611 0.070114836 -0.021150386
-0.22660553 -0.053428814 -0.12824848 0.019235773 -0.03377333 -0.016608724 0.06420469 0.011644758
0.027678343 -0.08321349 0.058060866 0.0621947 0.05877842 -0.042325087 0.047036912 -0.018621236
0.016824763 0.001581542 -0.18866728 0.031618334 -0.0045888294 -0.00645764 0.08450489 0.047239374
-0.16310388 -0.059430294 0.093276866 0.09194881 -0.12968378 -0.027519654 0.076634936 0.047234952
0.12941971 0.13129108 0.0046392055 -0.0044575185 0.10038785 0.0069650104 0.039284687 -0.021224137
0.050857693 -0.033181183 0.19574715 0.06328643 0.22940837 0.06650327 -0.0062470897 -0.062990926
0.058894183 -0.042422958 0.03774968 0.0050260103 -0.13161603 0.01736143 0.1807053 0.088998966
-0.186791 -0.015026372 0.14667194 0.06478289 0.008246978 -0.059751686 -0.09549549 -0.027470652
-0.0020191323 0.029812157 -0.117776334 0.0046731746 0.11043669 -0.06986812 -0.19330387 0.0012360147
0.057390954 0.06264718 -0.05867949 0.06531279 0.016277896 -0.021979818 -0.0791483 0.03152833
-0.073689744 0.046130307 0.05924865 -0.006913221 0.08545116 -0.054834872 -0.059498955 0.061626237
0.07534917 -0.091803774 -0.16260639 -0.013027377 -0.19503026 0.023825377 0.15798408 0.047119547
0.118808046 0.114765726 0.078263775 -0.08754147 -0.0017206721 0.013764297 -0.079167455 -0.033052456

encoder.0.bias f4 [512]
00000000: 839a d03d d79d 0c3d 3d4b 473d b074 613d
00000010: 7205 753d b8dc aebd 0e78 353d 04be 09bc
00000020: df9d 92bd 3382 053d 85c6 a0bd 241b 8f3d
00000030: 7302 9bbd 6e24 923d 3ee8 99bd d056 773d
00000040: e101 9b3d ae9c 17bd bc0c d23d c115 5bbd
00000050: bac2 a0bd 22ad edbd cb9e 6f3d 6f3c f4bc
00000060: af05 95bd 5b1f 7d3d a0d2 533d 57aa 87bd
00000070: 1bed 81bd d0e2 8ebd 91d6 493d 8edc 3f3d
00000080: 746d d8bd 3a37 703d 487c acbd ad54 5c3d
00000090: 455e 96bd 92dd 943d 82ed 9e3d 8abd 6ebd
000000a0: c3b8 553d 507b d43d 1c7d 6a3d 936c 753d
000000b0: 0448 9ebd 563f 8bbd f3f0 89bd 1239 863d
000000c0: 135f 7fbd 64b9 88bd 47b0 7c3d 0525 983d
000000d0: e544 13bb 8966 80bd 11e6 a1bd 7904 79bd
000000e0: 4ddd 58bd 2d95 303d 23a8 973d d336 5fbd
000000f0: 3cc7 cd3c fa2d 92bd c5d2 763d 41b4 053d
00000100: 9d08 933d ff95 8dbd cd39 8abd 34d6 90bd
00000110: fb14 643d ca72 8bbd 1b7b a9bd 5bbe 61bd
00000120: 0b2e 323d 2bb2 babd ee09 a2bd 3478 bd3d
00000130: c4dc b0bd e8c1 b5bd 9274 733d 1888 a3bd
00000140: 3968 593d 9695 98bd 3143 913d 25dd a83d
00000150: f34a 803d b387 a8bd 55ab a0bd b0b3 82bd
00000160: 68fb a8bd 5c91 92bd 9b5f 2b3d 8f5c 8fbd
00000170: e66c a0bd 73cf 7e3d ffbe a1bd 0660 933d
00000180: 0b11 8f3d 1693 6cbd 35f7 71bd 17fd 6f3d
00000190: 579f a53d 1b37 88bd 483a 93bd a874 66bd
000001a0: a5d4 a0bd 605d 7ebd 0e3b 563d d416 f6ba
000001b0: 0cd8 88bd 12f5 2f3d bd39 883d 3691 c4bd
000001c0: 8e3e 9bbd 8bf8 a7bd 97e0 843d 04c8 8bbd
000001d0: 5e31 a6bd 0fa0 7dbd 7e70 a23d 9614 463d
000001e0: 0d1a 8a3d fb49 9ebd 3a6c b9bd f65c 83bd
000001f0: b986 6fbd 3211 903d 0f24 a13d 3eb1 98bd
00000200: 44f1 7e3d 4f45 79bd 5bef 8a3d f3a4 843d
00000210: d4d6 683d a5de 9b3d fb7a 5fbd 6982 71bd
00000220: a000 753d bcf2 633d 8b45 843d c850 9ebd
00000230: 27d7 94bd 030e 94bd ce59 66bd dab7 813d
00000240: dd2a afbd 87ac 8c3d a478 acbd 5c0c 77bd
00000250: d511 5a3d 12e8 a3bd 1c1f 7bbd 639c 7abd
00000260: 5434 6fbd c256 473d aa88 433d 6496 94bd
00000270: d0ae 90bd b6b9 ab3d 9d29 8d3d 2396 8abd
00000280: 54b5 673d c0e6 9cbd ffa6 aa3d b9cf 90bd
00000290: f29b 83bd 0d98 8ebd 7a3d edbc d0c1 a73d
000002a0: 9c07 a5bd 221b 8d3d 19e4 743d 6be3 853d
000002b0: 66f6 143d 8f3c 8a3b 2398 783d f1bc afbd
000002c0: c418 9abd df41 363d ed53 84bd 1a43 af3d
000002d0: 882b 7bbd 0129 883d 5e87 83bd de3a 8dbd
000002e0: 0773 4bbd 6400 2b3d 2c3a 89bd b913 7ebd
000002f0: 91b7 99bd 54f9 8ebd c42a 963d 702a 9f3d
00000300: 4466 583d a756 be3d 9b46 8dbd 54bc a8bd
00000310: 0a70 9a3d b24d 8abd 4a3e 4b3d 99a0 c6bd
00000320: 4442 913d 44fe 94bd 021f a43d 5bf1 11bd
00000330: 9b41 f13c 8e92 9cbd b99b aa3d e7fd a33d
00000340: 3a40 d13c 50b6 a5bd c508 84bd ace6 56bd
00000350: aa6a 9dbd 08ee adbd 4212 9bbd d8b6 91bd
00000360: b41e 833d 20f9 853d 9fe3 acbd 5afb 83bd
00000370: 8668 673d 0e69 80bd 96a5 443d 848d a4bd
00000380: 4154 a73d 4aba 9dbd 0e09 8f3d 9a53 7c3d
00000390: 6723 723d d6fa 91bd 1eea bebd f275 703d
000003a0: a71f 8cbd d105 b3bd 87b3 a7bd 47ec 913d
000003b0: a714 9dbd d8b6 5a3d 9075 50bd 3b77 723d
000003c0: f5cd 9cbd a126 44bd 57bf 53bc ed2b 723d
000003d0: e6fb b7bd 8814 873d ba3c 953d 7d1c 8cbd
000003e0: 09c5 37bd 5d8a 2e3d 2972 773d 6d68 543d
000003f0: fcdb 97bd 6d39 743d 52db 6f3d 8ca2 a3bd
0.10185721 0.034330215 0.048655737 0.055042922 0.059819646 -0.085381925 0.044303946 -0.00840712
-0.07159018 0.03259487 -0.078503646 0.069875985 -0.075688265 0.07135855 -0.07515 0.060385525
0.07568718 -0.037014656 0.10256335 -0.053487543 -0.07849641 -0.11605288 0.058501046 -0.029813973
-0.07276475 0.06179748 0.05171454 -0.066242866 -0.063440524 -0.06976855 0.049276892 0.046841197
-0.105677515 0.05864642 -0.08422142 0.05379169 -0.07342199 0.07268824 0.07760145 -0.058286227
0.052178156 0.103750825 0.05724822 0.059917998 -0.0772858 -0.0679919 -0.067354105 0.06553854
-0.06234653 -0.066759855 0.06169155 0.07428936 -0.0022471484 -0.06269557 -0.0790521 -0.06079528
-0.052945424 0.043111015 0.074051164 -0.054495644 0.025119416 -0.071376756 0.0602596 0.032642607
0.07179377 -0.06913375 -0.06749306 -0.07072106 0.05568407 -0.06809004 -0.08275434 -0.055113178
0.04350094 -0.09116014 -0.0791205 0.092514426 -0.08635858 -0.08874875 0.059437342 -0.07984942
0.05307791 -0.07450406 0.07092894 0.08245305 0.062642954 -0.082290076 -0.07845179 -0.06381929
-0.08251077 -0.07156631 0.041839223 -0.07000076 -0.07833271 0.062209558 -0.07897758 0.071960494
0.069856726 -0.05775746 -0.059073646 0.058590975 0.08087032 -0.066511355 -0.07188851 -0.056263596
-0.07853059 -0.062100768 0.052302413 -0.0018775114 -0.06681833 0.042958327 0.06651638 -0.09598009
-0.07580291 -0.08201703 0.064881496 -0.06825259 -0.08114885 -0.061920222 0.079316124 0.048359476
0.0674325 -0.077289544 -0.09053846 -0.06414215 -0.05847809 0.0703453 0.07868206 -0.07455681
0.062241808 -0.060857113 0.06783935 0.06476774 0.0568455 0.076108254 -0.054560643 -0.05896226
0.05981505 0.05565141 0.06458577 -0.077302516 -0.072675996 -0.07229235 -0.05623799 0.06333895
-0.085530974 0.068688445 -0.08421448 -0.06031452 0.053239662 -0.08003248 -0.061308965 -0.0611843
-0.058399513 0.048666723 0.047737755 -0.07255247 -0.07064593 0.08385031 0.06892703 -0.067669176
0.056569412 -0.076611996 0.08332633 -0.0707087 -0.064262286 -0.06962595 -0.028959978 0.08191264
-0.08058092 0.06889941 0.059787843 0.06537517 0.036367796 0.004218645 0.060691964 -0.085809596
-0.07524255 0.044496413 -0.0646132 0.085577205 -0.06132081 0.06648446 -0.064223036 -0.06895994
-0.049670245 0.04174842 -0.067005485 -0.062030528 -0.07505716 -0.06981149 0.07332376 0.07771766
0.052831903 0.092938714 -0.068982325 -0.08239046 0.07540901 -0.067531005 0.04961995 -0.096986
0.07092717 -0.0727506 0.08013727 -0.035630565 0.029450228 -0.076451406 0.08330483 0.080074124
0.02554332 -0.08091414 -0.06446985 -0.05246608 -0.0768636 -0.084926665 -0.07571842 -0.07114953
0.064023405 0.065416574 -0.08441853 -0.06444426 0.056496166 -0.062700376 0.048009478 -0.080348045
0.08170367 -0.077015474 0.06984149 0.061603166 0.059115794 -0.07127921 -0.09321998 0.05870623
-0.06841975 -0.08741344 -0.08188539 0.071251445 -0.07669955 0.05339703 -0.050893366 0.05919574
-0.07656471 -0.047888402 -0.012924037 0.059123922 -0.08983593 0.06595713 0.07286973 -0.06841371
-0.04486564 0.042612422 0.060411606 0.0518574 -0.074150056 0.059625078 0.05855877 -0.07989988

encoder.3.weight f4 [128, 512]
00000000: 637e e43b bea5 8d3d 8fc5 9a3d b2f8 dabc
00000010: 61c1 43bc 667c 613d eaca 29bd fbd3 8c3c
00000020: 0606 c13d ead4 0bbd ddd8 dabb 6346 94bc
00000030: c844 dcbc 403b f5bd b309 c23d f786 613c
00000040: 832e b4bd d1c1 2cbc c086 57bd d88c 5ebd
00000050: c3ae 493e 1b70 003e e4a1 51bc e4fb 80bc
00000060: 57c9 043d 7922 a7bd 1249 9ebd e286 8c3c
00000070: 6ccf 893d 4a89 f13d bf2b d1bd 541b 8fbc
00000080: 36d9 963d 514d 69bc 7829 2abd 3481 d73c
00000090: 74fd 6b3d b613 bcbd 6463 30bd 3d56 6d3c
000000a0: 84d3 023d 69f7 2c3b face 5ebd 00df 8cbd
000000b0: d178 e93d a4d8 623d 7335 913d e793 f8bd
000000c0: 318a 953c 0820 e33d 855d c8ba 6688 1dbe
000000d0: 58ac d33d a474 c33d 0c90 7fbc 0570 eabc
000000e0: ff52 8ebd 065c 2ebc fe1b 12bd e045 1ebd
000000f0: c453 81bd 3df8 c13d 1aba 2f3d 5b34 953d
00000100: 83b1 7b3c c5ea 6c3d f69b 893b f78d 433d
00000110: a39c 5f3d ff29 e23d b670 8eb9 73d0 05bd
00000120: b637 81bd d33f 233e 5d4c 303d 5076 fcbb
00000130: 1ffb 123e f028 493e e6dc 8fbd d6dd cebc
00000140: a379 9cbd b53b 683d 95cb a9bc d973 02be
00000150: d547 31bc f34d 9a3c 34d7 e63d 3b55 d5bc
00000160: 3a40 003e 1b0c 12bb 6c15 06bd f729 e2bc
00000170: b37b 02bd 9eea 0bbc b9d6 a53c 6178 e8bb
00000180: da49 f0bd 9eda 053e 193d 433d 1eaf a93d
00000190: 23c5 16bd a4e2 293d dbff 9b3d 5bac f73c
000001a0: 3c1b 013d 78be cd3d e5d0 b7bd 2e26 c33d
000001b0: 37df a3bc 9e7a 87bd 9f79 f13a 3c97 643e
000001c0: 65de 533d edf7 9c3d 8fc8 28bd 5b4b 243e
000001d0: 7f75 bc3d 648b b03c 6236 bcbd 8e30 1dbd
000001e0: 2b0d a6bd 95a2 5a3e a9d9 2e3e 2dd3 943c
000001f0: 881e e63c 4c4a 03be 0013 c7bd 4b85 d63d
00000200: 9d64 f2bd d9fc 39bd 9907 8abd b555 f93b
00000210: 3910 8bbc 2495 72bb d886 8abd a7a0 243c
00000220: 6f35 42bc 091f c13d 5306 babd 450f 133e
00000230: 0f42 023e e201 2e3d ae2f 0dbd b36a fbbd
00000240: ed20 ad3c 1aa7 19be 3ada 943c 861a 263e
00000250: cd31 59bd 3ddb 1c3e 2124 f73d 66ff b23d
00000260: 90aa 0c3c 6b43 9fbd b490 e1ba 98fe ff3d
00000270: 9281 d73d 1724 6bbd c9be e8bd 0fa4 e53c
00000280: e6d0 9c3d 4194 953d 619e 24be 19e3 853d
00000290: bea6 9abd 5e03 ab3c 83eb 99bd f24f a0bd
000002a0: 9754 283e d383 26bd 812d bfbd da74 e0bb
000002b0: 0503 d43d 5bc7 403d 3923 4f3d c631 a53d
000002c0: df05 803d 0d04 273d 5055 d33d 4ba5 843a
000002d0: 5d98 34bd 405b 8d3c beab 8a3d 7411 dc3c
000002e0: f182 cf3b dc5e 71bd 780d 753d 0b78 5f3d
000002f0: 0c57 213e c63b 953d 712f d2bd 6693 fbbd
00000300: 0cdf 4cbd d071 48bd ed11 df3d 3cae c83d
00000310: 14cb 99bd ef8f f53c 1e78 1f3d e3d3 0d3e
00000320: e164 0fbe 1c8b 1f3d a960 d9bd 219e a1bc
00000330: 2a7d 80bd 2db0 44bd 3388 d6bd ecab 45bd
00000340: a8fb 9f3d c0bc 983d e859 5fbd 5f63 9f3d
00000350: 24f8 9ebc 5798 373e 328d 113d 0c52 913d
00000360: f7ea 383c d889 1abe 7926 403e 20ab fe3c
00000370: 377a 88bd 7969 e13c 5f65 a03c b281 ef3d
00000380: 43fd d3bd f727 303d 72f9 d93c 138b 543d
00000390: cc45 95bd fa3d 81bb 002f 803d 5f6c dfbd
000003a0: 9783 c03c 3764 0e3d e0b8 1e3e f6a1 0dbe
000003b0: f01b 023d fe01 a7ba e039 57bd 7878 7e3d
000003c0: 781f 9f3d c18c 9b3d 004f b2bc 0efb d9bc
000003d0: 5491 043e d96e 4fbc 19f2 20be 7a9e b73d
000003e0: 965e 3bbd 3abb d0bd 17e4 dabd 0b49 673d
000003f0: d30f cabc 8bf5 163d 245a cebc 6879 a73d
0.0069730743 0.069163784 0.075572126 -0.026729915 -0.011947961 0.055050276 -0.04145328 0.017190924
0.09424977 -0.034138598 -0.006678684 -0.01809997 -0.026888266 -0.11974192 0.09474506 0.013765088
-0.08797934 -0.010544256 -0.052618742 -0.054333538 0.19695573 0.12542765 -0.012794945 -0.01574511
0.032418575 -0.08160872 -0.07728781 0.01715416 0.06729016 0.11793764 -0.10213422 -0.017469086
0.073656484 -0.014239625 -0.041543454 0.026306726 0.05761476 -0.09183447 -0.043063536 0.014485893
0.03194 0.0026392585 -0.054396607 -0.068784714 0.11399997 0.055382386 0.07090273 -0.12137585
0.018254371 0.11090094 -0.001528666 -0.15384063 0.10335606 0.09543732 -0.015598308 -0.028617868
-0.06949424 -0.010642057 -0.035671227 -0.038640857 -0.06314805 0.09471176 0.04290209 0.07285377
0.015362146 0.05784108 0.0041995 0.04774281 0.05459274 0.11043166 -0.00027168327 -0.032669496
-0.06309454 0.15942316 0.043041576 -0.0077045336 0.14353608 0.19644523 -0.07024555 -0.025252264
-0.07640388 0.056697566 -0.020726958 -0.12739505 -0.010820349 0.018835997 0.112715155 -0.026041618
0.125245 -0.0022285047 -0.032735273 -0.027607901 -0.03185625 -0.008539824 0.02024399 -0.0070944284
-0.11732836 0.13071677 0.04766569 0.08285354 -0.036809098 0.041475907 0.0761716 0.030233553
0.031520113 0.10046095 -0.0897539 0.095287666 -0.020003898 -0.06615184 0.0018423087 0.22323316
0.051725764 0.076644756 -0.041206893 0.16044371 0.09202098 0.021550842 -0.0919006 -0.038376383
-0.0810798 0.21351083 0.17075218 0.018167103 0.02809073 -0.12821311 -0.09720421 0.10474642
-0.11835597 -0.04540715 -0.067397304 0.007609094 -0.016975509 -0.0037015164 -0.06764001 0.010048068
-0.01185356 0.094297476 -0.090832375 0.14361294 0.12720512 0.042482264 -0.0344693 -0.12276211
0.021133864 -0.1500515 0.018170465 0.16221055 -0.05302601 0.15318008 0.12067438 0.0874012
0.008585587 -0.07776531 -0.0017209263 0.12499732 0.105227605 -0.057407465 -0.113645144 0.02803233
0.07657032 0.07303668 -0.16076042 0.06537456 -0.07551335 0.020875629 -0.075156234 -0.07827748
0.16438518 -0.04065306 -0.09334851 -0.0068498673 0.103521384 0.04706512 0.0505707 0.08066134
0.0625112 0.040775348 0.103190064 0.0010120062 -0.044090617 0.017255425 0.067710385 0.026863791
0.006332748 -0.058928356 0.059827298 0.05455784 0.15755862 0.072867915 -0.10262955 -0.122839734
-0.0500174 -0.048936665 0.10892091 0.097988576 -0.07509437 0.02997586 0.038932912 0.1385036
-0.14003326 0.038951024 -0.106141396 -0.019728722 -0.06273873 -0.048019577 -0.10475197 -0.04825966
0.078116715 0.07457876 -0.0545291 0.077826254 -0.019405432 0.17929207 0.035535045 0.07095727
0.011286489 -0.15091646 0.18764676 0.031087458 -0.06663936 0.027516114 0.019579588 0.11694659
-0.1035104 0.043006863 0.026608203 0.051890444 -0.07288703 -0.0039441558 0.062589645 -0.10909342
0.023500247 0.03476354 0.15500212 -0.13831314 0.031764925 -0.0012741683 -0.05254543 0.062126607
0.07769674 0.07595206 -0.021766186 -0.02660897 0.12946063 -0.0126607055 -0.15717353 0.08965774
-0.0457445 -0.10191961 -0.10688036 0.056466144 -0.024665749 0.03685526 -0.025189467 0.08177453

encoder.3.bias f4 [128]
00000000: f968 b7bd 9977 8bbd 9437 54bc c522 8e3d
00000010: f00d 8abd cf13 4abd 1b7b 8d3d 5611 64bd
00000020: 6766 b7bd fe99 a9bd 438e e5bd e42d 9a3d
00000030: bfa0 743d 38ed 91bd cda2 8f3d 8ee2 99bd
00000040: 7c6a a4bd 4802 6fbd 0fce a6bd ea74 b93d
00000050: 0b2c abbd 8bfc 843d 9b1e ac3d 853c 80bd
00000060: dcb7 7fbd 4394 a73d ddd4 aa3d 25ef a43d
00000070: f189 77bd 6da1 82bd 3b5a 9abd 0108 a13d
00000080: fe08 98bd 37c6 9a3d ccbb 883d 6bcf 84bd
00000090: 8d1a 983d b334 87bd 50a6 973d 5d1f a5bd
000000a0: 93c9 b3bd 27e2 aabd 0abf 9dbd d4da 6e3d
000000b0: 66f2 9d3d 1519 943d 50c3 9e3d 735b 93bd
000000c0: 9ded a8bd bc2d 973d 2370 923d 2e5f b2bd
000000d0: c3e1 933d f996 963d ef4f 84bd 9e36 a0bd
000000e0: 89bd 833d b31e 963d aefd b03d 6e34 7abd
000000f0: 721a 82bd e047 8c3d e807 9e3d 16dd 963d
00000100: 7169 893d 992a 9cbd cd98 833d a2bc a4bd
00000110: 5d1d b7bd 24b2 7d3d 9532 993d 1890 6c3d
00000120: 08ae 96bd b863 853d 1cc8 90bd 5738 8dbd
00000130: cd8c 873d 8ae9 bfbd 0454 9cbd ddf1 653d
00000140: 0b1e a53d 6a3d 8abd 672a 86bd 97a3 9b3d
00000150: dc01 973d 020e 74bd 03b2 b3bd 2880 6dbd
00000160: 20c9 a3bd 7684 803d 1d9e 94bd baed 94bd
00000170: 2bf2 683d 8a78 90bd cfbc 9f3d ad19 853d
00000180: a3a8 873d 43d5 96bd 31dc 86bd 362b a23d
00000190: 6371 83bd f624 99bd 5baf 9ebd 9730 4b3d
000001a0: 27c8 863d 7b9b 95bd f3b6 8abd 969f 8ebd
000001b0: c4f7 86bd dc63 8d3d 84d8 b53d b085 ab3d
000001c0: 26db 9ebd 49b5 883d 9542 893d 3ee7 873d
000001d0: 6420 82bd 2137 8e3d 274a 8fbd 567f 963d
000001e0: f90f 863d 9c79 933d b4ca 8fbd b0c7 2fbd
000001f0: 3c49 8b3d 9a6a 903d 81bc 963d 3061 a53d
-0.08955569 -0.06809921 -0.012952704 0.069402255 -0.067409396 -0.049335297 0.06908246 -0.055680595
-0.089550786 -0.08281325 -0.11208775 0.07528284 0.059723612 -0.07125324 0.07013474 -0.07513915
-0.08028123 -0.058351785 -0.08144771 0.09055503 -0.0835801 0.06493481 0.08404275 -0.06261543
-0.0624312 0.081825756 0.08341382 0.08053426 -0.060434286 -0.06378446 -0.07536741 0.07862855
-0.0742359 0.07557338 0.066764444 -0.06484874 0.07426939 -0.066018485 0.074047685 -0.08062623
-0.087786816 -0.083439164 -0.077024534 0.05831416 0.077122495 0.072313465 0.07752097 -0.07195177
-0.08248446 0.0738177 0.07150295 -0.0870956 0.07220795 0.073530145 -0.064605586 -0.078229174
0.06432635 0.07330074 0.086421356 -0.061085157 -0.063527 0.068496466 0.07716352 0.073663875
0.067095645 -0.07625312 0.06425629 -0.08043791 -0.089411475 0.061937466 0.07480351 0.057754606
-0.073574126 0.065131605 -0.07069418 -0.068955116 0.066186525 -0.09370716 -0.07633212 0.056138862
0.08062371 -0.06749995 -0.06551056 0.07599562 0.073734015 -0.05958367 -0.087741874 -0.057983547
-0.07997346 0.06275265 -0.0725672 -0.07271905 0.056871574 -0.07054241 0.07799684 0.06499038
0.06623962 -0.07364895 -0.06584967 0.07918398 -0.06418111 -0.07477753 -0.0774829 0.049606886
0.06581145 -0.07305046 -0.06773176 -0.06964032 -0.06590226 0.06903812 0.08879188 0.08375108
-0.07756643 0.066752024 0.06702153 0.06635903 -0.06353834 0.06944109 -0.06996565 0.07348506
0.06546015 0.072009295 -0.070210844 -0.042915046 0.06801078 0.07051583 0.07360173 0.08075178

regressor.0.weight f4 [512, 128]
00000000: c7c4 0c3e e401 e23d 9962 7e3d 1e16 ea3c
00000010: 8b95 883c d520 323d 4db8 a6bd ee61 d039
00000020: e62e d03c 3595 da3d 98a9 1e3e 3550 2dbe
00000030: 023d e93c 57e7 073e a5b9 92bd c6c1 223d
00000040: 13ff 263e 3719 813d eecf 933d 2318 93bd
00000050: cb52 f03d 2724 88bd 0739 2cbd a45d df3d
00000060: 97f9 c83d 1b8e 82bd 02c1 31be 671c 2c3b
00000070: fc97 093e bc06 e93d 8859 dd3d 6b55 8fbc
00000080: 0553 2d3e 3594 88bd 9a81 0ebe d73b c93d
00000090: 7d5e 56bd dc78 9b3d b97f f8bc 06a5 c53d
000000a0: 60d7 4e3e 1191 263e 747b c53d e82e f1bd
000000b0: 7865 3b3b 0e5a e0bd b137 0bbd 015f f73d
000000c0: eb3c d63c 9b38 17be ea0a c3bd 5d3c ba3c
000000d0: 27a6 a9bc daa4 5b3b c3ea ef3c f05f 043e
000000e0: 786a 1a3d f039 af3c 027a 4bbe 60f3 8abb
000000f0: 785d 2abd 77cd 99bd b040 13be 4e9a ffbd
00000100: 6b82 333d c8f5 c33d 29df 10be 140a bb3c
00000110: 9e0f 2c3e 5e46 87bc ed2c d3bd cabf 8b3d
00000120: 13e9 033e 4ff0 08be 280e d73d 72d0 083e
00000130: efa3 ca3c 1f26 6e3d 0355 cf3d 65cf 553d
00000140: d9bb 0ebe 27be 0cbd f2e9 fcbc ef1f b1bd
00000150: 3d40 a6bd 5a01 fb3d ef8a a73d ce32 43bd
00000160: 013f e53d d743 583b bf09 473d ff22 d93d
00000170: 1651 f33c 27c1 e23d 6598 48bd d00e eebc
00000180: 5cd6 02be d5de b33c 8698 3d3d 8dc6 c0bd
00000190: 3513 2f3d f385 c03d 0912 223e 7356 f43b
000001a0: 5772 cdbd 03a6 2c3e 14b3 4d3d 2124 ea3d
000001b0: bb66 b43d 62f7 313c eb57 07be 2406 ad3c
000001c0: f296 163d 9205 23bd eeed 8abd f741 9ebb
000001d0: 4600 8d3d a78f 1fbe f8ab a73c a8a7 8bbd
000001e0: a336 673d 75df 39bd bc0a ac3b 9a53 c33d
000001f0: da8f 9bbd d724 b2bc 0f86 afbc f18e d1bd
00000200: 7c58 893d 3e13 bdbd 9e79 74bd af28 943c
00000210: 21aa b5bd d603 e7bb 3bba ad3d 2032 b0bd
00000220: 2b29 97bd 1a60 663d fe46 12bc 36c6 3a3d
00000230: bab5 0e3d 97b7 febd c8b5 9e3d 6fd1 d0bd
00000240: 587b 9cbc 04c4 3f3b 78e7 bbbc 2a00 91bc
00000250: 5ba2 59bd 1e73 603d 7a7d 993d 2c55 8e3d
00000260: bc60 ccbc fbb0 05bc 6a0d fb3d 9203 21bd
00000270: a823 50bc 3f52 b9bd f5da 003d e588 00bd
00000280: b0f4 c9bd c7b1 d83d 4c0a 9e3c 0d1a d9bd
00000290: 5873 213d a686 173c 7512 9dbc 997c 913b
000002a0: 4cb0 db3c 6d1e adbd 18d7 97bd 4250 483c
000002b0: da53 1a3b 3ce8 b93d a37f 05bd ff11 593d
000002c0: 5e84 c2bd 9c65 af3d f9a2 cebc 5d16 00be
000002d0: f678 c13d 98ca 25bd 7333 593d 46e9 bd3c
000002e0: caff f93c 90c5 0f3d 09fe ccbc e731 b1bd
000002f0: 8abc 80bc 7561 5f3c fd48 06bc ff73 043d
00000300: d85d 9fbb 2ee1 91bd ab73 f53d 1c08 4d3d
00000310: ca90 8fbd 6784 2c3d 879c b53d 2ae3 83bd
00000320: 0101 163d c595 ba3d cc39 f23c 11d5 f0bd
00000330: 8a4e 1d3c 564f afbd 71cd 10bd 06ab 553d
00000340: f35d b13d e80d 903b 74fb 313d e13c d0bc
00000350: bc26 02bc a25e 6ebd 222d dabd b09f b4bd
00000360: 2dd9 87bd 2ec4 9c3d e00b babd aaa3 edbc
00000370: bb4d 3b3d 804f 663d 871e 4cbd a660 f43b
00000380: 51f5 63bc 5901 31bd b201 91bc 7bdb 173c
00000390: 1df2 243d 4035 32bd 71c3 b9bd 26b1 1e3c
000003a0: d9df 2cbd 2b15 dc3c 1068 2dbd 8a05 7ebd
000003b0: bc64 343c d2d9 853d 3910 ca3c 3163 0ebd
000003c0: ba45 4c3d b627 ce3d d2ea cc3d 3ce2 8dbc
000003d0: c9dc b93c d111 713d 1674 18bd adc8 643d
000003e0: f451 ed3d 8c7b a33a cf22 cebd 5eaf 9e3d
000003f0: 5f96 943d c1d4 dc3d 8751 9f3d 9287 f43d
0.1374694 0.11035517 0.06210575 0.028575 0.01667287 0.043488342 -0.08140621 0.00039745815
0.025412988 0.1067299 0.15494382 -0.16925128 0.028471474 0.13271843 -0.07164315 0.039735578
0.1630824 0.063036375 0.07217394 -0.07182338 0.117345415 -0.066475205 -0.042046573 0.109065324
0.098132305 -0.06374761 -0.17358783 0.0026262046 0.13436884 0.113782376 0.10808092 -0.017496785
0.169262 -0.06668893 -0.13916627 0.09825867 -0.052336205 0.075914115 -0.03033434 0.09650616
0.20199347 0.16266276 0.096426874 -0.11776525 0.0028594416 -0.109546766 -0.03398866 0.120786674
0.026152095 -0.14767687 -0.09523566 0.022733862 -0.02070911 0.0033515007 0.029286748 0.12927222
0.037699193 0.021389931 -0.19870761 -0.0042404383 -0.041593045 -0.075098924 -0.14380145 -0.12480603
0.04382555 0.095683634 -0.14147629 0.022831954 0.16802832 -0.016513046 -0.10311303 0.0682369
0.1288188 -0.1337292 0.10500747 0.13360766 0.024736373 0.058141824 0.101236366 0.05219974
-0.13938846 -0.03436103 -0.030873273 -0.08648669 -0.08117721 0.12256117 0.08180796 -0.047655873
0.11193658 0.003299942 0.04859328 0.10602378 0.02970175 0.11071997 -0.04897346 -0.029059798
-0.12777084 0.02195684 0.046288036 -0.094128706 0.042742927 0.09400549 0.15827192 0.0074565946
-0.10031574 0.16860203 0.05021961 0.11432672 0.08808657 0.010862203 -0.13217132 0.021121092
0.036765046 -0.039800234 -0.06783663 -0.004829641 0.06884818 -0.15582143 0.020467743 -0.06819087
0.05644859 -0.04537912 0.005250303 0.0953743 -0.07595797 -0.021746082 -0.021426229 -0.10232342
0.0670633 -0.09232186 -0.059686296 0.018085806 -0.0887034 -0.007050018 0.08482786 -0.086033106
-0.07380899 0.056243993 -0.008928059 0.045599185 0.034841277 -0.12437361 0.07749516 -0.10196196
-0.019101784 0.0029261122 -0.022937521 -0.017700274 -0.05313335 0.054797284 0.07494636 0.06949839
-0.02494847 -0.008159871 0.12258418 -0.039310046 -0.012703814 -0.0904889 0.031458814 -0.031380553
-0.098611236 0.10580783 0.01929202 -0.10600672 0.03941664 0.009248411 -0.01917384 0.004439902
0.026817463 -0.08453069 -0.07414073 0.012226166 0.0023548515 0.09077498 -0.032592427 0.052995678
-0.09497903 0.08564302 -0.025224196 -0.12508531 0.094468996 -0.04047641 0.05302758 0.023182523
0.030517478 0.03510052 -0.025023477 -0.08652096 -0.015714902 0.013634075 -0.008196113 0.032337185
-0.004863482 -0.07123028 0.119849525 0.05005656 -0.07010038 0.042118456 0.08867746 -0.064398125
0.03662205 0.091105975 0.029568575 -0.11759389 0.009601245 -0.08560054 -0.035352174 0.052165054
0.086604975 0.004396189 0.043452695 -0.025419654 -0.007943805 -0.058195718 -0.1065314 -0.088195205
-0.0663322 0.07654606 -0.09084296 -0.029008705 0.045728426 0.05622816 -0.0498338 0.0074578105
-0.013913468 -0.043214176 -0.017701004 0.009268637 0.04026996 -0.043507814 -0.090704806 0.00968579
-0.042205665 0.026865562 -0.04233557 -0.062017 0.011010345 0.065356866 0.024665939 -0.034762565
0.049871184 0.10066168 0.10005726 -0.017319791 0.022688286 0.05885488 -0.037220083 0.05585544
0.11587897 0.0012472733 -0.10065233 0.077482924 0.072552435 0.10782767 0.07779222 0.119399205

regressor.0.bias f4 [512]
00000000: 45ab c1bd 2185 4d3d 1a0c cebd bb12 e4bd
00000010: 9fd0 313d f517 fbbd a421 3d3d 4f8d bbbd
00000020: 4f87 543d 3a4f 3e3d ff22 afbd a080 cebd
00000030: 5dec 2f3d 637f d83c 9dca 233d 30cd 693d
00000040: 779e c13c bec9 153d 2309 4c3d 127a 123d
00000050: 8bf3 1f3d 022c dfbd 9d64 2f3d 375b 403d
00000060: e28a cebd 2ec1 d5bd 9187 3b3d 68d4 3a3d
00000070: dc3c 213d 9203 423d 2557 dabd e3bf 273d
00000080: c77e 313d ede7 183d 07fa 00be 01bb 6c3d
00000090: 64f0 413d cb5d 1a3d e1d5 05be 6cb0 bbbd
000000a0: d382 e8bd b9c4 ecbd ee6c edbd f249 0b3d
000000b0: f2a1 cfbd 0ec4 d03c bd5f b8bd e106 413d
000000c0: 98dc e3bd c20a 2e3d e9c7 ef3c 3428 c9bd
000000d0: 09bd d0bd 765f 1a3d 50cc dbbd 7e7b 6f3d
000000e0: de30 8d3d 1170 213d c30c d7bd 67fa d0bd
000000f0: 6012 c6bd 92d8 f3bd d44d 183d f0fe e5bd
00000100: c6fd e6bd 77af 4f3d 50c4 213d 9f36 193d
00000110: a1ba b0bd 26e6 3e3d 4f56 d1bd c069 c5bd
00000120: 2e64 bebd ccfa a4bd 5628 043d d906 463d
00000130: ba6f 193d 259e 083d 4cfe 293d c830 a8bd
00000140: 8150 c2bd ba67 d0bd 7ed9 c7bd cac9 433d
00000150: a464 edbd c987 2b3d 8681 e2bd 5559 d1bd
00000160: 6b7c 1a3d 848b 513d f4ba efbd c4ab 373d
00000170: cde4 3b3d ba14 c5bd 9c34 dfbd a995 f13c
00000180: becb e2bd 413c 373d b00f d9bd a306 843d
00000190: 5ab1 ccbd 9119 edbd af68 c7bd ed94 653d
000001a0: 9ecd a8bd 3624 b6bd 0623 0f3d 6fc9 11be
000001b0: 4e47 243d 775f e1bd e3f9 c8bd 5abe f6bd
000001c0: 772d 423d c6a9 c0bd d3ba 373d 9ae0 a6bd
000001d0: a395 443d 42cd 0ebd 68be cabd 0d26 a9bd
000001e0: a05d 1a3d cf25 08be 96e5 07be 5ed7 d3bd
000001f0: 9ba7 b2bd 899f cfbd 4c64 b5bd 3f8d bfbd
00000200: 92fd 233d 50ee e6bd 31c4 173d da29 c1bd
00000210: 0dd9 e7bd 4147 293d c263 473d cf7a b0bd
00000220: 6635 103d 4596 b2bd 5579 a5bd c99f c3bd
00000230: ca9b babd b547 dcbd b6fb 5a3d 0701 08be
00000240: b58e c8bd c449 0abe 82d5 2b3d 17a1 edbd
00000250: b8fe 193d a87b 323d 7c9d 143d f9fe c2bd
00000260: 81dc 4a3d 6c11 f7bd bd65 b6bd 9087 e0bd
00000270: 7e2f e3bd bc22 283d 3e8f e2bd b9a8 dcbd
00000280: 22bf 323d 50be dcbd 2c85 02be eb37 dabd
00000290: 4f53 fe3c fccb 1e3d 6feb 333d 33f6 dabd
000002a0: 5296 303d f482 0e3d 101f eabd 315c bfbd
000002b0: 5e6e c9bd b30f f0bd 0b18 493d d3ca 263d
000002c0: 35ad 01be 4eed dcbd ff21 d2bd 8a5f 32bd
000002d0: 2145 0bbe e14c 233d 6668 babd 54cb c3bd
000002e0: b434 cebd fccb d4bd 8040 b5bd d083 c43c
000002f0: 70cf 143d d013 343d 7b18 5fbe 7885 333d
00000300: c6fc 383d dd12 c6bd 28eb cebd 4c73 f4bd
00000310: 6345 b7bd 35b9 233d 93f1 d4bd f6ca e5bd
00000320: e086 373d 5a7a 9cbd 5ac1 cebd 7ced 603d
00000330: 8a9e d5bd 149a 1a3d 1afa c6bd 65fe b8bd
00000340: 7b60 1f3d 315e abbd 9c52 593d bbc1 d9bd
00000350: 63a4 b7bd 988d 373d d27d 483d 7985 313d
00000360: 33e1 a1bd b6f1 223d 9a84 dabd a95d dfbd
00000370: 4e64 243d 191e debd c28a c6bd d4c1 aabd
00000380: 80e9 babd 0fee 173d b864 463d cd81 0a3d
00000390: dc23 d1bd 42c4 d9bd 38f0 b4bd 89cf eabd
000003a0: 3ea4 c2bd 4dd2 503d 9cda ecbd 91d5 05be
000003b0: 4e53 c9bd 9998 3e3d f2de 273d f34a abbd
000003c0: 25ab afbd bc39 c4bd 3b5b c5bd 13db ccbd
000003d0: 9ab7 b4bd 788c b9bd 64d7 3c3d b5df 403d
000003e0: 6eba b1bd 895b 363d 3427 343d d775 153d
000003f0: adf8 2d3d afed fabd de74 3c3d 5d79 013d
-0.09456495 0.05017579 -0.10060902 -0.11136385 0.043411847 -0.12260429 0.04617466 -0.09157812
0.051886853 0.046462275 -0.08551597 -0.10083127 0.042950023 0.02642793 0.03998815 0.057080448
0.023635132 0.03656935 0.0498134 0.035760947 0.03905062 -0.10897066 0.04282056 0.04696199
-0.100850835 -0.10437237 0.045783583 0.045612723 0.03936468 0.047366686 -0.10661153 0.04095448
0.043333795 0.037330557 -0.12595378 0.05779553 0.047348395 0.037687104 -0.1306987 -0.09164509
-0.11353078 -0.11560959 -0.11593042 0.034006067 -0.101383105 0.025484111 -0.09002636 0.0471257
-0.11126059 0.04249073 0.02927013 -0.09822121 -0.101923056 0.037688695 -0.10732329 0.05846738
0.06894086 0.039413515 -0.10500481 -0.102040105 -0.096714735 -0.11906542 0.037183598 -0.11230266
-0.11278872 0.050704446 0.03949386 0.037405606 -0.08629347 0.046606205 -0.1022154 -0.09639311
-0.092964515 -0.08055648 0.03226503 0.048346374 0.037460066 0.033353943 0.041502282 -0.08212429
-0.09488011 -0.10176034 -0.0975828 0.047799863 -0.11591461 0.04187754 -0.11059861 -0.10222117
0.03771631 0.051158443 -0.1170558 0.044841543 0.0458725 -0.09623094 -0.10898706 0.029490309
-0.11074017 0.044735197 -0.10598695 0.06446578 -0.099947646 -0.11577142 -0.09736764 0.05605023
-0.08242343 -0.088936254 0.03494551 -0.14236997 0.040107064 -0.110045366 -0.09813287 -0.120480254
0.04740664 -0.09407382 0.044855904 -0.08148308 0.047994267 -0.034863718 -0.09899598 -0.08259211
0.037686944 -0.13295673 -0.13271174 -0.103438124 -0.087233745 -0.10137851 -0.08857021 -0.093531124
0.040036745 -0.11275923 0.037052337 -0.09431811 -0.11320696 0.04132772 0.04867912 -0.08617174
0.035207175 -0.08720068 -0.08079783 -0.09551961 -0.09111746 -0.107558645 0.053462707 -0.13281642
-0.09792844 -0.13504702 0.041951664 -0.11602991 0.037596434 0.04357496 0.036283 -0.095212884
0.049526695 -0.1206387 -0.08906124 -0.109633565 -0.11093043 0.04104875 -0.110624775 -0.10774369
0.04363931 -0.10778487 -0.12746114 -0.10655197 0.031045584 0.038768753 0.0439257 -0.1069149
0.043112107 0.034792855 -0.11431706 -0.09343756 -0.09835504 -0.117217444 0.049095195 0.040720772
-0.1266373 -0.1078745 -0.102603905 -0.043548144 -0.1360059 0.03986824 -0.09101944 -0.09560266
-0.10068646 -0.103904694 -0.08850193 0.023988634 0.03633064 0.043964207 -0.21786682 0.043828458
0.04516294 -0.09671567 -0.10103446 -0.11936054 -0.08948781 0.03997155 -0.10397639 -0.11220352
0.04480636 -0.07640524 -0.10095473 0.054913983 -0.104306296 0.037744597 -0.09715672 -0.09032897
0.03891037 -0.08367575 0.053057298 -0.10632654 -0.08966901 0.04481277 0.048948117 0.04334018
-0.079042815 0.039781295 -0.10669823 -0.10906536 0.04013472 -0.108455844 -0.09694435 -0.08337751
-0.09126568 0.037092265 0.048435897 0.033815194 -0.10211918 -0.10633136 -0.088348806 -0.114653654
-0.09503983 0.05098181 -0.11565134 -0.1306975 -0.09830342 0.046532247 0.0409841 -0.08363905
-0.08577565 -0.095813245 -0.096365415 -0.100027226 -0.08824082 -0.090599954 0.04610385 0.047088344
-0.08678137 0.04452089 0.0439827 0.036489334 0.042473484 -0.12252366 0.04600989 0.03160988

regressor.3.weight f4 [128, 512]
00000000: 3272 76bd 38bc 3e3d 1c7a 24bd fb5b cb3c
00000010: 3280 c5bc 3fa9 f4bd 0080 49bd 4095 27bc
00000020: 5865 24bd c81c 22bd 0110 333c ea95 883d
00000030: cfe7 9dbd 1aab 2abe ed6b b4bd e4a3 1a3c
00000040: bae2 af3d 6736 b1bd 32ad 42bd 339c 8ebc
00000050: 135f 58bd 9fd7 6abd 554e 9bbc a47e 49bd
00000060: 15dd 7f3c 4aa9 11bd 055f e9ba db34 7bbc
00000070: 75b1 8b3d acec 5c3a 3ef3 823d 97db 98ba
00000080: fe21 abbd fb1e dfbd 7966 f73c 9464 8d3d
00000090: cb82 08bd bd26 913d cb53 31bd 0d7e 923c
000000a0: b488 f33c bd7a 5a3c 8574 513d d976 d7bd
000000b0: 61ca cabb a742 42bd 2b2d b8bd 8ea7 22bd
000000c0: 57c4 dd3c 6d85 0cbd de10 ad3d 1a6b 8dbc
000000d0: a945 88bd 4dd0 493d 8319 c0bb d75b 81bd
000000e0: 43a1 0a3d d79b c4bd cdb3 243b 0f9e 873b
000000f0: 694a 6d3d f0d9 a23d 87d9 aebd e589 abba
00000100: 11ce 28bd 7d2a 92bd b7df 80bd 3f6b 503d
00000110: bdab 22bd eb7e 92bd 9e46 46bd 6d93 44bc
00000120: 9d9a 28bc 7068 543d 0132 da3c 8843 04bd
00000130: dbb1 233d ef13 613d 318f b7bc 9afe d7bc
00000140: 80d9 a2bd e1cd b23c b597 1a3d 37c4 b93c
00000150: 857d b2bd b0b5 b7b8 a694 e1bd a91f ddbc
00000160: 17ad 78bd 7f53 acbd 4f0f fabd ce2a 47bd
00000170: 742d 573c fdee 80bd 6d68 7fbc 11e5 7c3d
00000180: 469b 1dbc 7045 74bd 375b 93bd f76e bdbd
00000190: a687 7fbd 03ce f03c a406 bdbd ee33 90bd
000001a0: cfac 073d f552 c9bd e330 ab3d 0e61 e2bd
000001b0: 38ba 65bd 5dd9 66bc 0c04 ed3a 5c29 213d
000001c0: 6646 b9bd 7313 453d 4f0e 9abd 6217 4fbd
000001d0: 4d45 7d3d b2f6 ddbd 8348 d9bc 7e91 623d
000001e0: fd44 a1bc 14ec bebc ad93 0d3e 3dde 9d3b
000001f0: 1841 40bd fc73 b4bb aa2a 2ebc 1cb9 88bd
00000200: 82ba 4aba 03c9 463d 9a04 5ebd b687 283c
00000210: 681b 8a3d e0e0 933c 783d 833d cd59 afbd
00000220: 4e0d 9dbc 10fa 043d bebd 06bc 036d c1bd
00000230: 8125 613d 994c 61bc 125d c8bc 8dfd babc
00000240: 4ab5 29bd 1094 f839 036a ce3c 5b44 2f3d
00000250: d35c 813d b29e 6cbb 608e 003d c4ca 9d3d
00000260: dd8b 1dbd 01a0 f8bc b53f 0dbd 7a30 483d
00000270: f7fb 53bd 501c d5bc 38dd 71bc 6fa6 97bd
00000280: 40db 403c d564 15bd a83f c63c 688e 133d
00000290: bf83 633d ba9a 1fbd e4e5 0abd c94d 133d
000002a0: 1da6 27bd 5b1b c3bd 3638 88bd 3227 9c3d
000002b0: 29fe 0f3d a8b3 abbd 00f2 3fbd 3e4d 28bd
000002c0: 218a 29bd d5d8 81bd 8f2b e73b 72fa 143d
000002d0: 8a46 98bd fa2e a13d 6d27 133c 0e68 7c3d
000002e0: f254 1fbd 8b6f 72bd 5587 97bd fdf5 53bd
000002f0: 9173 00bd fcbf 213d 8bca d83d d749 80bc
00000300: d874 033c 7072 eebd 0a59 b5bd 20fa 603d
00000310: 754f 24bd 92c4 b03d 62d8 a5bd 69aa 92bd
00000320: 775e a9bd e37b 853c b7c3 873d 8aed 503d
00000330: 9076 64bd 7035 34bd 1af9 8e3d 3893 0e3c
00000340: c0a8 6d3d 02a3 44bd ec69 14bd d4ea b5bd
00000350: 8251 2bbd 1513 60bd 48d5 ecbd fa55 ffbc
00000360: 079d 87bd 73c4 94bd 0bce 7abd 63fc 91bd
00000370: d72d 24bd 4208 953c e5eb a4bd 878e 8abb
00000380: 4544 3f3c 5517 4ebd 0670 223d 4bd5 7fbd
00000390: 246a c93d 0963 473d b269 01bd 0442 c3bd
000003a0: 3669 fa3c ef98 edbd e269 dcbd 60a2 fa3c
000003b0: c0ec 9dbc 6328 a33d 20a1 743c eda5 a3bc
000003c0: 5142 403d c1f7 8a3d b83c 51bd d3dc 823d
000003d0: b422 653b 0c06 8fbc 40cb 90bd 941d 5e3d
000003e0: 8925 8d3d 9539 6abd af02 37bd b9b6 cabc
000003f0: 7362 47bc 703e 213d f7b0 2f3d 9008 c63c
-0.0601675 0.04656622 -0.040155515 0.024824133 -0.02410898 -0.11946344 -0.049194336 -0.010228455
-0.04013571 -0.03957823 0.010929109 0.06669219 -0.077102296 -0.16666833 -0.08809648 0.009438489
0.085881665 -0.086529545 -0.047528453 -0.017408466 -0.052825045 -0.05733454 -0.01895825 -0.04919304
0.015616675 -0.035561837 -0.0017804807 -0.015332426 0.068209566 0.0008427601 0.06394051 -0.0011662123
-0.08356093 -0.10894581 0.03020023 0.069039494 -0.03332786 0.07087467 -0.0432928 0.017882371
0.029728271 0.013334927 0.051136512 -0.10520715 -0.006188676 -0.047426846 -0.0899299 -0.039710574
0.027071161 -0.034306932 0.08450483 -0.017262984 -0.066539116 0.049270917 -0.0058624162 -0.06316345
0.033845197 -0.096000366 0.0025131584 0.004138715 0.05793229 0.079517245 -0.08537584 -0.001308736
-0.041212145 -0.0713701 -0.0629267 0.050883528 -0.039714564 -0.07153114 -0.04840719 -0.01199804
-0.010290769 0.05185741 0.026635172 -0.032290965 0.039964538 0.05495065 -0.022407146 -0.02636652
-0.07951641 0.021826686 0.037742335 0.02267657 -0.08715347 -8.759962e-05 -0.110146806 -0.026992636
-0.060711946 -0.08414363 -0.12209951 -0.048624806 0.013133395 -0.062955834 -0.015588862 0.061741892
-0.00961954 -0.059636533 -0.07195132 -0.092496805 -0.062385224 0.029395109 -0.09229782 -0.07041155
0.033123787 -0.09830276 0.08358934 -0.11053668 -0.056085795 -0.014089909 0.0018082871 0.039346084
-0.090466306 0.04811425 -0.075222604 -0.05055941 0.06183367 -0.10838069 -0.026523834 0.055314533
-0.019686216 -0.02330593 0.13825865 0.0048177526 -0.04693708 -0.0055069905 -0.010630289 -0.06675932
-0.00077334803 0.048531543 -0.054203607 0.010286262 0.067435086 0.018051565 0.064082086 -0.0856205
-0.019171383 0.03246504 -0.008223949 -0.094446205 0.054967407 -0.013751172 -0.024458442 -0.02282598
-0.041432656 0.0004741256 0.025197035 0.0427898 0.06316533 -0.0036105332 0.03138578 0.0770469
-0.038463462 -0.030349733 -0.034484584 0.048874356 -0.051753964 -0.026014477 -0.014762215 -0.074047916
0.011771023 -0.036473114 0.024200276 0.03602448 0.055545565 -0.038965918 -0.033910647 0.035962854
-0.040929902 -0.09526702 -0.066513464 0.076246634 0.035154495 -0.08383876 -0.04686165 -0.04108929
-0.041391496 -0.063401856 0.007054753 0.036371656 -0.07435329 0.07870288 0.008981568 0.06162267
-0.03889937 -0.059188407 -0.073988594 -0.051748265 -0.031360213 0.03948973 0.10585507 -0.01566021
0.008023463 -0.11642921 -0.088548735 0.054926038 -0.04011484 0.08631243 -0.08097912 -0.071614094
-0.08269971 0.016294425 0.066291265 0.051007785 -0.055777133 -0.043996274 0.06981106 0.008702092
0.05802226 -0.04800702 -0.036233827 -0.088826805 -0.04182578 -0.054705698 -0.11564118 -0.031168927
-0.066217475 -0.07264032 -0.061231654 -0.07128217 -0.04008278 0.018192414 -0.08052806 -0.0042284164
0.011673992 -0.05031522 0.039657615 -0.06245927 0.09834698 0.04867843 -0.03159494 -0.09534076
0.030567747 -0.116014354 -0.10762383 0.030595005 -0.01927793 0.079666875 0.014930993 -0.01997658
0.046938244 0.067855366 -0.051083297 0.06389775 0.0034963312 -0.017458938 -0.07070017 0.054227427
0.06891925 -0.05718382 -0.044680294 -0.024745332 -0.012169468 0.039366186 0.042893376 0.024174005

regressor.3.bias f4 [128]
00000000: 87f5 82bd ecef 4c3d abe6 4a3d 572e 423d
00000010: c450 3f3d e9f3 563d 52c1 1cbd 8de1 1fbd
00000020: f6ae 413d 6f30 1e3d 0140 273d 977c 433d
00000030: 92d5 4b3d a14e 0ebd e9c3 23bc 5262 2d3d
00000040: bfe7 16bd 207d 453d d129 4cbd b637 91bd
00000050: bf5c 0cbd 299a 8abd 1b16 23bd 6599 423d
00000060: 0ad0 303d f14c 0abd 50b8 423d 8a24 eebc
00000070: 66ce 53bd 1b1a 11bd f308 0cbd bc59 203d
00000080: 6672 413d 5621 2a3d adbd 84bd 5f37 423d
00000090: 5e77 78bd 87f5 433d 53db 4c3d bea5 29bd
000000a0: 029c 89bd fe49 423d 9d8b 4d3d 16ef 0fbd
000000b0: 3075 453d a5b4 403d a708 41bd ddc6 24bd
000000c0: adce 643d 2d1c 32bd 841a 1cbd b803 3dbd
000000d0: fffd cc3c e87a 4b3d d3a1 473d f82c 4f3d
000000e0: 5f60 86bd b744 403d fd35 1bbd b8f4 1dbd
000000f0: 1732 21bd d8ec 473d 13d1 9fbd 5623 3f3d
00000100: a1e3 463d 5e77 21bd d705 0ebd 64c1 4c3d
00000110: 93a1 443d 9fdb 16bd 532e 473d 01b0 453d
00000120: 56fc 323d fe90 39bd 2c97 253d f795 223d
00000130: 7fa0 4d3d 63cd 483d eb62 38bd b25b 8d3c
00000140: 4c29 3d3d 7777 2dbd b8a4 2e3d 21b4 6c3d
00000150: 243a 25bd 7c66 413d a6a8 3abd 381d bb3b
00000160: 0094 11bd 9bb5 1dbd 3c66 5c3d 9222 433d
00000170: 864a 553d eaf1 24bd ddfb 473d 56da 3c3d
00000180: 0676 14bd a29e fabc e4b7 4a3d 3ccf 453d
00000190: c66d 11bd f2b1 2bbd ba86 4a3d ae8b 32bd
000001a0: 0389 28bd 4bcb 83bd 7519 463d 5a78 423d
000001b0: 0cf0 423d ef26 433d ab75 3f3d c9b6 64bd
000001c0: 7112 26bd ea89 443d 7887 4a3d 92fe 90ba
000001d0: d4fb 18bd d99b 15bd d3b6 283d 4dcf 563d
000001e0: 6809 91bd fbae 1fbd e6e3 3abd 5496 3c3d
000001f0: 1ea0 2dbd c763 463d 6cf8 423d 10b1 483d
-0.06394487 0.050033495 0.04953639 0.047407474 0.046707883 0.052478705 -0.038270302 -0.03903346
0.047285996 0.03862041 0.040832523 0.04772624 0.049764223 -0.034742955 -0.009995439 0.042330094
-0.036842104 0.04821503 -0.049844567 -0.07090704 -0.034268137 -0.06767685 -0.039816003 0.04750957
0.04316715 -0.033764783 0.047539055 -0.029070158 -0.05171051 -0.035425287 -0.034188222 0.039148077
0.04722824 0.041535698 -0.0648149 0.047416087 -0.060660712 0.047841575 0.05001385 -0.04141783
-0.06719209 0.047433846 0.050181974 -0.03514012 0.04820746 0.047047276 -0.047127392 -0.040228713
0.055861164 -0.0434839 -0.038111225 -0.046146125 0.025023459 0.04967776 0.048738312 0.050579995
-0.0656135 0.04694053 -0.037893284 -0.03856346 -0.03935441 0.048809856 -0.078035496 0.04666456
0.048556928 -0.039420478 -0.034673538 0.04998912 0.04800565 -0.03683054 0.048628163 0.048263554
0.043697678 -0.04530429 0.04042737 0.0396938 0.05020189 0.049023997 -0.04501621 0.017255638
0.046181962 -0.04235026 0.042637557 0.05778897 -0.04033865 0.047216877 -0.045570992 0.0057102703
-0.035541534 -0.03850327 0.053808436 0.04764039 0.052073024 -0.04026977 0.04882418 0.04610666
-0.03624537 -0.03059322 0.049491778 0.048293337 -0.03550508 -0.04191775 0.04944489 -0.04359024
-0.04114629 -0.064352594 0.04836412 0.047478057 0.047592208 0.04764455 0.046743076 -0.05583838
-0.04054493 0.047983088 0.0494456 -0.0011062196 -0.037349537 -0.03652558 0.04118998 0.05244379
-0.07081872 -0.038985234 -0.045627497 0.0460418 -0.042389028 0.048435 0.047600195 0.048996985

regressor.5.weight f4 [1, 128]
00000000: 11f2 97bd 8550 af3d 6320 c33d 56b4 513e
00000010: a405 203e 78f5 8e3d b322 80be 1c54 febd
00000020: ad85 7a3e f2cf cd3d f155 b83d 7fde 403e
00000030: f180 c63d f73f d4bd c999 a8be 787d a43d
00000040: 2406 5bbe 8758 833e a737 6cbe da34 eabc
00000050: 7e62 67be f69e 9ebe bccf 17be 0f57 213e
00000060: fc63 3c3e e92a 79be 3e45 383e 62ed 9fbe
00000070: b51c 5fbe 8f58 60be 9f77 89be 5dd4 f53d
00000080: 4911 5e3e 608f 333e 104b c8bd 1f04 383e
00000090: 9785 bcbe 186b 303e 4e10 003e de4d 44be
000000a0: d1f5 87be e349 163e 321b fd3d f789 89be
000000b0: 856f 3a3e 9492 1f3e 2060 38be 9eb6 3ebe
000000c0: c2c0 8a3d 8782 5abe ef25 1ebe 418d 1ebe
000000d0: 609b 08bf bbc3 d93d 61d1 f33d 82fa e53d
000000e0: d38d 89be 8ac3 823e 65c7 77be d600 9fbe
000000f0: 4478 80be 8a3e 533e 4d97 61be f793 543e
00000100: 0be2 663e 03e6 1ebe 2827 82be f918 ca3d
00000110: 8a2a 173e 9c24 58be b031 1a3e 8cab 1e3e
00000120: 3bd3 8e3d 7a7d 0bbe 6475 593e a918 8e3d
00000130: a040 e23d 756c 0c3e c833 0ebe 9370 02bf
00000140: 0e3d 853e 95f5 1fbe 8b65 133e 2c88 643d
00000150: fc25 13be 81a5 ea3d 2d38 49be 8bb7 fabe
00000160: 400f 5abe 3c07 6cbe c8f6 a13d b14c cb3d
00000170: d168 263e 26e9 fbbd 8738 433e c2d0 ab3d
00000180: 253c 02be 9371 80be fbd7 b03d ffc9 253e
00000190: c76f 87be a5f2 5abe c782 ee3d e571 20be
000001a0: 5bd1 5cbe 5f58 cebd 47df 613e 2abb 113e
000001b0: 894f 793e 8636 053e 4e36 863e d2f2 cabd
000001c0: d97b 5ebe ad2a 1e3e 5c93 fb3d 6b99 e7be
000001d0: 8218 f6bd e02e 26be c529 9f3d 266f e23d
000001e0: 2c82 d5bc 1e36 6dbe cbbd c3bd bdca 793e
000001f0: fe61 eabd e337 833e 699d 4e3e c1bb 183e
-0.074192174 0.0856028 0.09527662 0.20478949 0.15627152 0.06980413 -0.25026473 -0.12418386
0.24465056 0.10049428 0.09000767 0.18834876 0.09692562 -0.10363763 -0.3292983 0.08031744
-0.21389061 0.25653479 -0.23068105 -0.028589655 -0.22596166 -0.30980653 -0.14825338 0.15755866
0.18397516 -0.24332775 0.17995164 -0.31235796 -0.21788295 -0.21908782 -0.26849076 0.12003396
0.21686281 0.17535162 -0.09779942 0.17970322 -0.3682067 0.17228353 0.1250622 -0.19170329
-0.2655473 0.14676623 0.12358703 -0.2686307 0.18206604 0.15583259 -0.18005419 -0.1862435
0.06775047 -0.21338855 -0.15444158 -0.15483572 -0.53362083 0.10633036 0.1190517 0.11229421
-0.26866016 0.2553981 -0.24197157 -0.31055325 -0.25091755 0.20629326 -0.22030373 0.20759569
0.22547166 -0.1551743 -0.254205 0.098680444 0.14762321 -0.21107715 0.15058017 0.15495127
0.06973883 -0.13622084 0.21236187 0.06938297 0.110474825 0.13713248 -0.1388694 -0.50953025
0.26023144 -0.15621026 0.14394204 0.055793926 -0.14369959 0.114573486 -0.19650336 -0.48968157
-0.2129488 -0.23049635 0.07908398 0.09926737 0.16250922 -0.12300329 0.19064532 0.08389427
-0.12718256 -0.2508665 0.08634945 0.16190337 -0.26452467 -0.21381624 0.116460375 -0.15668447
-0.21564238 -0.10075449 0.2205783 0.14231554 0.24346747 0.1300908 0.26213306 -0.099095955
-0.21726932 0.15445967 0.12283966 -0.45234236 -0.12016393 -0.16228819 0.07771639 0.11056356
-0.026063047 -0.23165175 -0.095576845 0.24393745 -0.11444472 0.25628576 0.20177235 0.14915372
