src/simple-FT_ver1.00/data/experiments/fecu_to_fefe_finetune_target64_20260116_173319/models/finetuned_model.pth (torch, 235205 bytes, 9 tensors)

encoder.0.weight f4 [256, 2]
0	0x3e1a6de7	0.15080987
1	0x3dc42093	0.095765255
2	0xbdb9cbeb	-0.090720974
3	0xbe108e55	-0.14116795
4	0x3d940905	0.07228283
5	0xbe046c05	-0.12931831
6	0x3d35aa41	0.04435182
7	0xbd2ff4d3	-0.042958092
8	0x3cb8237e	0.022477861
9	0xbd85d03d	-0.06533859
10	0x3e1ad2e5	0.15119512
11	0x3e374d1f	0.17900513
12	0xbe8e754a	-0.2782386
13	0x3d5e84f8	0.054326028
14	0xbde1b1cb	-0.110202394
15	0xbdd16446	-0.10224204
16	0x3dd65422	0.10465266
17	0xbd6780b0	-0.05651921
18	0xbdd4c8d1	-0.10389865
19	0xbd987058	-0.07443303
20	0x3e32dfca	0.17468181
21	0xbe296ce8	-0.1654545
22	0xbd458506	-0.048222564
23	0xbd956734	-0.07295075
24	0x3d978136	0.07397692
25	0x3d919463	0.07108381
26	0xbe5afa66	-0.21384582
27	0xbd35d72f	-0.04439467
28	0x3c9ef700	0.019404888
29	0xbdb18377	-0.08667653
30	0xbd880f03	-0.06643488
31	0x3bdf197c	0.006808458
32	0x3e678a94	0.22611457
33	0x3e5bf3f7	0.21479784
34	0xbdfdc320	-0.12390733
35	0xbd32c4b1	-0.04364461
36	0xbd29f96c	-0.041497633
37	0xbdc67488	-0.09690195
38	0x3e0139f5	0.12619765
39	0x3d41abad	0.047282863
40	0xbb0004ba	-0.0019534067
41	0x3da32941	0.07966853
42	0xbc74f26e	-0.014950378
43	0x3d77a3d1	0.060458962
44	0x3de5e641	0.11225558
45	0xbe22190c	-0.15829867
46	0xbccaecd2	-0.024771128
47	0x3d783dd4	0.06060584
48	0xbe1c6644	-0.15273386
49	0xbd7edb73	-0.062221
50	0x3da68cfa	0.08132358
51	0x3be1c1c9	0.006889556
52	0xbe3ac62e	-0.18239662
53	0x3d45ab31	0.048258964
54	0x3e0ad2dc	0.13556999
55	0x3d4a6b7c	0.04941891
56	0xbdf98b3d	-0.12184761
57	0xbdece693	-0.11567416
58	0xbd9eff93	-0.07763591
59	0xbcdc5d66	-0.026900005
60	0x3e1ec7f8	0.1550597
61	0xbc00064f	-0.007814004
62	0x3cbbda83	0.022931343
63	0x3d260140	0.040528536
64	0xbe29d8ec	-0.16586655
65	0xbc9fcd86	-0.01950718
66	0x3ddbb5c8	0.107280314
67	0xbd8c1f06	-0.06841855
68	0xba2ea059	-0.0006661467
69	0xbd291172	-0.041276403
70	0xbe145d46	-0.14488706
71	0xbdf5bb3b	-0.11998602
72	0x3c9cb5fb	0.019129744
73	0xbe0eebbf	-0.13957117
74	0x3e4c31b2	0.19940832
75	0x3dfaa1a9	0.122378655
76	0x3e2e4b73	0.17020969
77	0xbdd68a49	-0.104755946
78	0x3deda666	0.116040036
79	0xbe2e6013	-0.17028837
80	0x3d9ba769	0.0760029
81	0x3d8fe7dd	0.07026646
82	0x3d001b29	0.031275902
83	0xbd93be0b	-0.07213982
84	0xbd14c0af	-0.03631657
85	0xbd46951c	-0.048482046
86	0x3e2733fe	0.16328427
87	0x3d8ed213	0.06973662
88	0xbcd09c42	-0.025465135
89	0xbd017c75	-0.031612832
90	0xbd940e4f	-0.07229292
91	0xba501513	-0.00079377106
92	0x3e657fc4	0.2241202
93	0x3e21beca	0.15795437
94	0x3e1089ed	0.14115115
95	0xbddf1377	-0.108923845
96	0x3d8228de	0.06355451
97	0x3d9aca91	0.07558168
98	0x3e50ad82	0.20378688
99	0x3dc2784c	0.09495601
100	0x3e1229c0	0.14273739
101	0xbe117ad7	-0.14207016
102	0xbe9f5f3a	-0.3112734
103	0xbd2241df	-0.0396136
104	0x3deedead	0.11663566
105	0x3dd5c192	0.10437311
106	0xbe5e11ec	-0.21686524
107	0x3d870889	0.06593425
108	0xbe45bd8a	-0.19310585
109	0x3e0f7bf5	0.1401213
110	0xbe00dcba	-0.125842
111	0x3d96fb54	0.07372156
112	0x3dcf0f6c	0.10110363
113	0x3de1c931	0.11024702
114	0x3dc2652c	0.09491953
115	0xbdc18000	-0.09448242
116	0xbdedb321	-0.11606432
117	0xbdffe34f	-0.124945275
118	0x3c6725a9	0.0141081
119	0xbcfa4707	-0.030551447
120	0x3d59ac05	0.053142566
121	0xbe1b9af6	-0.15195832
122	0xbe0cfb09	-0.13767637
123	0xbc846f23	-0.016166275
124	0xbdca5288	-0.09879023
125	0xbd122662	-0.035681136
126	0xbe28bece	-0.16479036
127	0xbe1b3ddf	-0.1516032
128	0xbe0c4f7f	-0.137022
129	0xbd95cc8d	-0.073144056
130	0x3cffbc64	0.031217761
131	0xbdceca19	-0.10097141
132	0xbe199c69	-0.15001072
133	0xbc9b5b3c	-0.018964402
134	0x3e7f5077	0.24933039
135	0x3e288b78	0.16459453
136	0xbdbdb938	-0.09263843
137	0xbe01bcbc	-0.12669653
138	0x3d3abb51	0.045588795
139	0xbe129cd5	-0.14317639
140	0xbe858933	-0.26081237
141	0xbd2a9bac	-0.041652367
142	0x3d8aa56a	0.067698315
143	0xbda45fc6	-0.0802608
144	0x3cd985ca	0.026553053
145	0x3c74beeb	0.0149380965
146	0xbdab2731	-0.083570845
147	0x3b14375b	0.0022616002
148	0x3dcdcfa0	0.10049367
149	0xbdd12942	-0.102129474
150	0xbd545549	-0.051839147
151	0xbdfd3478	-0.12363523
152	0xbdad0426	-0.08448057
153	0xbe1e54d1	-0.15462042
154	0xbde982da	-0.11401911
155	0xbdd4df2a	-0.10394128
156	0x3ce0221c	0.027360015
157	0x3c80e4de	0.015734132
158	0x3d2f739e	0.04283487
159	0x3dc415e0	0.09574485
160	0x3bad76a6	0.005293685
161	0xbc8412ef	-0.01612231
162	0x3a3977de	0.00070750515
163	0xbdaa1f54	-0.083067566
164	0xbc28e2c3	-0.01030797
165	0x3d08bb59	0.033381794
166	0x3e662ee8	0.22478831
167	0x3e3aa616	0.1822742
168	0xbe91c1ad	-0.28468075
169	0xbd63b3fa	-0.05559156
170	0x3e280f31	0.16412045
171	0xbc8e3396	-0.017358582
172	0xbea3f968	-0.3202622
173	0x3ca1a86d	0.019733632
174	0xbc8e44fb	-0.017366877
175	0xbd9d28f1	-0.076738246
176	0xbe6447a2	-0.22292951
177	0x3d9080c3	0.07055809
178	0x3de00ff7	0.10940545
179	0xbc956e9e	-0.018241223
180	0x3e09c17f	0.13452719
181	0x3d74bfcc	0.059753224
182	0xbe2e48c4	-0.17019945
183	0xbdabee86	-0.08395104
184	0xbcf95f66	-0.030440997
185	0x3cc92c32	0.024557207
186	0xbe355b12	-0.17710522
187	0x3cbfb9fa	0.02340411
188	0xbd68dfe5	-0.056854147
189	0xbd91cbe4	-0.07118967
190	0x3d68c655	0.05682977
191	0xba1d9225	-0.0006010852
192	0x3ba579a5	0.0050499015
193	0xbd9ce910	-0.07661641
194	0x3db652f0	0.08902538
195	0x3d85e1ce	0.065372095
196	0xbc38f11a	-0.011287952
197	0xbc2c1aa3	-0.010504398
198	0x3e28ddc1	0.16490842
199	0xbd3ed506	-0.046589874
200	0xbd27dc70	-0.04098171
201	0xbda5297f	-0.080645554
202	0x3dfad59b	0.12247773
203	0xbdcc17c8	-0.099654734
204	0x3dc98703	0.098402046
205	0xbd70b9a5	-0.058770794
206	0x3dc797d1	0.097457536
207	0x3d7d313f	0.061814543
208	0x3da73cf3	0.08165922
209	0xbc72e29b	-0.014824535
210	0xbcd8b3d9	-0.026452946
211	0x3d0c2407	0.034214046
212	0xbe187a2e	-0.14890358
213	0x3c9deb8a	0.019277353
214	0xbc59bba3	-0.013289365
215	0xbb3b351a	-0.0028565587
216	0x3e298638	0.16555107
217	0xbe0ca9a0	-0.13736582
218	0x3e2c3ebc	0.16820806
219	0x3db77998	0.08958739
220	0xbe2a695c	-0.16641754
221	0x3d8c50ca	0.06851347
222	0xbc0f0031	-0.008728073
223	0xbdfd5473	-0.12369623
224	0xbe281c78	-0.1641711
225	0xbd1048cf	-0.035225686
226	0xbe429c2b	-0.19004886
227	0xbbc5d798	-0.0060376637
228	0x3ddc5f7a	0.10760398
229	0xbddf7e88	-0.10912806
230	0x3deb5c85	0.11492256
231	0x3ce29620	0.027659476
232	0x3e4e3067	0.20135652
233	0x3e17d0c2	0.14825729
234	0xbe0e0888	-0.13870442
235	0xbdc44c47	-0.09584861
236	0xbeb1d64c	-0.34733808
237	0xbe198de5	-0.14995535
238	0x3d3ef548	0.046620637
239	0x3dbbc364	0.09168127
240	0x3e25463f	0.16140078
241	0x3d1f8d1c	0.03895293
242	0xbdab644a	-0.08368738
243	0x3b2cb34a	0.0026351982
244	0x3dd702f3	0.104986094
245	0x3dea816d	0.11450467
246	0x3dff6282	0.12469961
247	0xbe012196	-0.12610468
248	0xbd23b2c8	-0.03996542
249	0xbc88f923	-0.01672036
250	0x3d121771	0.035666887
251	0xbe193b84	-0.1496411
252	0x3e15b261	0.14618827
253	0x3dfaa540	0.1223855
254	0x3e158ae7	0.14603768
255	0x3ca00153	0.019531881

encoder.0.bias f4 [256]
0	0xbe04b4f8	-0.12959659
1	0x3db900cc	0.09033355
2	0x3db78815	0.089615025
3	0x3dd23402	0.10263826
4	0x3dc57451	0.09641326
5	0xbe0b9b63	-0.13633494
6	0xbe190db7	-0.14946638
7	0x3dabc3e8	0.083869755
8	0x3de7bdea	0.1131552
9	0x3d8aab8c	0.06771001
10	0x3dfc8152	0.123293534
11	0x3d70510f	0.058671053
12	0x3e139f50	0.14416242
13	0xbe1f0221	-0.15528156
14	0x3da53966	0.080675885
15	0xbe029f51	-0.12756087
16	0xbe033c0c	-0.12815875
17	0x3d58bb62	0.052913077
18	0x3da28878	0.079361856
19	0x3e1a517d	0.15070148
20	0xbdf55b67	-0.11980324
21	0xbdf9cc7c	-0.121972054
22	0x3dd41b2d	0.10356746
23	0xbdfda90d	-0.123857595
24	0xbe10ede5	-0.1415325
25	0xbdfac45c	-0.12244484
26	0xbdedfb54	-0.11620203
27	0xbdea76e9	-0.114484616
28	0x3d9ad373	0.07559862
29	0xbde64330	-0.11243284
30	0x3e1bef82	0.15228084
31	0xbdff8498	-0.12476462
32	0x3db002c3	0.08594277
33	0x3dd79c41	0.1052785
34	0xbdee7900	-0.11644173
35	0x3d948bd0	0.072532296
36	0x3dc75b85	0.09734253
37	0xbdedde3a	-0.11614652
38	0x3df9c71e	0.12196182
39	0x3dd7cd6d	0.10537229
40	0x3e183583	0.14864163
41	0x3dc66acb	0.09688338
42	0x3ddabef1	0.106809504
43	0xbdfb1acc	-0.122609705
44	0x3dd0a19e	0.10187076
45	0xbdf22e56	-0.11825244
46	0xbe0d6755	-0.1380895
47	0x3df3b5c4	0.118999034
48	0xbdafafe6	-0.08578472
49	0xbdde794c	-0.10862979
50	0x3df38152	0.118899
51	0xbe2f12f0	-0.17097068
52	0xbe04ce5c	-0.12969345
53	0xbe1101ec	-0.1416089
54	0x3df0ade1	0.11751915
55	0xbe0161c7	-0.12634955
56	0xbe0bc0d3	-0.13647775
57	0x3d823fc4	0.063598186
58	0x3d7a9a10	0.06118208
59	0x3de6eca5	0.11275605
60	0x3ddd880b	0.10816964
61	0x3da4e6bb	0.08051821
62	0x3d9c13db	0.07620975
63	0x3d5b05a8	0.05347219
64	0x3da2c97b	0.079485856
65	0x3dcab975	0.09898654
66	0x3db3c4fa	0.08777805
67	0xbdfc8f02	-0.12331964
68	0x3cc21fa6	0.023696732
69	0x3dea9681	0.114544876
70	0xbe2b27ab	-0.16714351
71	0x3dcf1d08	0.10112959
72	0x3dde69e5	0.108600415
73	0xbdf5a451	-0.119942315
74	0x3ddea9a7	0.10872202
75	0x3d0a7627	0.033804085
76	0x3dacbade	0.084340796
77	0x3db49987	0.088183455
78	0x3dcb2e69	0.099209614
79	0xbdd22d4e	-0.102625474
80	0xbded7cc7	-0.11596065
81	0xbde22088	-0.11041361
82	0xbdf8ac95	-0.121422924
83	0xbdf2d420	-0.11856866
84	0xbe3c4665	-0.18386228
85	0x3e1744b0	0.14772296
86	0xbe2e5a16	-0.17026553
87	0x3d977c17	0.07396715
88	0xbdf7264a	-0.1206785
89	0xbe0dc36f	-0.13844083
90	0xbdbb4e42	-0.09145786
91	0x3d3c9f32	0.046050258
92	0x3ddfb0a2	0.10922362
93	0xbe0a65cc	-0.13515395
94	0x3dcd8b3d	0.10036323
95	0x3de07e9c	0.10961649
96	0x3ddca8ac	0.10774359
97	0xbe03867c	-0.1284427
98	0xbdf4746e	-0.1193627
99	0x3e0f3057	0.13983284
100	0x3db8b62f	0.09019124
101	0x3de186c0	0.1101203
102	0x3df18ac2	0.11794044
103	0x3e2479e4	0.16062123
104	0xbe085b7c	-0.13316149
105	0x3dd82876	0.10554592
106	0xbe051d82	-0.12999538
107	0xbdf59dfc	-0.11993024
108	0x3dc607ca	0.096694544
109	0xbde4d6f3	-0.11173811
110	0xbdf54380	-0.11975765
111	0x3dcabb93	0.09899058
112	0xbe067d42	-0.1313372
113	0x3d6d60a6	0.0579535
114	0x3d8dcb87	0.069235854
115	0x3e0fb271	0.14032914
116	0xbdf52b09	-0.11971099
117	0xbe0f2681	-0.13979532
118	0xbe4057ff	-0.18783568
119	0xbdf1e39c	-0.11810991
120	0x3e29b261	0.16571952
121	0xbde6f728	-0.1127761
122	0xbe00f5fd	-0.12593837
123	0x3df6462b	0.12025102
124	0x3dcad083	0.09903052
125	0x3ddde221	0.10834146
126	0xbe0288ca	-0.12747493
127	0x3e102a02	0.14078525
128	0x3e0e2dc9	0.13884653
129	0x3ddfcb3f	0.10927438
130	0xbe0047fd	-0.12527461
131	0x3dda740d	0.10666666
132	0xbe22bcf8	-0.15892398
133	0xbdf5c916	-0.12001245
134	0x3d978e72	0.07400216
135	0xbdea7206	-0.114475295
136	0x3defd5c6	0.11710696
137	0x3e008ba5	0.1255327
138	0x3d8845ab	0.06653913
139	0xbe00ddcc	-0.12584609
140	0x3df860c3	0.12127831
141	0x3ddc7100	0.107637405
142	0x3dde5d9a	0.10857697
143	0x3e0256f8	0.12728488
144	0x3db45613	0.0880548
145	0xbde96edd	-0.113980986
146	0xbe056adc	-0.13029045
147	0x3da9ec76	0.082970545
148	0xbe0216c5	-0.12703998
149	0x3ddfe872	0.10933007
150	0x3dda7811	0.10667432
151	0xbe017b7b	-0.1264476
152	0x3dce58da	0.10075541
153	0x3dfac722	0.12245013
154	0x3dd5e0e7	0.10443287
155	0x3dd05a69	0.10173494
156	0xbe019a16	-0.12656435
157	0x3de930d3	0.113862656
158	0xbdf450e6	-0.11929493
159	0x3e053a35	0.13010485
160	0x3cc21f51	0.023696573
161	0x3dd9045f	0.10596537
162	0xbe076bd8	-0.13224733
163	0xbe046945	-0.12930782
164	0x3dc5ef42	0.096647754
165	0xbdfe1744	-0.12406781
166	0x3da79f21	0.08184648
167	0xbe0f16ad	-0.13973494
168	0xbe05c738	-0.13064277
169	0x3db8123e	0.089878544
170	0x3dd816c3	0.105512165
171	0xbe038a80	-0.12845802
172	0xbdec99d6	-0.115527794
173	0xbe13f273	-0.14447956
174	0x3de23b10	0.110464215
175	0xbdf99b5d	-0.12187836
176	0xbe049a0d	-0.1294939
177	0xbdf9e94d	-0.12202702
178	0x3e106fdd	0.14105172
179	0x3d8ba767	0.06819039
180	0x3de86e67	0.113491826
181	0x3dd6d9d8	0.10490769
182	0x3ddf3b5e	0.10899995
183	0x3dde36cd	0.10850296
184	0x3dc2cb46	0.095114276
185	0x3dce7d60	0.10082507
186	0x3d820eb9	0.063504644
187	0x3d9e52a6	0.07730608
188	0x3dbf90d6	0.09353797
189	0x3dd4962f	0.10380208
190	0x3ddf0a0f	0.108905904
191	0x3e1eba62	0.15500787
192	0x3ddb0b13	0.106954716
193	0xbe2ad891	-0.16684176
194	0xbdf00a4b	-0.11720713
195	0xbde77225	-0.11301068
196	0x3dc16666	0.09443359
197	0x3e1e8759	0.15481319
198	0x3e0c0851	0.13675047
199	0xbdfce9cd	-0.123492815
200	0x3dea5bee	0.114433154
201	0xbde7cf35	-0.113188185
202	0xbe256245	-0.16150768
203	0x3e0a27fe	0.13491818
204	0x3dc1554f	0.094400994
205	0x3dd28adf	0.10280394
206	0x3de70d25	0.11281804
207	0x3de395ef	0.11112582
208	0x3dda0e5a	0.106472686
209	0x3e0a5534	0.13509065
210	0xbdf0d6da	-0.1175973
211	0x3db9aaf9	0.090658136
212	0x3db7d098	0.08975333
213	0xbdf9adb1	-0.12191332
214	0xbdec86ad	-0.11549125
215	0x3dc2e42d	0.09516177
216	0x3dc4a06d	0.09600911
217	0xbd9154ed	-0.070962764
218	0x3dcd3fbc	0.10021922
219	0x3dd3b6ac	0.10337576
220	0xbdf87cba	-0.12133165
221	0x3dc37dc2	0.09545471
222	0x3de1105a	0.10989447
223	0x3dee9cad	0.11650977
224	0x3d5c8175	0.053834397
225	0xbde65c36	-0.112480566
226	0x3dc81772	0.09770097
227	0x3db82851	0.08992065
228	0x3dc7bd06	0.0975285
229	0x3db96c59	0.09053869
230	0x3dc874c5	0.09787897
231	0x3df57887	0.119858794
232	0x3df4f819	0.119613834
233	0x3dd505bf	0.104014866
234	0xbdf8459f	-0.12122654
235	0xbde6d47e	-0.112709984
236	0xbdf8ac72	-0.12142266
237	0x3dceeb29	0.10103447
238	0xbe064e26	-0.13115749
239	0x3dc941e5	0.098270215
240	0x3ddfcb00	0.10927391
241	0x3d922a89	0.07137019
242	0x3db67723	0.08909442
243	0x3de3348f	0.11094009
244	0xbe026517	-0.12733875
245	0xbdfe07e5	-0.124038495
246	0x3e263e9a	0.16234818
247	0xbe035ed3	-0.12829141
248	0x3db75460	0.0895164
249	0xbdf34579	-0.11878485
250	0xbdd3788d	-0.103257276
251	0xbe0e1169	-0.13873829
252	0x3e02d299	0.12775649
253	0xbdf82a71	-0.1211747
254	0x3de61ff7	0.112365656
255	0x3de4e0c3	0.111756824

encoder.3.weight f4 [64, 256]
0	0x3e057a59	0.13034953
1	0xbdd5b845	-0.10435537
2	0xbd158348	-0.036502153
3	0x3e1b99d6	0.15195403
4	0xbd9e3f25	-0.077268876
5	0x3dcc4a25	0.099750794
6	0xbe86f292	-0.2635694
7	0x3db7e3b2	0.08978976
8	0x3e175777	0.14779459
9	0x3a7f78ba	0.00097454677
10	0x3cca79b4	0.024716236
11	0xbcd27193	-0.025688922
12	0x3e8806ad	0.26567593
13	0xbeaf2d9d	-0.34214488
14	0x3e0f80fd	0.14014049
15	0xbe148498	-0.14503706
16	0xbdc1099c	-0.09425661
17	0xbdf08faa	-0.11746152
18	0xbdccae79	-0.099942155
19	0x3e68db1c	0.22739834
20	0xbde16fad	-0.110076286
21	0x3bca4b17	0.006173502
22	0x3d56d74c	0.052451417
23	0x3cb2b132	0.021813009
24	0xbe2c47d2	-0.16824272
25	0xbdce53d8	-0.10074586
26	0xbeb0161c	-0.34391868
27	0x3dbd58d0	0.09245455
28	0xbd9427b2	-0.07234134
29	0xbe8a1213	-0.26966915
30	0x3de531f7	0.11191171
31	0xbe337043	-0.17523293
32	0xbde92ba6	-0.113852784
33	0x3e007587	0.12544833
34	0x3d2b1810	0.041770995
35	0xbbdfd3de	-0.0068306765
36	0x3cfcc2ec	0.030854665
37	0xbc0fe969	-0.008783677
38	0x3db994c3	0.09061577
39	0x3e2e2b47	0.17008696
40	0x3e83582f	0.25653216
41	0x3de23846	0.110458896
42	0x3e021052	0.12701538
43	0x3e085f85	0.13317688
44	0x3cbf7648	0.02337183
45	0xbe52fe70	-0.20604873
46	0x3da78771	0.0818013
47	0x3e202042	0.15637305
48	0xbbff3672	-0.007788473
49	0xbcea490c	-0.028599285
50	0x3e2b7051	0.16742064
51	0xbeaedc8a	-0.34152633
52	0x3da318a5	0.07963685
53	0xbec56ce9	-0.38559654
54	0xbd365436	-0.044513904
55	0xbe817ee2	-0.25292116
56	0x3d133225	0.035936493
57	0x3bed0f6f	0.007234506
58	0xbd6721bb	-0.056428652
59	0x3e160769	0.14651264
60	0x3db49225	0.08816937
61	0xbcd4e5f2	-0.025988553
62	0x3d298936	0.04139062
63	0xbcbaaeb6	-0.022788387
64	0x3d5e874e	0.054328255
65	0x3d1275f6	0.035757028
66	0x3d63c32a	0.055606045
67	0x3daa2d1e	0.08309387
68	0xbd8e87e9	-0.069595166
69	0x3e332053	0.174928
70	0xbe847d9e	-0.25877088
71	0x3e3a7e02	0.1821213
72	0xbd817b21	-0.06322313
73	0xbe8ef86d	-0.2792391
74	0x3e1f5a84	0.15561873
75	0x3cccd3a3	0.02500326
76	0xbd7366bd	-0.05942415
77	0xbd799655	-0.060934383
78	0x3de40776	0.111342356
79	0x3deeb632	0.11655845
80	0xbc77e963	-0.015131327
81	0x3d71831e	0.058962934
82	0x3d5cde5b	0.053922992
83	0x3d339373	0.04384179
84	0xbe8758d7	-0.26434967
85	0x3e2df23e	0.1698694
86	0xbec2dce9	-0.38059166
87	0x3d4ff3fb	0.050769787
88	0xbe833307	-0.25624868
89	0xbd54b612	-0.05193145
90	0xbc9aa30a	-0.018876571
91	0xbe03997a	-0.12851515
92	0x3b1db699	0.0024065136
93	0xbe3c63f5	-0.18397506
94	0x3dc2ef9b	0.09518357
95	0x3cef0eaf	0.029181806
96	0x3d5cd0ca	0.053910054
97	0xbd6c2e5a	-0.05766139
98	0xbe4935ce	-0.19649431
99	0x3e8a10a3	0.26965818
100	0x3dce58ae	0.10075508
101	0x3e7c8c5e	0.24662921
102	0x3e82c0f7	0.25537845
103	0x3e0ab69b	0.13546221
104	0x3c6c07db	0.01440617
105	0x3d4adf5a	0.04952941
106	0xbec9dc69	-0.39425972
107	0x3d1fccf7	0.03901383
108	0x3d1bd215	0.038042147
109	0x3bfc58b3	0.0077010035
110	0xbe96adcf	-0.2942948
111	0x3d79fa84	0.061029926
112	0xbe232b1e	-0.15934417
113	0xbd5a48f2	-0.053292222
114	0x3d266ac8	0.04062918
115	0x3e9a1224	0.30091965
116	0xbdf5613a	-0.11981435
117	0xbe89c3c6	-0.26907176
118	0xbea64aaf	-0.32478854
119	0x3b666018	0.0035152491
120	0x3e98b726	0.2982723
121	0xbd999101	-0.074983604
122	0xbd8d3ac0	-0.06895971
123	0x3d94374c	0.072371095
124	0x3d3c0b28	0.045909077
125	0xbd4a1cda	-0.04934392
126	0xbde1fd77	-0.11034673
127	0x3e9c58df	0.30536553
128	0x3e6ddde6	0.23229179
129	0xbdaa694e	-0.083208665
130	0xbe2380c8	-0.15967095
131	0x3db90caa	0.090356186
132	0xbe9caa85	-0.30598846
133	0xbd9c133a	-0.07620855
134	0x3dabbeb0	0.0838598
135	0xbe4cd3e5	-0.20002706
136	0x3e83bc75	0.2572972
137	0x3e2e6f5a	0.17034665
138	0xbd16512b	-0.0366985
139	0xbe0fcf4e	-0.14043924
140	0x3e169516	0.1470531
141	0x3d549eff	0.051909443
142	0x3cd36116	0.02580313
143	0x3e2163da	0.15760747
144	0x3dcb8699	0.09937782
145	0x3d5abb34	0.053401187
146	0xbe430bda	-0.1904749
147	0x3d63a872	0.055580564
148	0xbdeebc7e	-0.11657046
149	0x3cd7209a	0.026260663
150	0x3e052b82	0.13004878
151	0xbd9e0a7f	-0.07716846
152	0xbde018b5	-0.109422125
153	0x3e867719	0.2626274
154	0x3d265999	0.04061279
155	0x3e2121d8	0.15735567
156	0x3dc772c9	0.097386904
157	0x3d086435	0.03329869
158	0xbecb6dd0	-0.39732218
159	0x3e11c362	0.14234689
160	0xbdd67981	-0.10472394
161	0x3dbfdde3	0.093684934
162	0xbe49b896	-0.1969932
163	0x3df31d8e	0.118708715
164	0xbdbe40f4	-0.092897326
165	0x3cb735c9	0.022364514
166	0xbd503b85	-0.050838012
167	0xbecaa4a2	-0.3957873
168	0xbe2e3b00	-0.17014694
169	0x3e811a87	0.2521555
170	0xbcffeb69	-0.031240182
171	0x3dc975f7	0.09836953
172	0xbe5cefd8	-0.21575868
173	0xbe6e4bb5	-0.23271067
174	0x3d81f715	0.06345955
175	0xbe6faef4	-0.23406583
176	0xbed044f8	-0.4067762
177	0xbe0ac7ab	-0.1355273
178	0x3e08dfcf	0.13366626
179	0x3ca21069	0.019783216
180	0x3d7bcc88	0.061474353
181	0x3c0fb88a	0.008772025
182	0xbd7130bf	-0.05888438
183	0x3c0e0076	0.008667102
184	0x3dc06b2f	0.09395444
185	0xbde6e748	-0.11274582
186	0xbd0daa07	-0.03458598
187	0xbdf0159f	-0.11722874
188	0xbdb2a38a	-0.08722599
189	0x3dc48f12	0.09597601
190	0x3e814d8c	0.25254476
191	0x3d9107b5	0.07081548
192	0x3d03c8eb	0.032174032
193	0xbed0e74b	-0.40801463
194	0xbe517f06	-0.20458612
195	0xbe07276b	-0.1319863
196	0xbd952bc5	-0.07283739
197	0x3ea31432	0.31851345
198	0x3e43e90d	0.1913187
199	0xbe3e005c	-0.18554825
200	0xbde07562	-0.10959889
201	0x3d83072f	0.063978545
202	0xbe65dc15	-0.22447236
203	0x3e7534a4	0.23945862
204	0xbcfa9930	-0.030590624
205	0xbc971cf0	-0.018446416
206	0x3ddd0972	0.10792817
207	0x3d97518c	0.07388601
208	0x3dabfe38	0.08398098
209	0x3e939059	0.28821066
210	0xbcbce1b4	-0.023056842
211	0x3b0618bb	0.0020461518
212	0x3e1c30d4	0.15253001
213	0xbcad9bb9	-0.021192418
214	0x3cccb38b	0.024987957
215	0xbd017528	-0.03160587
216	0xbe0417eb	-0.12899749
217	0x3d15e4aa	0.036595024
218	0x3def6913	0.11689963
219	0x3e0b03df	0.13575695
220	0xbe6934ab	-0.22773997
221	0xbd4f111f	-0.050553437
222	0x3dfc41cd	0.12317238
223	0xbcad5777	-0.02115987
224	0xbd393953	-0.045220684
225	0xbe2c9016	-0.1685184
226	0x3d81497b	0.063128434
227	0xbcfffbab	-0.031247934
228	0x3d4e3cfd	0.05035113
229	0xbdb8274e	-0.08991872
230	0x3c8d6267	0.017258836
231	0x3da043af	0.078254096
232	0x3e7e5f6c	0.24841088
233	0x3e38ceb3	0.180476
234	0x3ddef261	0.10886074
235	0xbe9e4b8f	-0.30917022
236	0xbd60ad13	-0.054852556
237	0xbd68a654	-0.056799248
238	0xbe854b56	-0.2603404
239	0x3d7c77c8	0.06163767
240	0xbd71c9e3	-0.059030425
241	0xbe141943	-0.14462762
242	0xbc3d7dd4	-0.011565644
243	0x3e4033ff	0.18769835
244	0xbdcae074	-0.09906092
245	0x3d899799	0.06718368
246	0x3e8127e4	0.25225747
247	0xbc333d4e	-0.010939909
248	0xbe14c8c6	-0.14529714
249	0x3d64076a	0.055671133
250	0xbe2fa404	-0.17152411
251	0xbe9c1af4	-0.30489314
252	0x3d3fd09b	0.0468298
253	0x3d586247	0.0528281
254	0x3dbe39a8	0.09288341
255	0xbdf8c85c	-0.121475905

encoder.3.bias f4 [64]
0	0x3de3a42d	0.111152984
1	0xbde30a3d	-0.11085937
2	0x3defc3ef	0.11707293
3	0x3de49ccf	0.11162721
4	0xbdeb60f7	-0.11493104
5	0xbdf611a1	-0.12015081
6	0xbddaa2b8	-0.106755674
7	0x3df1237d	0.11774347
8	0xbdeb79f8	-0.11497873
9	0x3ded19d6	0.115771934
10	0xbdffa6e3	-0.12483003
11	0x3de3d9a6	0.111254975
12	0x3ddd3734	0.10801545
13	0xbdf3939b	-0.11893388
14	0x3ddf36c6	0.10899119
15	0xbde2e968	-0.11079675
16	0xbddddf15	-0.10833565
17	0xbdf49507	-0.11942487
18	0xbde6a146	-0.11261229
19	0x3dec7b03	0.115469
20	0xbde0fa0b	-0.10985192
21	0xbdf18d8d	-0.11794577
22	0x3dfe9f12	0.12432684
23	0x3df179f7	0.11790841
24	0x3ddf76af	0.10911309
25	0x3de356fc	0.11100575
26	0xbdf5f5ee	-0.12009798
27	0x3ded282e	0.11579929
28	0x3debee1d	0.11520026
29	0x3def5113	0.116853856
30	0x3dfbfb67	0.123038106
31	0xbdaf65da	-0.085643485
32	0x3df0d24b	0.1175886
33	0xbded2655	-0.11579577
34	0xbdf835f1	-0.121196635
35	0x3dd6c1de	0.10486196
36	0xbdf2e645	-0.11860327
37	0xbdd98955	-0.10621897
38	0xbe01c3e1	-0.12672378
39	0xbdf4a290	-0.11945069
40	0x3dea1b16	0.114309475
41	0xbde406b0	-0.11134088
42	0x3df7cd34	0.12099686
43	0xbdfa3813	-0.122177266
44	0x3dec6c01	0.115440376
45	0xbde2786c	-0.11058125
46	0x3df4597a	0.11931129
47	0x3de7d11a	0.1131918
48	0xbde10883	-0.109879516
49	0x3dfe28c2	0.12410118
50	0xbdf83f09	-0.12121398
51	0xbdf7dbd8	-0.12102479
52	0xbdfc9710	-0.123335004
53	0xbd6fbb4f	-0.05852824
54	0x3dea6758	0.114454925
55	0xbded28b9	-0.11580033
56	0x3de64f40	0.112455845
57	0x3ded5c1e	0.115898356
58	0xbde98cfc	-0.11403844
59	0xbde81049	-0.11331231
60	0x3deca07e	0.11554049
61	0xbdef8afc	-0.11696431
62	0x3dcb5a15	0.09929291
63	0xbdfe7baa	-0.12425931

regressor.0.weight f4 [256, 64]
0	0x3e273388	0.16328251
1	0xbd599d48	-0.05312851
2	0x3e2cb1ee	0.1686475
3	0xbd7f0b55	-0.062266666
4	0xbe1a2002	-0.15051273
5	0xbe2c65ab	-0.16835658
6	0x3d4c0a34	0.049814418
7	0x3e1e623d	0.15467162
8	0xbddb4ef4	-0.107084185
9	0x3dac0f48	0.08401352
10	0xbd771686	-0.060324214
11	0x3d35c040	0.044372797
12	0xbd717dec	-0.05895798
13	0xbe0fd3bd	-0.14045615
14	0x3dc260d6	0.09491126
15	0xbb66e430	-0.0035231225
16	0xbda5effb	-0.08102413
17	0xbe034127	-0.12817822
18	0xbe0e764e	-0.13912317
19	0xbd130c8c	-0.035900638
20	0xbe158893	-0.1460288
21	0x3d5d9756	0.054099403
22	0xbc375d6e	-0.011191709
23	0x3dcf6945	0.101275004
24	0x3cc9c7fd	0.024631495
25	0xbb81998a	-0.003955071
26	0x3d17edd0	0.03709203
27	0x3de454a1	0.11148954
28	0x3e037af6	0.12839875
29	0x3dcd68f3	0.10029783
30	0x3e39d7f4	0.18148786
31	0x3b984030	0.0046463236
32	0xbc9c1686	-0.019053709
33	0xbde1ffad	-0.110350944
34	0x3d19bc81	0.037533287
35	0x3e2aa19a	0.16663209
36	0xbe26f45a	-0.1630415
37	0x3d5484fd	0.05188464
38	0xbe0a7769	-0.13522114
39	0x3daf3027	0.08554106
40	0xbd32cddd	-0.043653358
41	0xbc080be2	-0.008303614
42	0x3e0eb3ab	0.13935725
43	0x3da568de	0.080766425
44	0x3d6546bd	0.055975664
45	0xbc74afd8	-0.014934503
46	0x3d13b52c	0.03606145
47	0xbda090f3	-0.07840147
48	0x3cd05196	0.025429528
49	0x3dab6369	0.0836857
50	0xbe3390f1	-0.1753576
51	0xbe343eb6	-0.17602047
52	0xbe1fdcc5	-0.1561156
53	0xbb83d354	-0.004022995
54	0x3e0c4e53	0.13701753
55	0x3d856036	0.065124914
56	0xbd5796da	-0.052634098
57	0x3c28eb92	0.010310071
58	0x3d8ea1f4	0.06964484
59	0xbe2b6d52	-0.16740921
60	0x3d3bd572	0.045857854
61	0xbe309b81	-0.1724682
62	0xbd0febe5	-0.035137076
63	0xbe3d05b8	-0.18459213
64	0xbe69ed08	-0.22844326
65	0xbd33b31d	-0.043871988
66	0x3c3557a2	0.011068257
67	0xbdb4a4a9	-0.08820469
68	0x3e345ade	0.17612788
69	0x3ea7647e	0.32693857
70	0x3eb1a9ad	0.34699765
71	0xbddaba61	-0.1068008
72	0xbd404a85	-0.046946067
73	0x3d54f750	0.051993668
74	0x3d868c78	0.06569761
75	0xbd5227aa	-0.051307358
76	0xbdbbd011	-0.09170545
77	0x3c9f1185	0.019417534
78	0xbe0d973c	-0.13827223
79	0x3dc9bd3e	0.09850548
80	0x3c7f66d7	0.015588484
81	0x3e1effdd	0.15527292
82	0xbdb61573	-0.0889081
83	0xbdbd89e1	-0.09254814
84	0x3dc38305	0.09546474
85	0x3ccb3574	0.024805762
86	0xbddefbd8	-0.10887879
87	0x3ce78c9d	0.028265292
88	0xbe86f91a	-0.26361924
89	0x3dd2e5c2	0.10297729
90	0xbd9dd8a1	-0.07707334
91	0xbd9dda05	-0.077075996
92	0xbdf43c92	-0.11925615
93	0xbeadc08a	-0.33935958
94	0xbd88d96f	-0.06682097
95	0xbe53a6c6	-0.20669088
96	0xbce09dec	-0.027419053
97	0x3d6099ca	0.054834165
98	0x3a5894f0	0.00082619395
99	0x3d5f7353	0.05455334
100	0xbdd08e61	-0.101834066
101	0x3e770090	0.24121308
102	0xbda2c180	-0.079470634
103	0x3c3d1e4b	0.011542867
104	0xbd59854b	-0.053105634
105	0x3e07a316	0.13245806
106	0x3caafec4	0.020873435
107	0xbe18646e	-0.14882061
108	0x3cc6392e	0.024197187
109	0x3d90893c	0.070574254
110	0x3cadceca	0.021216769
111	0xbd988296	-0.07446782
112	0x3da92a8f	0.082600705
113	0x3dc69997	0.09697264
114	0xbd41fd2c	-0.047360584
115	0xbc3f363e	-0.011670647
116	0xbda101af	-0.07861649
117	0xbe50dc6b	-0.20396583
118	0xbb8cbe46	-0.0042951433
119	0x3d92e6ec	0.07172951
120	0x3dba8b82	0.0910864
121	0xbe150e0d	-0.14556141
122	0x3e14a1d1	0.14514853
123	0x3e638bb4	0.22221261
124	0xbd773346	-0.060351633
125	0x3e106a7a	0.14103118
126	0xbd59f392	-0.053210802
127	0xbd75da87	-0.060022857
128	0x3dd845e7	0.10560208
129	0x3d67001c	0.05639659
130	0xbcf922b0	-0.030412048
131	0xbd03733d	-0.03209232
132	0xbe276d69	-0.1635033
133	0xbd331f39	-0.043730948
134	0xbe137730	-0.14400935
135	0x3dcfe954	0.10151926
136	0xbe0086fc	-0.12551492
137	0xbd3875f8	-0.04503438
138	0xbe0a005c	-0.134767
139	0x3ce595bb	0.028025499
140	0x3db5d711	0.08878911
141	0xbbdc5993	-0.0067245453
142	0x3e536b6b	0.20646445
143	0xbe0709a1	-0.13187267
144	0xbca62da9	-0.020285444
145	0xbdbb7569	-0.091532536
146	0x3d9cf8ec	0.076646656
147	0x3e3777ec	0.1791684
148	0x3da0aed9	0.078458495
149	0xbe1b36c4	-0.1515761
150	0x3d65814b	0.056031507
151	0xbdd857b8	-0.10563606
152	0x3e63fe56	0.2226499
153	0xbe04afbc	-0.12957662
154	0x3db909e2	0.09035088
155	0x3e41af87	0.18914615
156	0x3d51bf98	0.05120811
157	0x3e03af30	0.12859797
158	0xbdd1815f	-0.10229754
159	0xbb853d92	-0.0040661776
160	0x3d9bba11	0.07603849
161	0xbd11da6e	-0.0356087
162	0xbde4f5b5	-0.111796774
163	0xbde10ac6	-0.10988383
164	0xbd9f31cf	-0.07773172
165	0xbcaedab6	-0.021344524
166	0xbc1945a5	-0.009354983
167	0xbe1334b4	-0.14375573
168	0x3e0029a8	0.1251589
169	0xbe246360	-0.16053534
170	0x3d55103a	0.052017428
171	0x3db634ec	0.08896813
172	0x3cb2bae7	0.021817638
173	0xbc701e1c	-0.014655616
174	0xbd4e6cdd	-0.05039679
175	0xbb312a70	-0.0027033351
176	0xbe0ab675	-0.13546164
177	0x3ca56b3e	0.020192739
178	0xbdd00d32	-0.10158767
179	0xbdd856be	-0.1056342
180	0xbe00bb9b	-0.12571566
181	0x3ddc5a45	0.10759405
182	0xbd8060e9	-0.06268484
183	0xbe381176	-0.17975411
184	0x3d550af5	0.052012403
185	0x3e3fbce2	0.18724397
186	0xbe4b06e2	-0.19826844
187	0xbe77b349	-0.24189486
188	0x3e1d907c	0.15387148
189	0xbdcf3961	-0.10118366
190	0x3d42bb0d	0.047541667
191	0x3e00af69	0.12566914
192	0x3dd12228	0.10211593
193	0x3cb56fff	0.02214813
194	0xbd97bd0c	-0.07409105
195	0xbdaef910	-0.08543599
196	0x3cce7ec3	0.02520693
197	0x3d38bfda	0.04510484
198	0x3db38a59	0.08766622
199	0x3dc313d3	0.095252655
200	0x3c2a9655	0.0104118185
201	0xbd889748	-0.066694796
202	0x3e2495b9	0.1607274
203	0xbdd0c132	-0.10193099
204	0xbdf22d69	-0.118250675
205	0x3ca78517	0.020449204
206	0x3d58a5ea	0.052892603
207	0x3cce4aad	0.025182093
208	0xbcab0045	-0.020874152
209	0x3dba6ce6	0.09102802
210	0xbdb7d740	-0.089766026
211	0x3cbb3ffc	0.022857659
212	0x3ddfc003	0.10925295
213	0x3bfd45f3	0.007729286
214	0x3dd1cd9a	0.102442935
215	0xbdbba280	-0.09161854
216	0xbd30e5d5	-0.043187935
217	0x3dc2a20a	0.09503563
218	0x3d1d3480	0.038380146
219	0xbdee63a7	-0.11640101
220	0xbd8d20f8	-0.06891054
221	0x3d19dc29	0.037563477
222	0xbd59478d	-0.05304675
223	0x3e0d6f12	0.13811901
224	0xbe03cd57	-0.128713
225	0x3daa9aec	0.0833033
226	0xbcc0a30b	-0.023515245
227	0xbe129442	-0.14314368
228	0xbd9628a8	-0.07331973
229	0x3dd5d345	0.10440687
230	0xbce3d829	-0.027813034
231	0xbe0ab200	-0.13544464
232	0x3de218f2	0.11039914
233	0x3d4456e4	0.047934428
234	0x3dd2b9e4	0.10289362
235	0xbd8ba738	-0.06819004
236	0xbd8620f9	-0.06549258
237	0x3e078340	0.13233662
238	0x3db5b0d3	0.08871617
239	0xbd027a40	-0.031854868
240	0xbd9904f1	-0.074716456
241	0x3d506f29	0.05088726
242	0x3b74a14d	0.0037327588
243	0x3dbc1528	0.09183723
244	0xbddcd5fa	-0.10783
245	0xbd23dd18	-0.040005773
246	0x3de62a42	0.11238529
247	0xbc042e8c	-0.008067738
248	0x3dd0c57b	0.101939164
249	0xbc4c57e2	-0.012472125
250	0x3dba4020	0.09094262
251	0x3d4262be	0.04745745
252	0xbc687860	-0.014188856
253	0x3dead191	0.11465753
254	0xbbbcebc5	-0.0057654106
255	0x3da1d19f	0.0790131

regressor.0.bias f4 [256]
0	0x3dacde29	0.08440811
1	0xbd1e7bcf	-0.03869229
2	0x3db9004d	0.090332605
3	0xbd6acb99	-0.057323072
4	0x3de85b3b	0.11345526
5	0xbd0d826c	-0.034548208
6	0x3deb6879	0.11494536
7	0xbe0276b0	-0.12740588
8	0x3dd6e291	0.10492433
9	0x3db1cad6	0.08681266
10	0xbd57ece7	-0.052716162
11	0xbc9ca802	-0.019123081
12	0xbd056a54	-0.032572106
13	0xbd49dc06	-0.049282096
14	0xbd393263	-0.04521407
15	0x3dad8099	0.08471794
16	0xbd3ea725	-0.04654612
17	0xbd50f1ae	-0.051011734
18	0x3db5d55c	0.08878586
19	0xbd683c02	-0.056697853
20	0xbd8b34df	-0.06797194
21	0x3dba6042	0.09100391
22	0xbc6c504a	-0.014423439
23	0x3dc6fe97	0.09716528
24	0x3dea7e5b	0.11449882
25	0xbd2e4c93	-0.042553496
26	0xbd32ec51	-0.0436824
27	0x3de06784	0.10957244
28	0xbd57a878	-0.0526509
29	0x3db6da83	0.089283966
30	0x3dae62c2	0.0851493
31	0x3d391ac5	0.045191545
32	0xbd3af993	-0.04564817
33	0x3de03206	0.10947041
34	0x3de2ead2	0.11079945
35	0x3de5b0dc	0.11215374
36	0x3dd694ea	0.10477622
37	0x3e186638	0.14882743
38	0x3d1d8bb6	0.038463317
39	0x3dd79b9f	0.10527729
40	0xbd4341eb	-0.047670286
41	0x3dbcdd96	0.09221952
42	0xbd34f1e7	-0.04417601
43	0xbd153c7f	-0.036434647
44	0xbd456287	-0.048189666
45	0xbd068f0e	-0.03285127
46	0x3db8c283	0.09021475
47	0x3d046b33	0.032328796
48	0xbd0928e8	-0.033486277
49	0xbb92e4c5	-0.004482838
50	0x3decf4ed	0.115701534
51	0xbd465047	-0.048416402
52	0x3dda8674	0.10670176
53	0xbd229700	-0.039694786
54	0x3ddc0575	0.10743228
55	0x3df9d18b	0.1219817
56	0x3deae40b	0.11469277
57	0x3de09bc3	0.10967209
58	0x3db5b159	0.08871717
59	0xbd31174d	-0.043235112
60	0x3d60e5ad	0.054906536
61	0xbd54d0eb	-0.051957052
62	0x3e0bbfa6	0.13647327
63	0x3ddf286e	0.10896383
64	0x3dde311b	0.1084921
65	0xbd492599	-0.04910812
66	0xbcdd2edd	-0.026999885
67	0xbd104d9c	-0.035230264
68	0x3db077f0	0.08616626
69	0xbd5476af	-0.051870998
70	0xbd2d4256	-0.04229959
71	0xbd03fc96	-0.032223307
72	0x3dd0efb6	0.10201971
73	0x3ddb7dd5	0.1071736
74	0xbd31b94b	-0.0433896
75	0x3e05b760	0.13058233
76	0x3dd7261c	0.10505316
77	0x3dde1fd2	0.10845913
78	0x3dd077e0	0.10179114
79	0x3de3c1bd	0.11120937
80	0x3dcbefee	0.09957872
81	0x3db73f88	0.089476645
82	0x3dcc3581	0.099711426
83	0x3de11bbc	0.10991618
84	0x3de1f880	0.11033726
85	0xbcfc07fb	-0.030765524
86	0x3e0023ef	0.12513708
87	0xbd38a796	-0.045081697
88	0x3da8f948	0.082506716
89	0xbd3d2009	-0.04617313
90	0x3de79f65	0.11309699
91	0x3df914c3	0.12162163
92	0x3dd35b2e	0.103201255
93	0xbd7e452a	-0.06207768
94	0xbe2ed5d8	-0.17073762
95	0x3dd6624a	0.10467966
96	0x3dd5a4e1	0.10431839
97	0x3dbb7457	0.091530494
98	0xbd8becb1	-0.06832255
99	0x3dad0121	0.08447481
100	0x3dc094b6	0.09403364
101	0x3e4052c4	0.18781573
102	0x3debd896	0.1151592
103	0xbd13b0a6	-0.036057137
104	0xbd4d69b2	-0.050149627
105	0xbe0f0be3	-0.13969378
106	0x3ddf7155	0.10910288
107	0xbccabae4	-0.02474732
108	0xbd2af795	-0.04174002
109	0x3de267ad	0.11054931
110	0x3db18474	0.086678416
111	0xbd667a37	-0.056268897
112	0xbbf9afdd	-0.0076198415
113	0xbd0dad85	-0.03458931
114	0x3c0d0cfe	0.008609055
115	0xbb1fb78f	-0.0024370884
116	0x3dd8134c	0.105505556
117	0xbe5960ff	-0.21228407
118	0xbca1dc30	-0.019758314
119	0xbd3c6fdf	-0.046005126
120	0x3ddadcaf	0.10686623
121	0x3ddc7004	0.10763553
122	0xbdab3bdf	-0.08361029
123	0x3de828f2	0.11335935
124	0x3dd1fad5	0.102529205
125	0x3e027f43	0.12743859
126	0x3dbd8cb5	0.09255353
127	0x3c433a73	0.011915791
128	0xbd195d2c	-0.03744237
129	0xbd370c87	-0.04468968
130	0xbc72ba5d	-0.01481494
131	0xbd76fa31	-0.060297195
132	0x3dbbf3d9	0.091773696
133	0xbc97a405	-0.018510828
134	0x3dec557a	0.11539741
135	0xbd8adb32	-0.067800894
136	0x3de7c708	0.11317259
137	0xbd24bfa6	-0.040221833
138	0xbc44548f	-0.011983051
139	0x3de2049f	0.11036038
140	0xbcb38e80	-0.021918535
141	0x3de6c567	0.1126812
142	0x3d7f741b	0.062366586
143	0xbccac39c	-0.024751477
144	0x3ddd7bb4	0.1081461
145	0x3df9061f	0.12159371
146	0xbd3fac12	-0.04679496
147	0xbd48f3e8	-0.049060732
148	0xbd361433	-0.044452857
149	0x3de1b6dc	0.11021206
150	0x3deea320	0.116522074
151	0xbcbffcb2	-0.023435924
152	0x3dd4a269	0.1038254
153	0xbe0264ff	-0.1273384
154	0x3dee6ec4	0.116422206
155	0x3ca6f13a	0.020378698
156	0xbd239de3	-0.039945494
157	0xbd1da4e4	-0.03848733
158	0x3dfd5b6c	0.12370953
159	0xbd3872fb	-0.04503153
160	0xbd412fce	-0.04716473
161	0x3dc7e4a0	0.09760404
162	0x3dc0c1ec	0.09411988
163	0xbd33e5fb	-0.0439205
164	0xbd488f1e	-0.048964612
165	0x3dd20127	0.10254126
166	0xbbce4d78	-0.006295856
167	0x3de87d00	0.11351967
168	0x3de2d90b	0.11076554
169	0xbd333b45	-0.043757696
170	0xbd2854f2	-0.041096635
171	0x3db965b2	0.090526
172	0x3df4ead5	0.11958853
173	0xbd0fb01a	-0.035080053
174	0xbd4b96b8	-0.049704283
175	0x3d8d6f46	0.06905989
176	0x3deef03c	0.11666915
177	0x3db0a00f	0.08624279
178	0x3dd84f58	0.105620086
179	0xbd44fff8	-0.048095673
180	0xbd492602	-0.049108513
181	0xbd30ddc8	-0.043180257
182	0x3df1c6ea	0.11805518
183	0x3d9fb1c7	0.0779758
184	0xbd185ae2	-0.037196048
185	0xbd3f1750	-0.046653092
186	0x3da02b26	0.0782073
187	0x3dbfcbb3	0.093650244
188	0x3dee3c24	0.11632565
189	0xbd2d3e65	-0.042295832
190	0x3df4dcd4	0.11956182
191	0xbd3f8b05	-0.04676344
192	0x3dcdfc77	0.100579195
193	0x3df4650f	0.11933338
194	0xbd2c0dd5	-0.04200538
195	0xbd32f830	-0.04369372
196	0xbd43bd6f	-0.04778808
197	0x3df24159	0.1182887
198	0xbc222a45	-0.009897773
199	0xbd443f1d	-0.047911752
200	0xbd287d19	-0.041134927
201	0xbd1a3559	-0.037648533
202	0xbd2a022c	-0.041505978
203	0xbd30d08c	-0.043167636
204	0x3da6dc18	0.08147448
205	0xbd29bea7	-0.041441586
206	0x3de6430b	0.11243256
207	0x3dce2509	0.10065658
208	0x3dbfd968	0.09367639
209	0x3dee7bdf	0.1164472
210	0xbd51d6e1	-0.051230315
211	0x3d47f96e	0.04882186
212	0x3e011c15	0.12608369
213	0xbd3b4c36	-0.045726977
214	0xbd38801e	-0.045044057
215	0x3d9e20e8	0.0772112
216	0x3d42aa20	0.047525525
217	0x3dbf6ed9	0.093473144
218	0xbd1e619d	-0.03866731
219	0x3ded3252	0.115818635
220	0xbc9a0f1d	-0.018806035
221	0x3dd4b899	0.10386772
222	0x3dc9cc73	0.09853449
223	0x3d9ab5ad	0.07554183
224	0x3d4f15f1	0.050558034
225	0xbd593a55	-0.053034145
226	0x3ddc9e25	0.10772351
227	0x3dcd5640	0.100262165
228	0x3de90a0a	0.11378868
229	0x3ded8e43	0.115994
230	0xbd22f65d	-0.03978573
231	0xbd3f769e	-0.04674398
232	0xbd460081	-0.048340324
233	0x3dea9040	0.11453295
234	0xbd46a5f6	-0.048498116
235	0x3dda0355	0.10645167
236	0xbd1d104e	-0.038345627
237	0x3b953250	0.004553117
238	0xbd7e374d	-0.062064458
239	0x3ddd59f4	0.10808173
240	0x3dd5cf5a	0.1043994
241	0xbd27575c	-0.040854797
242	0x3e089e27	0.1334158
243	0xbd177118	-0.03697309
244	0x3ddd0d3a	0.107935384
245	0xbd1e0b29	-0.038584862
246	0x3df369c4	0.118854076
247	0x3df0d1d8	0.117587745
248	0xbd45c153	-0.04828007
249	0xbd498cb9	-0.04920647
250	0x3ddb288d	0.10701094
251	0xbd36c169	-0.044618044
252	0xbd3d661e	-0.046239965
253	0xbd3d7ab2	-0.04625959
254	0x3dddf884	0.10838416
255	0xbd16becb	-0.036803048

regressor.3.weight f4 [64, 256]
0	0xbde80102	-0.11328317
1	0xbd907ff6	-0.070556566
2	0x3da9bb40	0.08287668
3	0x3cbb218c	0.022843145
4	0x3d17e997	0.037088003
5	0x3d7e6a86	0.062113307
6	0x3d950dbd	0.07278011
7	0x3d89c438	0.06726879
8	0x3d9c9180	0.076449394
9	0x3e12c97b	0.14334671
10	0xbc45290d	-0.012033713
11	0x3d77a70a	0.060462035
12	0x3cbc6ab2	0.023000095
13	0x3d2193de	0.039447658
14	0x3daaec0b	0.08345803
15	0xbda3185d	-0.07963631
16	0x3de760bd	0.11297748
17	0x3db91335	0.090368666
18	0xbc82e35f	-0.01597756
19	0x3bf6189e	0.007510259
20	0xbd2649fc	-0.0405979
21	0xbb955d1b	-0.004558218
22	0xbddd71c2	-0.10812713
23	0x3ae5a27c	0.0017519738
24	0x3d705374	0.058673337
25	0xbda17933	-0.07884445
26	0xbd0dad4d	-0.0345891
27	0xba6f49f0	-0.0009128144
28	0xbd9a3d65	-0.07531241
29	0x3d1632d1	0.036669556
30	0xbc475ad4	-0.012167651
31	0xbd61b190	-0.055100977
32	0xbcfcbd75	-0.030852059
33	0xbd20e115	-0.039277155
34	0xbdf8b518	-0.12143916
35	0xbcbf0d3f	-0.023321746
36	0xbd83cda2	-0.06435706
37	0xbdb17558	-0.0866496
38	0xbd0cb038	-0.034347743
39	0xbd1825f4	-0.03714557
40	0xbdd0f1af	-0.102023475
41	0x3ddf14fd	0.10892675
42	0xbd79bcdb	-0.060971122
43	0x3d75162b	0.059835594
44	0x3d7dc9cb	0.061960023
45	0x3d321b3c	0.043483004
46	0x3965c817	0.00021913681
47	0xbd77d8a7	-0.06050935
48	0xbe09defb	-0.13463967
49	0xbd0dec8d	-0.03464942
50	0xbb3206d8	-0.0027164724
51	0x3d181438	0.037128657
52	0x3df86a93	0.121297024
53	0xbb91b21a	-0.00444628
54	0xbd0dfc24	-0.03466429
55	0xbcb2c9c3	-0.021824723
56	0x3d9226b6	0.0713629
57	0xbcd11475	-0.02552245
58	0xba188c9f	-0.0005819294
59	0xbdb5c09b	-0.08874627
60	0x3db5280a	0.088455275
61	0x3d739154	0.059464768
62	0x3d7a0ff8	0.061050385
63	0xbdbe5582	-0.09293653
64	0x3dc7045b	0.097176276
65	0x3c4fae25	0.012675797
66	0xbd955c0f	-0.072929494
67	0xbe03b311	-0.12861277
68	0xbb893987	-0.004187766
69	0x3dc43e50	0.09582198
70	0xbda0e35f	-0.078558676
71	0xbd9dfbc4	-0.07714036
72	0x3ccceb33	0.025014495
73	0xbd1e59c3	-0.038659822
74	0x3d0e91e6	0.03480711
75	0x3db19f36	0.08672945
76	0x3db77ce3	0.08959367
77	0x3cd7b88e	0.02633312
78	0x3d84cb97	0.06484144
79	0xbc348908	-0.011018999
80	0xbda8b373	-0.08237352
81	0xbc9e9d79	-0.019362198
82	0x3dcbce62	0.09951474
83	0x3c8a57ba	0.016887534
84	0x3cc1489c	0.023594193
85	0x3dd186bc	0.10230777
86	0x3d9f9175	0.077914156
87	0xbd00f671	-0.031485025
88	0xbd068948	-0.032845765
89	0x3d69e7c2	0.057105787
90	0x3da952f8	0.08267778
91	0xbce01d01	-0.02735758
92	0x3d87b9c1	0.066272266
93	0xbd1a3a4b	-0.03765325
94	0xbd293cd7	-0.041317787
95	0x3c0c97fb	0.008581157
96	0x3d77460c	0.060369536
97	0xbd0849b4	-0.033273414
98	0x3c954daa	0.01822551
99	0x3e082a09	0.13297285
100	0x3d7b112f	0.061295684
101	0xbcdaf13b	-0.026726356
102	0xbb54bcb1	-0.0032461102
103	0xbdad1a00	-0.08452225
104	0x3d9c86f8	0.07642931
105	0x3d69935b	0.057025295
106	0xbd65a92d	-0.05606954
107	0xbc4dd9a0	-0.012564093
108	0x3d9a6971	0.075396426
109	0x3d9e8223	0.07739665
110	0xbd996e01	-0.07491685
111	0xbd8e9c75	-0.069634356
112	0xbe070e61	-0.13189079
113	0xbe000650	-0.12502408
114	0xbd809d98	-0.062800586
115	0xbdd90b4b	-0.10597857
116	0xbd9f985e	-0.077927336
117	0xbd5e17df	-0.054221984
118	0xbc7b3de6	-0.015334582
119	0x3b99b1f3	0.0046904027
120	0x3d918afc	0.07106587
121	0xbdf6c458	-0.12049168
122	0x3c9506fb	0.018191805
123	0x3bc4b045	0.0060024583
124	0x3d242dc5	0.04008271
125	0x3dcccfb2	0.10000552
126	0x3cfcc3e9	0.030855136
127	0x3d5ba9ce	0.053628735
128	0xbd094699	-0.033514593
129	0x3d85326e	0.06503759
130	0x3d8e8331	0.069586165
131	0x3dab513d	0.08365104
132	0x3b80acc5	0.0039268457
133	0xbe1d4598	-0.15358579
134	0xbd7f9749	-0.062400136
135	0xbcdd9d68	-0.027052596
136	0xbd433c9d	-0.047665227
137	0x3e0b8696	0.13625559
138	0xbd320874	-0.043465093
139	0xbe1784b3	-0.14796714
140	0xbe075324	-0.1321531
141	0x3d6cc2cf	0.05780297
142	0x3d63d408	0.05562213
143	0x3d06ed45	0.03294112
144	0x3b9dc91b	0.0048152334
145	0xbda7e079	-0.08197112
146	0x3d23bd62	0.03997553
147	0xbcbffa26	-0.02343471
148	0x3d9ee458	0.07758397
149	0xbe0aeae4	-0.13566166
150	0x3e00ae5f	0.12566517
151	0x3d2f4581	0.042790893
152	0xbbc42177	-0.0059854346
153	0x3c8e632f	0.017381279
154	0x3d1d717b	0.0384383
155	0xbd57feec	-0.052733347
156	0x3df8d664	0.12150267
157	0xbdf4bfef	-0.11950671
158	0xbd6b5e54	-0.057463005
159	0xbdeb2103	-0.11480906
160	0xbd762ac4	-0.06009938
161	0xbd4d7c6c	-0.050167486
162	0xbe0d155d	-0.1377768
163	0xbcdc08ec	-0.026859723
164	0x3d2734aa	0.04082171
165	0xbdd896fc	-0.10575673
166	0xbd0009a2	-0.031259187
167	0x3ceb5a77	0.02872966
168	0xbd8eebf4	-0.06978598
169	0x3d40bf82	0.047057636
170	0x3d5c5856	0.05379518
171	0xbd9ffb99	-0.0781166
172	0xbdaa4ba7	-0.08315211
173	0xbdec30e8	-0.115327656
174	0xbba57129	-0.00504889
175	0xbd34b56f	-0.04411834
176	0xbd6b82b6	-0.057497703
177	0x3d558ab2	0.052134223
178	0x3d5d1b9e	0.053981416
179	0xbd26411a	-0.04058943
180	0xbd827f4a	-0.06371935
181	0xbde6a550	-0.112619996
182	0xbd5f38d4	-0.054497555
183	0xbe08d656	-0.13363013
184	0xbe1db3f5	-0.1540068
185	0xbdce8e9b	-0.100857936
186	0x3d966257	0.073429756
187	0xbddf5e82	-0.10906698
188	0xbd93f277	-0.07223981
189	0xbdbfb827	-0.09361296
190	0x3d071b67	0.032985117
191	0xbd9ec8b6	-0.07753126
192	0xbd5f4d1e	-0.054516904
193	0xbd1eb138	-0.038743228
194	0x3dbf27d5	0.09333769
195	0xbd2306c5	-0.039801378
196	0xbc387ac9	-0.011259743
197	0xbde6b70f	-0.112653844
198	0x3c63a9c8	0.0138954595
199	0xbca28ed6	-0.0198435
200	0x3d26eea5	0.040754933
201	0x3d737775	0.059440095
202	0x3dc20eed	0.09475503
203	0xbdb4ecdd	-0.088342406
204	0x3dc38d5d	0.09548447
205	0x3d89e62b	0.06733354
206	0xbc879b35	-0.0165535
207	0x3da1fba1	0.079093225
208	0xbd92af82	-0.07162382
209	0x3de16761	0.11006046
210	0x3dd2342e	0.10263859
211	0xbcf2d7cf	-0.029643921
212	0xbbbcb602	-0.0057590017
213	0x3c51dca8	0.012808956
214	0x3dac61f7	0.08417123
215	0xbd1cff19	-0.038329218
216	0x3bcc8c7b	0.0062423325
217	0x3db4f879	0.08836455
218	0x3dd13617	0.10215395
219	0xbdae4496	-0.085091755
220	0xbcea5844	-0.028606541
221	0xbd538384	-0.051639095
222	0x3d971fd0	0.07379115
223	0xbe0af679	-0.13570584
224	0xbd5a86cf	-0.05335122
225	0x3bb4c170	0.0055162236
226	0x3c5683e5	0.01309297
227	0xbdcecd52	-0.100977555
228	0x3d6823a2	0.056674607
229	0x3cb149c8	0.021641627
230	0x3db231e4	0.08700922
231	0x3dee1483	0.11625006
232	0x3de64dda	0.11245318
233	0xbe091592	-0.13387135
234	0xbd6416e6	-0.0556859
235	0xbcf75207	-0.03019048
236	0x3d0eb0cd	0.03483658
237	0xbccfd66b	-0.025370797
238	0xbdde2bcf	-0.108481996
239	0x3da7a044	0.08184865
240	0xbe06cdeb	-0.13164489
241	0xbc464a37	-0.012102655
242	0xbdf516ab	-0.11967214
243	0x3ddc04b3	0.10743084
244	0xbe02afbd	-0.12762351
245	0x3cedbdde	0.0290212
246	0x3c84aa26	0.016194414
247	0xbe122ad5	-0.14274152
248	0x3cdc724e	0.026909973
249	0x3d8768d3	0.066117905
250	0x3da910bc	0.08255145
251	0xbc2e31ee	-0.010632021
252	0x3e0499d9	0.12949313
253	0x3d3b3aed	0.045710493
254	0x3d4f703d	0.05064415
255	0x3b9243cc	0.0044636484

regressor.3.bias f4 [64]
0	0xbd36e910	-0.04465586
1	0x3dbe835f	0.09302401
2	0xbd2fdf2e	-0.04293745
3	0x3dc2b0a8	0.09506351
4	0xbd129128	-0.035782963
5	0xbd423d76	-0.047421895
6	0x3defefd7	0.11715668
7	0xbd642156	-0.055695854
8	0xbd842e68	-0.06454164
9	0xbdda3622	-0.10654856
10	0xbd69a062	-0.05703772
11	0x3dc3d785	0.095625915
12	0x3de3351b	0.110941134
13	0xbd3301ea	-0.043702997
14	0xbd92b387	-0.071631484
15	0x3dad7691	0.0846988
16	0xbd106d18	-0.03526029
17	0xbd710f8b	-0.058852714
18	0x3da56c1e	0.08077262
19	0xbd0becfc	-0.034161553
20	0xbd45b05c	-0.048263893
21	0x3dc741c6	0.09729342
22	0x3dbc5d5e	0.09197496
23	0xbd74b39c	-0.0597416
24	0xbd516075	-0.05111738
25	0xbd4b1ce0	-0.049588084
26	0xbd1edb7b	-0.03878353
27	0xbd296c40	-0.041363
28	0xbd36187b	-0.04445694
29	0xbd2a51bb	-0.04158185
30	0xbd41f5bc	-0.04735349
31	0xbd33727f	-0.043810364
32	0xbd8c8ef0	-0.06863201
33	0xbd91163f	-0.07084321
34	0xbd4b5962	-0.04964579
35	0x3dcf1414	0.101112515
36	0xbd4d6370	-0.05014366
37	0xbd301698	-0.042990297
38	0xbd81f8b2	-0.06346263
39	0x3e0719bb	0.13193409
40	0x3dbdfcbe	0.09276722
41	0xbd8a6c1c	-0.067589015
42	0xbd4d91f0	-0.050188005
43	0x3de33441	0.11093951
44	0x3ddde2c7	0.1083427
45	0x3dbd64b8	0.09247726
46	0xbd240bf4	-0.040050462
47	0xbd876b26	-0.06612234
48	0xbdd7a10e	-0.105287656
49	0xbd8a17f3	-0.06742849
50	0xbd6caa4a	-0.057779588
51	0xbd395530	-0.045247257
52	0xbd25c62c	-0.040472195
53	0x3db78fe7	0.08962994
54	0x3db144d0	0.08655703
55	0xbd31f339	-0.043444846
56	0x3df2c571	0.11854065
57	0x3de80804	0.11329654
58	0xbd3243cd	-0.04352169
59	0xbd17e832	-0.037086673
60	0xbd534952	-0.051583596
61	0x3dc9cd68	0.09853631
62	0xbd4c1ba4	-0.049831048
63	0x3dd6a557	0.10480755

regressor.5.weight f4 [1, 64]
0	0xbea0c194	-0.31397688
1	0x3dce735d	0.100805975
2	0xbe835738	-0.2565248
3	0x3df3a4ee	0.11896692
4	0xbe477a81	-0.19480325
5	0xbe8f6fdc	-0.2801503
6	0x3dc12888	0.09431559
7	0xbeb76769	-0.35821083
8	0xbe9268a2	-0.28595454
9	0xbe68ce93	-0.22735052
10	0xbed0f15d	-0.40809146
11	0x3e8bd3a2	0.273099
12	0x3dac4313	0.08411231
13	0xbebb2790	-0.3655362
14	0xbd993e54	-0.07482591
15	0x3ddd6480	0.108101845
16	0xbed98f5c	-0.42492187
17	0xbe6c251a	-0.23061028
18	0x3dd6c46b	0.104866825
19	0xbed2ce42	-0.41172987
20	0xbe7c1b89	-0.24619879
21	0x3e432591	0.19057299
22	0x3ec1a1fb	0.37818894
23	0xbe2e35e7	-0.1701275
24	0xbe3e2397	-0.18568264
25	0xbe5a7409	-0.21333326
26	0xbe5fa8ab	-0.21841685
27	0xbea7f124	-0.32801163
28	0xbe76f13e	-0.24115464
29	0xbe90ba32	-0.28267056
30	0xbe3410b3	-0.17584495
31	0xbe532353	-0.20618944
32	0xbe033109	-0.12811674
33	0xbea63802	-0.32464606
34	0xbe49a8eb	-0.19693343
35	0x3e8125af	0.25224063
36	0xbeee15ec	-0.465011
37	0xbe8e9606	-0.27848834
38	0xbe073569	-0.13203968
39	0x3e65dac6	0.22446737
40	0x3ebfa11d	0.37427607
41	0xbe59026d	-0.21192332
42	0xbebba210	-0.3664708
43	0x3e9446fd	0.2896041
44	0x3e80834a	0.25100166
45	0x3e61ca5d	0.22049852
46	0xbe7555a9	-0.23958458
47	0xbe8a2157	-0.2697856
48	0xbea913e1	-0.3302298
49	0xbe630d70	-0.22173095
50	0xbea42459	-0.3205898
51	0xbef7c2b3	-0.4839073
52	0xbea7de52	-0.32786804
53	0x3eb2533d	0.3482913
54	0x3e020bf5	0.12699874
55	0xbe31735c	-0.17329162
56	0x3debb4da	0.11509104
57	0x3db7ea24	0.08980206
58	0xbed0a30b	-0.40749392
59	0xbe84b099	-0.25915983
60	0xbe6d3ee2	-0.23168519
61	0x3e652be8	0.2238003
62	0xbe3b02f2	-0.18262842
63	0x3e93f5e9	0.28898552
