src/simple-FT_ver1.00/data/experiments/fecu_to_fefe_finetune_target256_20260116_173643/models/finetuned_model.pth (torch, 227845 bytes, 9 tensors)

encoder.0.weight f4 [256, 2]
0	0x3e1adfe2	0.15124467
1	0x3dbd27bd	0.09236095
2	0xbdb8991f	-0.090135805
3	0xbe0e2baa	-0.13883844
4	0x3d964f65	0.07339362
5	0xbe00cf2b	-0.12579028
6	0x3d38901c	0.04505931
7	0xbd205378	-0.039142102
8	0x3cbeed49	0.023306506
9	0xbd7e56e4	-0.062094584
10	0x3e1b65f0	0.15175605
11	0x3e345d29	0.17613663
12	0xbe8e7e48	-0.2783072
13	0x3d60a964	0.054849043
14	0xbde19c76	-0.11016171
15	0xbdcb8355	-0.09937159
16	0x3dd89e51	0.105770715
17	0xbd58e3f5	-0.05295177
18	0xbdd4dcf2	-0.103937045
19	0xbd9436f7	-0.07237046
20	0x3e32cb98	0.17460477
21	0xbe27f48d	-0.16401882
22	0xbd4a2bab	-0.04935805
23	0xbd924a18	-0.071430385
24	0x3d9b0f9b	0.07571336
25	0x3d9b9dbe	0.07598446
26	0xbe59c8f3	-0.21268062
27	0xbd2ecfb7	-0.04267856
28	0x3ca07bd8	0.019590303
29	0xbda86153	-0.08221688
30	0xbd8bde52	-0.068295136
31	0x3b7c5d3c	0.003850772
32	0x3e676259	0.2259611
33	0x3e57dad5	0.21079572
34	0xbdfdef91	-0.12399209
35	0xbd2b9b6b	-0.041896265
36	0xbd2f1e9e	-0.04275381
37	0xbdbf799b	-0.09349366
38	0x3e0349a2	0.12821057
39	0x3d5625a6	0.052281998
40	0xbaa44a4e	-0.0012534352
41	0x3d9d634d	0.07684956
42	0xbc7ae190	-0.015312567
43	0x3d65e259	0.056124065
44	0x3de75145	0.11294798
45	0xbe1fd323	-0.15607886
46	0xbccc3f8c	-0.024932645
47	0x3d62098b	0.055184882
48	0xbe1c1b2d	-0.15244742
49	0xbd7d1b15	-0.061793406
50	0x3da8b4cc	0.08237609
51	0x3b6a064e	0.0035709324
52	0xbe3a725c	-0.18207687
53	0x3d45490e	0.048165374
54	0x3e0b1e45	0.13585766
55	0x3d3f8ffd	0.046768177
56	0xbdfa97e0	-0.12235999
57	0xbdea7c17	-0.114494495
58	0xbd9eb15d	-0.07748673
59	0xbcdebb09	-0.027188795
60	0x3e1f5dee	0.15563175
61	0xbb78b0e3	-0.003794723
62	0x3cbe511f	0.02323204
63	0x3d17956a	0.037007727
64	0xbe2af898	-0.16696393
65	0xbc98635e	-0.01860207
66	0x3ddd8b19	0.108175464
67	0xbd859043	-0.06521656
68	0xbb0b08ec	-0.0021215035
69	0xbd35e51c	-0.04440795
70	0xbe157171	-0.14594056
71	0xbdf15f4a	-0.11785753
72	0x3ca63852	0.020290527
73	0xbe0ab181	-0.13544275
74	0x3e4cefa5	0.20013292
75	0x3df55e06	0.11980824
76	0x3e2ff45e	0.17183062
77	0xbdcf9742	-0.10136272
78	0x3dee31ef	0.11630618
79	0xbe2b8ce7	-0.16752969
80	0x3d9c672e	0.076368675
81	0x3d973166	0.07382469
82	0x3d070082	0.03295947
83	0xbd8c13ad	-0.0683969
84	0xbd1455b8	-0.03621456
85	0xbd38f86c	-0.04515879
86	0x3e27a95a	0.16373196
87	0x3d884c36	0.06655161
88	0xbccc5541	-0.024942996
89	0xbce2366e	-0.027613845
90	0xbd93cbd5	-0.07216612
91	0xbad4f368	-0.0016246857
92	0x3e6746a0	0.22585535
93	0x3e1eb98e	0.15500471
94	0x3e11276e	0.14175197
95	0xbdd97e7b	-0.10619827
96	0x3d855e11	0.06512082
97	0x3d948b26	0.07253103
98	0x3e518840	0.20462132
99	0x3dbbdb97	0.09172743
100	0x3e13149b	0.14363329
101	0xbe0e7a9b	-0.13913958
102	0xbe9e90bf	-0.30969808
103	0xbd19a1f6	-0.037507974
104	0x3def7684	0.11692527
105	0x3dcfb98e	0.101428136
106	0xbe5e162c	-0.21688145
107	0x3d865622	0.06559397
108	0xbe45d47b	-0.19319336
109	0x3e132187	0.14368258
110	0xbe01a356	-0.12659964
111	0x3d90e467	0.07074814
112	0x3dce953b	0.10087057
113	0x3dda8229	0.10669357
114	0x3dc32991	0.095294125
115	0xbdbc9503	-0.09208109
116	0xbded2a6e	-0.115803584
117	0xbdfce7e7	-0.12348919
118	0x3c71b101	0.014751674
119	0xbcde5743	-0.027141219
120	0x3d5b1033	0.053482246
121	0xbe18f84f	-0.14938472
122	0xbe0d2da2	-0.13786939
123	0xbc5ea040	-0.013588011
124	0xbdcb5c10	-0.09929669
125	0xbd07bdf2	-0.03314013
126	0xbe28f20c	-0.16498584
127	0xbe19c5d3	-0.1501687
128	0xbe0c1232	-0.13678816
129	0xbd908e1a	-0.07058354
130	0x3cffa997	0.031208796
131	0xbdca42d7	-0.0987603
132	0xbe198a76	-0.14994225
133	0xbc786d0f	-0.01516272
134	0x3e7f7de7	0.24950372
135	0x3e257715	0.16158707
136	0xbdbcddef	-0.09222018
137	0xbe006a29	-0.12540497
138	0x3d3f9b0d	0.046778727
139	0xbe0fb8b7	-0.14035307
140	0xbe84bdcf	-0.25926062
141	0xbd229ed0	-0.039702237
142	0x3d8e6824	0.06953457
143	0xbd9bc2ae	-0.076054916
144	0x3ce5dda2	0.028059784
145	0x3ca32889	0.01991679
146	0xbdab9808	-0.08378607
147	0x3a1c1dde	0.00059553783
148	0x3dcfc6a2	0.10145308
149	0xbdcb4785	-0.09925751
150	0xbd533444	-0.051563516
151	0xbdfb05d7	-0.12256973
152	0xbdad560f	-0.0846368
153	0xbe1b540b	-0.15168779
154	0xbdea1332	-0.114294425
155	0xbdd07ef7	-0.101804666
156	0x3ce5cd9d	0.028052146
157	0x3c9c7e9f	0.019103346
158	0x3d36071a	0.044440366
159	0x3dbd9dcc	0.09258613
160	0x3ba1c250	0.004936494
161	0xbca57321	-0.0201965
162	0x39d5bff8	0.00040769554
163	0xbdae497e	-0.08510111
164	0xbc1fa4b4	-0.009743858
165	0x3cf106b4	0.029422142
166	0x3e66fb08	0.22556698
167	0x3e37870e	0.17922613
168	0xbe912432	-0.28347927
169	0xbd5b73e2	-0.05357731
170	0x3e287b03	0.16453175
171	0xbc678723	-0.01413134
172	0xbea3890c	-0.31940496
173	0x3caf4386	0.021394502
174	0xbc89e0d7	-0.016830845
175	0xbd9b1b58	-0.07573575
176	0xbe646073	-0.22302417
177	0x3d8ff992	0.07030024
178	0x3de0beb6	0.10973875
179	0xbcb496e4	-0.022044607
180	0x3e0a1473	0.13484363
181	0x3d66644d	0.056247998
182	0xbe2dfffa	-0.16992179
183	0xbda8a2cd	-0.08234177
184	0xbceae563	-0.028673833
185	0x3cf38fc1	0.029731633
186	0xbe349aad	-0.17637129
187	0x3cc7477a	0.024326075
188	0xbd68e5c9	-0.056859765
189	0xbd8ae63a	-0.067821935
190	0x3d6f6088	0.05844167
191	0x3b80ec60	0.003934428
192	0x3bc84f81	0.006112993
193	0xbd934a7f	-0.071919434
194	0x3db84737	0.08997958
195	0x3d81b637	0.06333583
196	0xbc46fd87	-0.012145407
197	0xbc5c23a0	-0.013436228
198	0x3e2a0abf	0.16605662
199	0xbd301f2e	-0.042998485
200	0xbd297a91	-0.041376654
201	0xbd9e43f1	-0.077278025
202	0x3dffad4e	0.12484227
203	0xbdc3f508	-0.095682204
204	0x3dcbe6b0	0.099561095
205	0xbd6629c4	-0.056192175
206	0x3dc9b65b	0.09849235
207	0x3d85f4c2	0.065408245
208	0x3daa8033	0.08325233
209	0xbc95be69	-0.018279271
210	0xbcc690b5	-0.024238924
211	0x3d251bc7	0.040309694
212	0xbe1883ea	-0.14894071
213	0x3c9a29fc	0.018818848
214	0xbc661b6d	-0.014044625
215	0xbbcfd63b	-0.006342677
216	0x3e29bc71	0.16575791
217	0xbe0abeb5	-0.13549311
218	0x3e2bd564	0.16780621
219	0x3dae640d	0.08515177
220	0xbe2aa86c	-0.1666581
221	0x3d893ced	0.06701074
222	0xbc0989dc	-0.008394685
223	0xbdf7f645	-0.12107519
224	0xbe273311	-0.16328074
225	0xbd088a83	-0.03333522
226	0xbe421fd3	-0.18957452
227	0xbb837ef5	-0.004012937
228	0x3dde657a	0.10859199
229	0xbdd8882a	-0.10572846
230	0x3dee16e9	0.116254635
231	0x3d059655	0.03261407
232	0x3e4f5956	0.20248923
233	0x3e149387	0.14509402
234	0xbe0c4b74	-0.13700658
235	0xbdbf34fb	-0.09336277
236	0xbeb0b668	-0.34514165
237	0xbe16726c	-0.14692086
238	0x3d40ba9f	0.047052976
239	0x3db52ba3	0.08846214
240	0x3e25cc10	0.16191125
241	0x3d30a220	0.043123364
242	0xbdac0744	-0.08399823
243	0x3a9aaa00	0.0011799932
244	0x3dd78929	0.10524208
245	0x3de42315	0.11139504
246	0x3e00a7fa	0.12564078
247	0xbdfce6ea	-0.12348731
248	0xbd1fab04	-0.038981453
249	0xbc3f06a3	-0.011659297
250	0x3d14828b	0.036257308
251	0xbe17b1e5	-0.14813955
252	0x3e166aeb	0.14689223
253	0x3df446c6	0.119275615
254	0x3e16e87e	0.14737126
255	0x3cc66609	0.024218576

encoder.0.bias f4 [256]
0	0xbe0515d0	-0.12996602
1	0x3db81511	0.08988393
2	0x3dbaa81e	0.09114097
3	0x3dd42ece	0.1036049
4	0x3dc76357	0.097357444
5	0xbe0bbb49	-0.13645662
6	0xbe194163	-0.1496635
7	0x3dac10f1	0.08401669
8	0x3de79779	0.11308188
9	0x3d87cfb5	0.06631414
10	0x3dff3732	0.124616995
11	0x3d77f6cb	0.060538094
12	0x3e148e4c	0.14507407
13	0xbe1fb841	-0.15597631
14	0x3da64dca	0.08120306
15	0xbe0281ba	-0.127448
16	0xbe03e61b	-0.12880747
17	0x3d510cfe	0.05103778
18	0x3da286b1	0.079358466
19	0x3e1b6dc2	0.15178588
20	0xbdf5ffb8	-0.12011665
21	0xbdf7d4de	-0.12101148
22	0x3dd70f1e	0.1050093
23	0xbe0024d5	-0.1251405
24	0xbe1197c9	-0.14218058
25	0xbdfbe912	-0.12300314
26	0xbdefe8c0	-0.117143154
27	0xbdeb2434	-0.114815146
28	0x3d995ff6	0.07489006
29	0xbde92e57	-0.11385792
30	0x3e1d1f30	0.15343928
31	0xbdfe1119	-0.12405605
32	0x3dae6d82	0.08516981
33	0x3dda9aa6	0.10674028
34	0xbdeed7fc	-0.116622895
35	0x3d9231a5	0.07138375
36	0x3dc52434	0.09626046
37	0xbdedf476	-0.11618893
38	0x3dfbd1f3	0.12295904
39	0x3dd92c1b	0.106041156
40	0x3e19525e	0.14972827
41	0x3dc814ac	0.09769568
42	0x3ddbd352	0.107336655
43	0xbdfa3c86	-0.12218575
44	0x3dd1240f	0.10211956
45	0xbdf5928f	-0.119908445
46	0xbe0cf4b3	-0.1376522
47	0x3df4ea7e	0.11958788
48	0xbdb1a0bd	-0.086732365
49	0xbdde6b7f	-0.10860347
50	0x3df44cde	0.11928724
51	0xbe2fdcdf	-0.171741
52	0xbe05373a	-0.13009349
53	0xbe11aaad	-0.14225264
54	0x3dee906a	0.116486385
55	0xbe011327	-0.12604962
56	0xbe0c9ae0	-0.13730955
57	0x3d840313	0.06445899
58	0x3d75fe6c	0.06005709
59	0x3de78c6e	0.11306082
60	0x3dde1801	0.10844422
61	0x3da2b3bd	0.079444386
62	0x3d9846c7	0.07435375
63	0x3d581959	0.05275855
64	0x3da2368d	0.07920561
65	0x3dce2135	0.100649275
66	0x3dad9185	0.08475021
67	0xbdfcb765	-0.12339667
68	0x3cb9e26a	0.02269097
69	0x3dea6e31	0.114467986
70	0xbe2c1abd	-0.16807075
71	0x3dceab88	0.10091311
72	0x3ddf81d7	0.10913437
73	0xbdf829a7	-0.121173196
74	0x3ddf994a	0.109179094
75	0x3d062bc0	0.032756567
76	0x3da98f4c	0.08279285
77	0x3db445a2	0.08802344
78	0x3dccdc89	0.10003001
79	0xbdd2b9d0	-0.10289347
80	0xbdefaa50	-0.117024064
81	0xbde24819	-0.11048908
82	0xbdfbadea	-0.12289031
83	0xbdf2ec8f	-0.11861526
84	0xbe3cdbda	-0.18443242
85	0x3e18d004	0.14923102
86	0xbe2eed90	-0.1708281
87	0x3d986302	0.07440759
88	0xbdf89ee0	-0.12139678
89	0xbe0e429e	-0.138926
90	0xbdbc6e9e	-0.09200786
91	0x3d380e64	0.0449356
92	0x3ddea8c4	0.10872033
93	0xbe0b9a31	-0.13633038
94	0x3dced568	0.10099298
95	0x3de3d1f3	0.11124029
96	0x3ddbbcbf	0.1072936
97	0xbe03a8d4	-0.12857372
98	0xbdf69f03	-0.12042048
99	0x3e106981	0.14102747
100	0x3db8b829	0.09019501
101	0x3de1675e	0.11006044
102	0x3df25a77	0.11833661
103	0x3e264e55	0.16240819
104	0xbe08a5a8	-0.13344443
105	0x3dd6f659	0.10496206
106	0xbe05974a	-0.13045993
107	0xbdf68e73	-0.12038889
108	0x3dc8a1bc	0.097964734
109	0xbde65b06	-0.1124783
110	0xbdf7119c	-0.120639056
111	0x3dca7bb1	0.098868735
112	0xbe07a102	-0.13245013
113	0x3d66b75a	0.0563272
114	0x3d8fdfb9	0.070250936
115	0x3e111df8	0.14171588
116	0xbdf575a9	-0.119853325
117	0xbe106bac	-0.14103574
118	0xbe4162c8	-0.18885338
119	0xbdf2b84d	-0.11851559
120	0x3e2a561f	0.16634415
121	0xbde83a28	-0.113392174
122	0xbe017e47	-0.12645827
123	0x3df8d5ca	0.12150152
124	0x3dcb126e	0.099156246
125	0x3dde7aa0	0.108632326
126	0xbe0338dd	-0.1281466
127	0x3e11a5d5	0.14223416
128	0x3e0f13da	0.13972417
129	0x3ddf5fc5	0.109069385
130	0xbe00da6b	-0.1258332
131	0x3ddba954	0.10725656
132	0xbe23737b	-0.15962021
133	0xbdf6bf27	-0.12048178
134	0x3d9607b8	0.07325691
135	0xbdebcf01	-0.11514092
136	0x3df10d65	0.11770133
137	0x3e00d878	0.12582576
138	0x3d8716c1	0.06596137
139	0xbe0123c5	-0.12611301
140	0x3dfb4dac	0.12270674
141	0x3dddb15a	0.10824843
142	0x3ddf7beb	0.10912307
143	0x3e04206e	0.12902996
144	0x3db423b8	0.08795875
145	0xbde86c36	-0.113487646
146	0xbe0687e8	-0.13137782
147	0x3daa6b28	0.0832122
148	0xbe01f83f	-0.12692355
149	0x3de28f01	0.11062432
150	0x3ddca444	0.10773519
151	0xbe01e480	-0.12684822
152	0x3dcf0c23	0.10109737
153	0x3dfa7d54	0.12230936
154	0x3dd731f8	0.10507578
155	0x3dd22b55	0.10262171
156	0xbe019590	-0.1265471
157	0x3de96e1a	0.11397953
158	0xbdf4a30a	-0.1194516
159	0x3e0689de	0.1313853
160	0x3cb45211	0.022011789
161	0x3dd99aae	0.10625206
162	0xbe0927d6	-0.13394102
163	0xbe04f94b	-0.12985723
164	0x3dc5c26a	0.09656222
165	0xbdff9900	-0.12480354
166	0x3da47d5f	0.08031725
167	0xbe0f84a2	-0.14015439
168	0xbe07da4b	-0.13266866
169	0x3db86bfd	0.09004972
170	0x3dd44a1a	0.10365696
171	0xbe03cd18	-0.12871206
172	0xbded3654	-0.11582628
173	0xbe1515d3	-0.14559107
174	0x3de3a3de	0.111152396
175	0xbdfa9917	-0.12236231
176	0xbe0531d8	-0.13007295
177	0xbdf82732	-0.12116851
178	0x3e11ac74	0.14225942
179	0x3d89f1da	0.06735583
180	0x3de7d8e7	0.11320668
181	0x3dd6ecb3	0.104943655
182	0x3de050b4	0.10952893
183	0x3ddf87fc	0.10914609
184	0x3dc54341	0.09631968
185	0x3dd0a9e5	0.10188655
186	0x3d7b0c05	0.06129076
187	0x3d9a4d34	0.075342566
188	0x3dbfd0b1	0.093659766
189	0x3dd4fa47	0.10399299
190	0x3de15b98	0.11003798
191	0x3e1fd8b6	0.15610012
192	0x3dd9c43c	0.10633132
193	0xbe2b4f53	-0.16729479
194	0xbdf285f6	-0.11841957
195	0xbde668bf	-0.112504475
196	0x3dc0cc2e	0.09413944
197	0x3e1eae99	0.15496291
198	0x3e0d7fc1	0.13818265
199	0xbdff7d39	-0.12475056
200	0x3deb8fd3	0.11502042
201	0xbde7dcea	-0.11321433
202	0xbe266d4f	-0.16252635
203	0x3e0b4f44	0.13604456
204	0x3dc40daf	0.095729224
205	0x3dd42c23	0.10359981
206	0x3de81817	0.1133272
207	0x3de3988e	0.11113082
208	0x3ddb854d	0.107187845
209	0x3e0baef2	0.13640955
210	0xbdf1d766	-0.11808662
211	0x3db899f5	0.0901374
212	0x3db9b20d	0.090671636
213	0xbdf7fb5f	-0.12108492
214	0xbdeb3a13	-0.11485686
215	0x3dc488fc	0.0959644
216	0x3dc46750	0.09590018
217	0xbd90b6c1	-0.070661075
218	0x3dced39e	0.100989565
219	0x3dd6d888	0.10490519
220	0xbdfbe89b	-0.12300225
221	0x3dc1c860	0.094620466
222	0x3de21a46	0.110401675
223	0x3def4989	0.116839476
224	0x3d54fe2c	0.05200021
225	0xbde70ef6	-0.112821504
226	0x3dc93ecb	0.0982643
227	0x3db89878	0.09013456
228	0x3dc810c1	0.097688206
229	0x3db9d2f4	0.09073439
230	0x3dc86737	0.09785312
231	0x3df6a125	0.12042455
232	0x3df6a89b	0.12043878
233	0x3dd59be1	0.10430122
234	0xbdf98415	-0.12183396
235	0xbde807d8	-0.11329621
236	0xbdf73a4e	-0.120716676
237	0x3dce50ef	0.100740306
238	0xbe067949	-0.13132204
239	0x3dcac937	0.0990166
240	0x3de08991	0.10963739
241	0x3d8e0ffb	0.06936642
242	0x3db4e8a5	0.08833436
243	0x3de85d18	0.11345881
244	0xbe0320e1	-0.12805511
245	0xbe00665d	-0.12539048
246	0x3e27d47d	0.16389652
247	0xbe039f47	-0.12853728
248	0x3db5ec54	0.08882967
249	0xbdf505a7	-0.11963969
250	0xbdd5b987	-0.10435777
251	0xbe0ef1e4	-0.13959461
252	0x3e02a05c	0.12756485
253	0xbdf80b8c	-0.121115774
254	0x3de6d6ea	0.1127146
255	0x3de77db9	0.113032766

encoder.3.weight f4 [64, 256]
0	0x3e05d73b	0.13070385
1	0xbdd65d9d	-0.10467074
2	0xbd106f7b	-0.035262566
3	0x3e1cb43e	0.15303132
4	0xbd9c67e8	-0.07637006
5	0x3dcec8c8	0.1009689
6	0xbe882be3	-0.26595983
7	0x3db88d29	0.09011299
8	0x3e1884e7	0.14894448
9	0x3a9c63b3	0.0011931568
10	0x3cd74de4	0.026282258
11	0xbccde839	-0.025135146
12	0x3e89d1f6	0.26918
13	0xbeafa13b	-0.34302697
14	0x3e0fa380	0.14027214
15	0xbe15fa49	-0.14646257
16	0xbdbd3219	-0.09238071
17	0xbdefc5e9	-0.1170767
18	0xbdcaa7dd	-0.09895299
19	0x3e6c658a	0.23085609
20	0xbde1553a	-0.11002584
21	0x3bd8e5b8	0.0066191815
22	0x3d5c8440	0.05383706
23	0x3cade06f	0.021225182
24	0xbe2fcac7	-0.17167197
25	0xbdd09f3b	-0.10186621
26	0xbeb15751	-0.3463693
27	0x3dbc9973	0.092089556
28	0xbd93c63c	-0.072155446
29	0xbe8bd487	-0.27310583
30	0x3de93c04	0.113884
31	0xbe32c807	-0.17459117
32	0xbde92137	-0.11383288
33	0x3e027a5d	0.1274199
34	0x3d275d15	0.040860254
35	0xbbd0e15f	-0.0063745226
36	0x3cfdc6d9	0.030978607
37	0xbc071f00	-0.008247137
38	0x3dbf1784	0.09330657
39	0x3e2f02d7	0.17090927
40	0x3e84eff2	0.25964314
41	0x3de47a68	0.1115616
42	0x3e02e9f7	0.12784563
43	0x3e08b66a	0.13350835
44	0x3cbfe9d8	0.023426935
45	0xbe562872	-0.20913866
46	0x3dab49a1	0.08363653
47	0x3e2121a8	0.15735495
48	0xbbef986d	-0.0073118717
49	0xbcea05b3	-0.02856717
50	0x3e2c181b	0.1680607
51	0xbeaed978	-0.3415029
52	0x3da47f0f	0.08032047
53	0xbec6cb57	-0.3882701
54	0xbd3477af	-0.04405945
55	0xbe81eef8	-0.2537763
56	0x3d135a88	0.03597501
57	0x3c006d7f	0.007838606
58	0xbd64acef	-0.055828985
59	0x3e166eef	0.14690755
60	0x3db4ddd8	0.08831376
61	0xbcd252f5	-0.025674323
62	0x3d2a0524	0.04150881
63	0xbcb9cb56	-0.022679966
64	0x3d5e3940	0.054253817
65	0x3d17cde4	0.037061587
66	0x3d67274f	0.056433972
67	0x3dadcca5	0.084862985
68	0xbd8dfeea	-0.069333866
69	0x3e32f459	0.17476024
70	0xbe8482c0	-0.25881004
71	0x3e3ab1af	0.18231843
72	0xbd7dfcd9	-0.062008712
73	0xbe909a32	-0.28242642
74	0x3e20b986	0.15695772
75	0x3ccc6908	0.024952427
76	0xbd739c81	-0.059475426
77	0xbd78b395	-0.060718138
78	0x3de806d8	0.1132943
79	0x3deea72a	0.11652978
80	0xbc85738d	-0.01629045
81	0x3d680062	0.05664099
82	0x3d589388	0.05287507
83	0x3d3931c9	0.045213494
84	0xbe876e60	-0.26451397
85	0x3e302385	0.1720105
86	0xbec33529	-0.38126495
87	0x3d510f80	0.051040173
88	0xbe8415d2	-0.25797898
89	0xbd5592a6	-0.052141808
90	0xbc902544	-0.017595895
91	0xbe02ca84	-0.12772566
92	0x3b4aab23	0.003092476
93	0xbe3f27a9	-0.18667473
94	0x3dc5fdfd	0.09667585
95	0x3d02cef4	0.031935647
96	0x3d607ec3	0.05480839
97	0xbd6b2c20	-0.057415128
98	0xbe4a9f9b	-0.19787447
99	0x3e8b82a2	0.27248102
100	0x3dce948f	0.10086929
101	0x3e7dce5f	0.24785756
102	0x3e836f7d	0.25670996
103	0x3e0e88e8	0.13919413
104	0x3c5ca245	0.013466422
105	0x3d4e23f8	0.05032727
106	0xbecb0fcc	-0.3966049
107	0x3d1a8d9d	0.03773271
108	0x3d239862	0.039940245
109	0x3c07c30e	0.008286251
110	0xbe98225e	-0.2971372
111	0x3d7ac4b4	0.061222747
112	0xbe260296	-0.16211924
113	0xbd5692da	-0.052386142
114	0x3d29fc9b	0.04150067
115	0x3e9bf582	0.30460745
116	0xbdf3e5c3	-0.11909058
117	0xbe8a08a7	-0.26959726
118	0xbea59ca9	-0.32346085
119	0x3b6d9976	0.00362548
120	0x3e9984fa	0.29984266
121	0xbd9e59e7	-0.07731991
122	0xbd8c389c	-0.06846735
123	0x3d9779ba	0.073962644
124	0x3d3a2c0d	0.045452166
125	0xbd47b9ad	-0.04876106
126	0xbde1bc62	-0.11022259
127	0x3e9d9fa1	0.3078585
128	0x3e70f33f	0.23530291
129	0xbda78fe9	-0.081817456
130	0xbe236f51	-0.15960433
131	0x3dbaf0ab	0.09127935
132	0xbe9cb361	-0.30605605
133	0xbd9ce23d	-0.07660339
134	0x3dac84ab	0.08423742
135	0xbe4fb832	-0.20285109
136	0x3e8457b6	0.25848168
137	0x3e311037	0.17291342
138	0xbd12e57a	-0.035863377
139	0xbe105fd6	-0.14099059
140	0x3e19d139	0.15021218
141	0x3d589718	0.05287847
142	0x3ce145e8	0.027499154
143	0x3e246bd4	0.16056758
144	0x3dcbf4e2	0.09958817
145	0x3d5d3a2b	0.05401055
146	0xbe43ebf7	-0.19132982
147	0x3d6540f9	0.055970166
148	0xbdf64958	-0.12025708
149	0x3ce10285	0.027467022
150	0x3e052084	0.13000685
151	0xbd9ae3fe	-0.07563017
152	0xbddd870b	-0.10816773
153	0x3e8702e4	0.26369393
154	0x3d2fe30f	0.04294115
155	0x3e225558	0.15852869
156	0x3dcbbb22	0.09947802
157	0x3d09607d	0.033539284
158	0xbecd867e	-0.40141672
159	0x3e13c539	0.14430703
160	0xbdd54254	-0.10413042
161	0x3dc1934d	0.094519235
162	0xbe4c8544	-0.19972712
163	0x3df4f8e6	0.11961536
164	0xbdbce986	-0.092242286
165	0x3cb5b2d1	0.022179993
166	0xbd4fa586	-0.050694965
167	0xbecc28a5	-0.3987476
168	0xbe30549d	-0.17219777
169	0x3e812dff	0.25230405
170	0xbcff112b	-0.031136116
171	0x3dcb33e4	0.09922007
172	0xbe5ea785	-0.21743591
173	0xbe6ec704	-0.23318106
174	0x3d834b9a	0.06410904
175	0xbe72305c	-0.2365126
176	0xbed18ea3	-0.40929136
177	0xbe0a7ffe	-0.13525388
178	0x3e0ae7ac	0.13564938
179	0x3ca3d2e8	0.019998029
180	0x3d7eb503	0.062184345
181	0x3c1ca9c1	0.009561957
182	0xbd6d06cd	-0.057867814
183	0x3c1db0e1	0.009624691
184	0x3dc3a522	0.09552981
185	0xbde5683e	-0.11201523
186	0xbd094638	-0.03351423
187	0xbdeec2af	-0.11658227
188	0xbdb1e8c7	-0.08686977
189	0x3dc501d7	0.096194915
190	0x3e821633	0.25407562
191	0x3d9a65b8	0.075389326
192	0x3d05f71b	0.03270636
193	0xbed15261	-0.40883163
194	0xbe53ba7c	-0.20676607
195	0xbe055d77	-0.13023935
196	0xbd938567	-0.07203179
197	0x3ea4181c	0.32049644
198	0x3e4670c2	0.19378951
199	0xbe41655d	-0.18886323
200	0xbdde3dc6	-0.10851626
201	0x3d845e91	0.064633496
202	0xbe668dfc	-0.225151
203	0x3e776480	0.24159431
204	0xbcf94fea	-0.030433614
205	0xbc92a0f0	-0.017899007
206	0x3ddefe94	0.10888401
207	0x3d995208	0.07486349
208	0x3dae5d6c	0.085139126
209	0x3e9465f4	0.28984034
210	0xbcc4360f	-0.023951558
211	0x3b0dbca6	0.0021627336
212	0x3e1d63b6	0.15370068
213	0xbca6c987	-0.020359768
214	0x3cd7900b	0.026313802
215	0xbcfea91b	-0.031086495
216	0xbe041a16	-0.12900576
217	0x3d147b85	0.03625061
218	0x3df16a26	0.11787824
219	0x3e0c5e18	0.13707769
220	0xbe6b394d	-0.22971077
221	0xbd4ff47d	-0.05077027
222	0x3dfd53ed	0.12369523
223	0xbca6e1a9	-0.020371275
224	0xbd35549a	-0.044270135
225	0xbe2e50e6	-0.17023048
226	0x3d839437	0.06424754
227	0xbcfbb078	-0.030723795
228	0x3d502560	0.050816894
229	0xbdb84b24	-0.08998707
230	0x3c938d02	0.018011574
231	0x3da5865f	0.0808227
232	0x3e805b44	0.2506963
233	0x3e38aaee	0.18033955
234	0x3de30052	0.110840455
235	0xbe9f7be1	-0.311492
236	0xbd6098dd	-0.05483328
237	0xbd682955	-0.056680042
238	0xbe86a03f	-0.26294133
239	0x3d7d2375	0.061801393
240	0xbd6fd730	-0.05855483
241	0xbe13cc7a	-0.1443347
242	0xbc3e9a59	-0.011633479
243	0x3e43a500	0.19105911
244	0xbdc8f4c0	-0.09812307
245	0x3d8b3648	0.06797463
246	0x3e8277a9	0.25481918
247	0xbc24d5c2	-0.010060729
248	0xbe14e6af	-0.14541124
249	0x3d65efc4	0.05613686
250	0xbe3261b1	-0.17420079
251	0xbe9d5c9a	-0.30734712
252	0x3d40cec4	0.047072187
253	0x3d5e07ca	0.054206647
254	0x3dbf6900	0.09346199
255	0xbdf6ade2	-0.12044884

encoder.3.bias f4 [64]
0	0x3de5dad9	0.112233825
1	0xbde5335d	-0.111914374
2	0x3df0cd90	0.11757958
3	0x3de41043	0.11135914
4	0xbded4a5d	-0.11586449
5	0xbdf818a8	-0.12114078
6	0xbddc96cb	-0.10770949
7	0x3df3db74	0.11907092
8	0xbdee59e9	-0.11638243
9	0x3dee9e02	0.11651231
10	0xbe000a77	-0.12503992
11	0x3de5b608	0.1121636
12	0x3ddf3e04	0.109005004
13	0xbdf40190	-0.119143605
14	0x3de17226	0.110081
15	0xbde493c2	-0.11160995
16	0xbddca803	-0.10774233
17	0xbdf69345	-0.12039808
18	0xbde66835	-0.11250345
19	0x3deec57b	0.1165876
20	0xbde12483	-0.10993292
21	0xbdf378ae	-0.11888252
22	0x3dfea770	0.1243428
23	0x3df0f4a2	0.1176541
24	0x3de1b302	0.11020471
25	0x3de37fed	0.11108384
26	0xbdf77232	-0.12082328
27	0x3deef39d	0.11667559
28	0x3ded7837	0.11595195
29	0x3df12189	0.117739744
30	0x3dfc6597	0.12324064
31	0xbdace105	-0.084413566
32	0x3df28a69	0.11842806
33	0xbdee4569	-0.11634333
34	0xbdf6422f	-0.12024342
35	0x3dd3d1a2	0.10342719
36	0xbdf2dcdf	-0.11858534
37	0xbddb8009	-0.1071778
38	0xbe01ffb5	-0.126952
39	0xbdf69de4	-0.12041834
40	0x3dec21bf	0.11529874
41	0xbde6bd36	-0.11266558
42	0x3df88d9a	0.12136383
43	0xbdfa85d4	-0.12232557
44	0x3dee4f68	0.11636239
45	0xbde351a8	-0.11099559
46	0x3df46985	0.11934189
47	0x3de97b16	0.1140043
48	0xbde337d8	-0.11094636
49	0x3dfe6a60	0.12422633
50	0xbdf9fb71	-0.12206162
51	0xbdf9e28b	-0.12201413
52	0xbdfd2745	-0.12361006
53	0xbd6a435d	-0.05719315
54	0x3decabb9	0.11556191
55	0xbdef1ce0	-0.11675429
56	0x3de4321a	0.111423686
57	0x3def5902	0.11686899
58	0xbdebadee	-0.11507784
59	0xbde9d0e3	-0.11416795
60	0x3def31a7	0.11679392
61	0xbdf134d1	-0.11777652
62	0x3dcb69f0	0.09932315
63	0xbdfcf6ae	-0.12351738

regressor.0.weight f4 [256, 64]
0	0x3e277076	0.16351494
1	0xbd5889f5	-0.05286594
2	0x3e2c118c	0.16803569
3	0xbd83e1fd	-0.06439588
4	0xbe1a4b70	-0.1506784
5	0xbe2cd360	-0.16877508
6	0x3d4b474f	0.049628552
7	0x3e1e7619	0.15474738
8	0xbddb18fa	-0.10698123
9	0x3dab957e	0.08378123
10	0xbd722568	-0.059117705
11	0x3d2f11c4	0.042741552
12	0xbd70f1ac	-0.058824226
13	0xbe0efe36	-0.13964161
14	0x3dc28d02	0.09499551
15	0xbb5338b4	-0.0032229843
16	0xbda0c459	-0.0784995
17	0xbe0379b9	-0.12839402
18	0xbe0d1686	-0.13778123
19	0xbd12f72f	-0.035880264
20	0xbe13b896	-0.14425883
21	0x3d5df228	0.054186016
22	0xbc4c8949	-0.012483903
23	0x3dcb9464	0.09940413
24	0x3ccce33b	0.025010696
25	0xbbe2720d	-0.0069105686
26	0x3d1bffd5	0.038085777
27	0x3de4226e	0.111393794
28	0x3e02f902	0.12790301
29	0x3dce0ce6	0.10061054
30	0x3e38779a	0.18014374
31	0x3bff962c	0.0077998843
32	0xbc9c59ca	-0.019085784
33	0xbde0403a	-0.1094975
34	0x3d25ac0c	0.04044728
35	0x3e2777cd	0.16354294
36	0xbe254db9	-0.1614293
37	0x3d534f16	0.051589094
38	0xbe094f9a	-0.13409272
39	0x3daf09a9	0.085467644
40	0xbd32a1a0	-0.04361117
41	0xbc048b0f	-0.008089795
42	0x3e0d55d7	0.13802277
43	0x3da80180	0.08203411
44	0x3d638342	0.0555451
45	0xbc6d3a67	-0.014479256
46	0x3d0bb979	0.034112427
47	0xbda1fa7a	-0.07909103
48	0x3ccf82b1	0.025330873
49	0x3da5e6c7	0.08100658
50	0xbe334563	-0.17506938
51	0xbe34172a	-0.17586961
52	0xbe1ee7bb	-0.15518086
53	0xbae53359	-0.0017486616
54	0x3e0c4adf	0.13700436
55	0x3d84ddc6	0.064876124
56	0xbd642f20	-0.055709004
57	0x3c2c43bb	0.010514195
58	0x3d8e27a8	0.069411576
59	0xbe2b85d5	-0.16750272
60	0x3d3cd394	0.046100214
61	0xbe308fcb	-0.17242353
62	0xbd1c28ce	-0.038124852
63	0xbe3a43e8	-0.18189967
64	0xbe698fc1	-0.22808744
65	0xbd342c7f	-0.043987747
66	0x3c363792	0.011121647
67	0xbdb46922	-0.08809115
68	0x3e33f1d7	0.17572723
69	0x3ea767e3	0.32696447
70	0x3eb1ac2f	0.34701678
71	0xbdda42c5	-0.106572665
72	0xbd40378d	-0.046927977
73	0x3d5601ab	0.052247684
74	0x3d864daa	0.06557782
75	0xbd51cda6	-0.051221512
76	0xbdbadf23	-0.09124591
77	0x3c9f0c3c	0.019415013
78	0xbe0da7a1	-0.13833477
79	0x3dc9b161	0.098482855
80	0x3c7d4cb5	0.015460183
81	0x3e1e5c0a	0.15464798
82	0xbdb646b5	-0.08900205
83	0xbdbd0097	-0.09228628
84	0x3dc36645	0.09540991
85	0x3cc9a1d1	0.024613293
86	0xbddea198	-0.10870665
87	0x3ce909df	0.02844709
88	0xbe86ee8d	-0.26353875
89	0x3dd2f68f	0.103009336
90	0xbd9dfc3d	-0.07714126
91	0xbd9da716	-0.07697885
92	0xbdf3ff2b	-0.11913904
93	0xbead80e7	-0.33887407
94	0xbd88bb26	-0.06676321
95	0xbe53cd7f	-0.2068386
96	0xbcde4dcf	-0.027136711
97	0x3d5fe80b	0.054664653
98	0x3a2b1b2e	0.00065271824
99	0x3d5ffb3c	0.054682955
100	0xbdd09d04	-0.10186198
101	0x3e774f42	0.24151328
102	0xbda35557	-0.07975262
103	0x3c3a2a1e	0.011362581
104	0xbd57f4b0	-0.052723587
105	0x3e0795fe	0.13240811
106	0x3cac6913	0.021046197
107	0xbe189174	-0.14899236
108	0x3cc6e034	0.02427683
109	0x3d9060cb	0.07049712
110	0x3caf7b6e	0.02142116
111	0xbd98335e	-0.074316725
112	0x3da8c50e	0.0824071
113	0x3dc6db93	0.09709849
114	0xbd42c1a9	-0.04754797
115	0xbc45107c	-0.012027856
116	0xbda12802	-0.07868959
117	0xbe50ffd8	-0.20410097
118	0xbb83976b	-0.004015853
119	0x3d9248dc	0.07142803
120	0x3dbad2e4	0.091222554
121	0xbe14d0b1	-0.14532734
122	0x3e134208	0.14380658
123	0x3e6369a7	0.22208272
124	0xbd75bb53	-0.0599931
125	0x3e1050ae	0.14093277
126	0xbd59b0c7	-0.053147104
127	0xbd7636c2	-0.060110815
128	0x3dd980c4	0.10620263
129	0x3d64ad47	0.055829313
130	0xbcf82ef8	-0.030295834
131	0xbd06d3aa	-0.032916702
132	0xbe2868a4	-0.16446167
133	0xbd3639e1	-0.04448879
134	0xbe13ff61	-0.14452888
135	0x3dd1b617	0.10239809
136	0xbe00fb07	-0.1259576
137	0xbd35db73	-0.044398736
138	0xbe09f9b1	-0.13474156
139	0x3cdfad4a	0.02730431
140	0x3db7428b	0.08948239
141	0xbbdfd3bf	-0.006830662
142	0x3e542480	0.20717049
143	0xbe076de4	-0.13225514
144	0xbc9d400f	-0.019195585
145	0xbdbd8c6f	-0.09255301
146	0x3d9d9357	0.076941185
147	0x3e381c70	0.17979598
148	0x3da22032	0.07916297
149	0xbe1c2569	-0.15248646
150	0x3d64aae1	0.055827025
151	0xbdd95070	-0.10611045
152	0x3e642e1a	0.22283211
153	0xbe0622df	-0.1309924
154	0x3db92cf9	0.09041781
155	0x3e4242ed	0.18970843
156	0x3d53d405	0.05171587
157	0x3e048ef3	0.12945156
158	0xbdd295a7	-0.1028245
159	0xbb1fef8d	-0.0024404258
160	0x3d9d4d64	0.07680777
161	0xbd121f40	-0.035674334
162	0xbde25879	-0.11052031
163	0xbde3d9bd	-0.11125515
164	0xbd9de92a	-0.07710488
165	0xbcb5ee7f	-0.02220845
166	0xbc19c3dd	-0.009385076
167	0xbe13e18c	-0.14441508
168	0x3e00f57e	0.12593648
169	0xbe24d124	-0.16095406
170	0x3d530824	0.051521435
171	0x3db62bd6	0.0889508
172	0x3cb3c289	0.021943348
173	0xbc77a27f	-0.015114426
174	0xbd50ff79	-0.051024888
175	0xbb2389e5	-0.0024954018
176	0xbe0bb637	-0.13643728
177	0x3c9cec06	0.019155513
178	0xbdd17fde	-0.10229467
179	0xbdda0b68	-0.10646707
180	0xbe00e8ec	-0.12588853
181	0x3ddf4f6e	0.10903822
182	0xbd7d8435	-0.06189366
183	0xbe38fce2	-0.18065217
184	0x3d4f4af3	0.050608587
185	0x3e40e361	0.18836738
186	0xbe4bfd30	-0.19920802
187	0xbe7848ec	-0.24246567
188	0x3e1ea868	0.1549393
189	0xbdd0aec8	-0.10189587
190	0x3d3c7adc	0.046015605
191	0x3e020bdb	0.12699835
192	0x3dcdc0dd	0.100465514
193	0x3cb6e55b	0.022326162
194	0xbd97b7ab	-0.07408079
195	0xbdafa1bf	-0.085757725
196	0x3cd8f3dd	0.02648347
197	0x3d3fad73	0.046796273
198	0x3db6a079	0.089173265
199	0x3dc0bc93	0.09410968
200	0x3c305719	0.010762953
201	0xbd8a71cc	-0.06759986
202	0x3e251d63	0.16124491
203	0xbdd14a75	-0.1021928
204	0xbdf4f65c	-0.11961052
205	0x3ca76b51	0.020436915
206	0x3d568dcd	0.052381326
207	0x3cce3214	0.025170363
208	0xbca72ae8	-0.020406201
209	0x3dbdccec	0.09267601
210	0xbdb6f93e	-0.08934258
211	0x3cb457a1	0.022014441
212	0x3ddfcacb	0.109273516
213	0x3c08a83d	0.008340892
214	0x3dd0cbe0	0.10195136
215	0xbdbc9430	-0.09207952
216	0xbd391e9e	-0.045195214
217	0x3dc2d209	0.09512717
218	0x3d1ddc3c	0.03854011
219	0xbdef4b07	-0.11684232
220	0xbd8e629b	-0.06952401
221	0x3d13fac6	0.036127828
222	0xbd592975	-0.053018052
223	0x3e0cdd9c	0.13756412
224	0xbe04c3e6	-0.12965354
225	0x3dabddc9	0.083919115
226	0xbcbddd73	-0.023176884
227	0xbe12820b	-0.1430742
228	0xbd96404f	-0.07336485
229	0x3dd84f4d	0.105620004
230	0xbcdc2e04	-0.02687741
231	0xbe09cb78	-0.13456523
232	0x3de04d1e	0.10952209
233	0x3d46bb7c	0.048518643
234	0x3dd1d660	0.10245967
235	0xbd8a29d2	-0.06746258
236	0xbd866a91	-0.06563295
237	0x3e07b089	0.13250937
238	0x3db44ed0	0.08804095
239	0xbd0243eb	-0.031803053
240	0xbd97938d	-0.0740119
241	0x3d4d6d06	0.0501528
242	0x3b8e975a	0.0043515386
243	0x3dbe8581	0.093028076
244	0xbddc09f2	-0.107440844
245	0xbd2aa979	-0.041665528
246	0x3de485c5	0.11158327
247	0xbbe0fbb9	-0.006865945
248	0x3dd1054c	0.102060884
249	0xbc5d66ca	-0.013513276
250	0x3dbd905e	0.092560515
251	0x3d47a263	0.04873885
252	0xbc7ce961	-0.015436501
253	0x3deba4d1	0.115060456
254	0xbbb7469e	-0.005593135
255	0x3da2d9f0	0.079517245

regressor.0.bias f4 [256]
0	0x3dae26ed	0.08503518
1	0xbd1c5fb4	-0.038177207
2	0x3dbe02ef	0.09277903
3	0xbd7514de	-0.059834354
4	0x3deb3460	0.11484599
5	0xbce84df3	-0.028357482
6	0x3ded4a25	0.115864076
7	0xbdff3ae9	-0.12462408
8	0x3dd9f620	0.10642648
9	0x3db1024b	0.086430155
10	0xbd5f15c6	-0.054464124
11	0xbcace565	-0.021105478
12	0xbd01d461	-0.03169668
13	0xbd5375d2	-0.051626034
14	0xbd44db08	-0.048060447
15	0x3dab2903	0.08357432
16	0xbd410058	-0.04711947
17	0xbd53cc30	-0.0517084
18	0x3db9429f	0.0904591
19	0xbd6c7562	-0.057729132
20	0xbd79bdfb	-0.060972195
21	0x3db8644c	0.09003505
22	0xbc88960a	-0.016673107
23	0x3dc9cb74	0.09853259
24	0x3dec8923	0.11549594
25	0xbd2d48ee	-0.04230588
26	0xbd65d89b	-0.056114774
27	0x3de1ebb9	0.11031289
28	0xbd59bed9	-0.053160522
29	0x3db940fa	0.090455964
30	0x3dac08f3	0.084001444
31	0x3d2a101b	0.041519266
32	0xbd413517	-0.04716977
33	0x3de3b793	0.111189984
34	0x3de64da1	0.11245275
35	0x3de8ade5	0.11361293
36	0x3ddbbf9f	0.10729908
37	0x3e1c98a3	0.15292601
38	0x3d184ecf	0.037184533
39	0x3dd67c42	0.10472919
40	0xbd3eb1b7	-0.0465562
41	0x3dbe9cff	0.093072884
42	0xbd51c50d	-0.051213313
43	0xbd209e97	-0.039213743
44	0xbd49e7a9	-0.049293194
45	0xbd08575f	-0.03328645
46	0x3dbbd634	0.091717154
47	0x3cfd3fa2	0.030914132
48	0xbd11afff	-0.035568234
49	0xbbd2acdb	-0.0064292974
50	0x3dedd25d	0.11612389
51	0xbd54a8d2	-0.051918812
52	0x3ddd0255	0.107914604
53	0xbd215f0c	-0.039397284
54	0x3ddee844	0.10884145
55	0x3dfe1afe	0.12407492
56	0x3deb777f	0.114974014
57	0x3de3b1a6	0.11117868
58	0x3db954a7	0.09049349
59	0xbd34572b	-0.044028442
60	0x3d5fabfa	0.05460737
61	0xbd59977c	-0.053122982
62	0x3e0e1c84	0.13878065
63	0x3de13f21	0.10998369
64	0x3de12142	0.109926715
65	0xbd4a833c	-0.04944156
66	0xbcd970e1	-0.026543083
67	0xbd0dde41	-0.034635786
68	0x3dae62ff	0.08514976
69	0xbd578803	-0.052619945
70	0xbd3bb956	-0.045831047
71	0xbd04b2af	-0.03239697
72	0x3dd3ce64	0.103421
73	0x3ddad494	0.10685077
74	0xbd3ec9bc	-0.046579108
75	0x3e080d80	0.132864
76	0x3dd6d2e8	0.10489446
77	0x3de07272	0.10959329
78	0x3dd06d4c	0.10177097
79	0x3de912b7	0.11380523
80	0x3dced5bb	0.100993596
81	0x3db85539	0.0900063
82	0x3dcc6bef	0.09981524
83	0x3de70228	0.11279708
84	0x3de5953c	0.11210105
85	0xbd0d0e60	-0.034437537
86	0x3e01e8bd	0.12686439
87	0xbd39beb3	-0.04534788
88	0x3dac421a	0.08411045
89	0xbd466f4e	-0.048445992
90	0x3dec25b5	0.115306295
91	0x3dfd464b	0.12366923
92	0x3dd6a240	0.104801655
93	0xbd6f114c	-0.058366105
94	0xbe2b8e24	-0.16753441
95	0x3dd9ff0c	0.106443495
96	0x3dd81d39	0.10552449
97	0x3dbcc231	0.092167266
98	0xbd92130b	-0.071325384
99	0x3dae9514	0.08524528
100	0x3dc00689	0.093762465
101	0x3e44eeb3	0.19231682
102	0x3dee86b3	0.116467856
103	0xbd1d8c31	-0.038463775
104	0xbd672d93	-0.056439947
105	0xbe0b8e8d	-0.13628598
106	0x3de2963c	0.11063811
107	0xbce7bf49	-0.028289454
108	0xbd2c0a3d	-0.04200195
109	0x3de674fe	0.11252783
110	0x3db29b42	0.08721019
111	0xbd4cac41	-0.04996896
112	0xbc434c70	-0.01192008
113	0xbd0be5c0	-0.034154654
114	0x3bc5ac4d	0.0060325027
115	0xbc19da6c	-0.009390455
116	0x3dd94674	0.10609141
117	0xbe5615df	-0.2090678
118	0xbc5c4ce4	-0.0134460665
119	0xbd3c6a1f	-0.045999642
120	0x3dde3cee	0.10851465
121	0x3de1c62a	0.11024125
122	0xbda4a541	-0.08039332
123	0x3deb7bff	0.1149826
124	0x3dd2c8ae	0.10292183
125	0x3e037f88	0.12841618
126	0x3dc4b66a	0.09605105
127	0x3c1b5bdb	0.009482349
128	0xbd29d788	-0.041465312
129	0xbd351037	-0.044204917
130	0xbc92effa	-0.017936695
131	0xbd8486c8	-0.0647102
132	0x3db83a28	0.089954674
133	0xbc9cd8cb	-0.019146344
134	0x3ded4259	0.115849204
135	0xbd8e534b	-0.069494806
136	0x3dea2f30	0.114347816
137	0xbd283441	-0.04106546
138	0xbc2a7220	-0.010403186
139	0x3de3246a	0.1109093
140	0xbccd85d3	-0.025088226
141	0x3deb437b	0.1148748
142	0x3d7ff6af	0.062491115
143	0xbce0c98d	-0.027439857
144	0x3de0d7ab	0.109786354
145	0x3dfe5880	0.12419224
146	0xbd4783b2	-0.04870958
147	0xbd522ab3	-0.051310252
148	0xbd3532f9	-0.044238064
149	0x3de4272f	0.11140286
150	0x3df10a08	0.117694914
151	0xbcca2607	-0.024676336
152	0x3dd5e419	0.10443897
153	0xbdfcb7bb	-0.12339731
154	0x3df325aa	0.11872418
155	0x3c92e06d	0.01792928
156	0xbd2281d4	-0.039674595
157	0xbd259b1f	-0.040431138
158	0x3e061e81	0.13097574
159	0xbd42326f	-0.04741138
160	0xbd40a92b	-0.04703633
161	0x3dc9fcce	0.09862672
162	0x3dc1107a	0.09426971
163	0xbd377e4b	-0.044798177
164	0xbd35a033	-0.04434223
165	0x3dd0f890	0.102036595
166	0xbc18c8df	-0.009325235
167	0x3dedb627	0.116070084
168	0x3de340f8	0.11096376
169	0xbd3e0a7a	-0.04639671
170	0xbd2bd8a7	-0.041954663
171	0x3dc8dbba	0.098075345
172	0x3dfa805d	0.122315146
173	0xbd0e5a7c	-0.03475426
174	0xbd4d0f1b	-0.050063234
175	0x3d8c4923	0.06849887
176	0x3def2c59	0.116783805
177	0x3db44081	0.08801366
178	0x3dd97779	0.10618491
179	0xbd1c234a	-0.03811959
180	0xbd4aeccc	-0.049542233
181	0xbd38818f	-0.04504543
182	0x3df4fa67	0.11961823
183	0x3d9ceb3c	0.07662055
184	0xbd25a879	-0.04044387
185	0xbd47572e	-0.048667125
186	0x3da041ef	0.07825076
187	0x3dc25c1d	0.094902255
188	0x3df11c8e	0.117730245
189	0xbd385155	-0.04499944
190	0x3dfa4e91	0.122220166
191	0xbd43b034	-0.047775462
192	0x3dd1f400	0.102516174
193	0x3df6560c	0.12028131
194	0xbd2b4475	-0.041813333
195	0xbd3c4068	-0.04595986
196	0xbd4e8cd7	-0.050427284
197	0x3df538a3	0.11973693
198	0xbc190466	-0.009339428
199	0xbd4e944c	-0.050434396
200	0xbd2eccf4	-0.042675927
201	0xbd213c5c	-0.039364204
202	0xbd4ec16d	-0.050477434
203	0xbd3151ee	-0.043291025
204	0x3da635c9	0.081157275
205	0xbd2bc641	-0.041937117
206	0x3de9d027	0.11416655
207	0x3dcdcd56	0.1004893
208	0x3dc067df	0.09394812
209	0x3df20b82	0.11818601
210	0xbd5ed1e6	-0.054399393
211	0x3d365325	0.044512887
212	0x3e026d4f	0.1273701
213	0xbd4b2a6c	-0.049601004
214	0xbd434870	-0.047676504
215	0x3da079e2	0.07835747
216	0x3d41ba4f	0.04729682
217	0x3dc003bf	0.093757145
218	0xbd285c16	-0.041103445
219	0x3dee103e	0.11624192
220	0xbcb6ce3b	-0.022315135
221	0x3dd52df0	0.104091525
222	0x3dcbea22	0.09956767
223	0x3d99e977	0.07515233
224	0x3d4f1e46	0.05056598
225	0xbd616bb4	-0.055034354
226	0x3ddf49a6	0.10902719
227	0x3dce0d88	0.10061175
228	0x3debf597	0.11521452
229	0x3df30959	0.11867017
230	0xbd2bd9f3	-0.0419559
231	0xbd3fcbad	-0.0468251
232	0xbd45f258	-0.04832682
233	0x3dec3352	0.11533226
234	0xbd45cc4a	-0.04829053
235	0x3ddc7365	0.10764197
236	0xbd1a1f33	-0.03762741
237	0x39cc1da9	0.0003893201
238	0xbd96d8b0	-0.073655486
239	0x3dd66fb5	0.10470525
240	0x3dd67988	0.10472399
241	0xbd2f6eaa	-0.042830147
242	0x3e0b03af	0.13575624
243	0xbd194a19	-0.03742418
244	0x3dddf5bb	0.10837885
245	0xbd1c8266	-0.038210295
246	0x3df83a7c	0.1212053
247	0x3df57349	0.119848795
248	0xbd52df30	-0.05148238
249	0xbd5687bc	-0.05237554
250	0x3ddd1e3c	0.107967824
251	0xbd3884bf	-0.04504847
252	0xbd431673	-0.04762883
253	0xbd4d0aa9	-0.050058994
254	0x3ddd1de6	0.10796718
255	0xbd1469b4	-0.03623362

regressor.3.weight f4 [64, 256]
0	0xbdea90c2	-0.114533916
1	0xbd91c3b4	-0.071174055
2	0x3da91c28	0.082573235
3	0x3ccbdc10	0.024885207
4	0x3d18a89d	0.037270177
5	0x3d80529a	0.06265755
6	0x3d931aad	0.071828224
7	0x3d894892	0.06703295
8	0x3d9af9ac	0.075671524
9	0x3e12f172	0.14349917
10	0xbc2aa662	-0.010415645
11	0x3d819651	0.06327499
12	0x3cafc18a	0.021454591
13	0x3d28a694	0.041174486
14	0x3dadc4c7	0.08484798
15	0xbd9ed60d	-0.07755671
16	0x3de52663	0.11188962
17	0x3db4b48a	0.088234976
18	0xbc843f0f	-0.01614335
19	0x3beb260f	0.007176168
20	0xbd23fe9d	-0.04003774
21	0xbbbd6da2	-0.0057808915
22	0xbdd9f103	-0.106416725
23	0x3ab02efa	0.0013441734
24	0x3d722ce7	0.059124853
25	0xbda2fcca	-0.07958372
26	0xbd085973	-0.03328843
27	0xbb17ab85	-0.0023143005
28	0xbd9b608d	-0.07586775
29	0x3d1221a7	0.035676625
30	0xbc3b866b	-0.011445622
31	0xbd5ce469	-0.053928766
32	0xbd032d8f	-0.03202587
33	0xbd233037	-0.039840903
34	0xbdfb1ceb	-0.12261375
35	0xbcc0b767	-0.023524953
36	0xbd84606a	-0.06463702
37	0xbdb463d6	-0.08808105
38	0xbd10f245	-0.035387296
39	0xbd21981d	-0.039451707
40	0xbdcd5a58	-0.10026997
41	0x3ddda7bd	0.10823009
42	0xbd70a3f7	-0.05875012
43	0x3d706043	0.058685552
44	0x3d83deb0	0.06438959
45	0x3d2fda3d	0.042932738
46	0xb9487d64	-0.00019120198
47	0xbd74a1d4	-0.059724644
48	0xbe07c9be	-0.13260552
49	0xbd094313	-0.033511233
50	0xbb43e089	-0.0029888472
51	0x3d222e42	0.039594896
52	0x3df592ae	0.119908676
53	0xbbb5a9a9	-0.0055439067
54	0xbd120a18	-0.035654157
55	0xbcb81f6d	-0.022475922
56	0x3d8e1596	0.06937711
57	0xbcd2a31b	-0.02571254
58	0xba9d7921	-0.0012014249
59	0xbdb701ae	-0.08935867
60	0x3db239ba	0.08702417
61	0x3d7ef376	0.0622439
62	0x3d791507	0.06081107
63	0xbdc266c7	-0.094922595
64	0x3dc6bba2	0.09703757
65	0x3c75f2e3	0.015011522
66	0xbd95d8c1	-0.07316733
67	0xbe049883	-0.12948804
68	0xbb950cba	-0.0045486363
69	0x3dc1ea02	0.094684616
70	0xbda1501d	-0.078766085
71	0xbd9f11ce	-0.07767068
72	0x3ccbcab1	0.024876924
73	0xbd1e0d0a	-0.038586654
74	0x3d18a723	0.03726877
75	0x3db0bff6	0.08630364
76	0x3db65ee8	0.08904821
77	0x3cc5b785	0.02413536
78	0x3d82205c	0.06353828
79	0xbc4c3c36	-0.012465527
80	0xbda92089	-0.08258159
81	0xbca92ab8	-0.020650253
82	0x3dca58aa	0.098801926
83	0x3c8cad0e	0.017172363
84	0x3cb830ec	0.022484265
85	0x3dd51f3a	0.104063466
86	0x3d9e8781	0.07740689
87	0xbd04955f	-0.032369014
88	0xbd06d481	-0.032917503
89	0x3d74f66c	0.05980532
90	0x3daa7354	0.08322778
91	0xbcdb8cb4	-0.02680049
92	0x3d860727	0.06544333
93	0xbd108651	-0.035284344
94	0xbd2aa699	-0.041662786
95	0x3c02e21b	0.007988478
96	0x3d6fb11d	0.058518518
97	0xbd06fe50	-0.032957375
98	0x3cad249a	0.021135617
99	0x3e0759a7	0.13217793
100	0x3d7a96ab	0.061178844
101	0xbce08ffa	-0.027412403
102	0xbb823c9b	-0.00397451
103	0xbda7e9f8	-0.08198923
104	0x3da5bea5	0.08093003
105	0x3d6a5fc8	0.05722025
106	0xbd6a248d	-0.057163764
107	0xbc2a5987	-0.010397322
108	0x3d993ca8	0.074822724
109	0x3d9d50ff	0.076814644
110	0xbd9b3203	-0.07577898
111	0xbd8d92a3	-0.06912734
112	0xbe062855	-0.13101323
113	0xbe00c705	-0.1257592
114	0xbd7826df	-0.060583945
115	0xbdd4731d	-0.103735186
116	0xbda0464e	-0.078259096
117	0xbd5f08ee	-0.054451875
118	0xbc6d2655	-0.014474471
119	0x3b7f3952	0.0038944078
120	0x3d8f0ca9	0.069848366
121	0xbdfaaa1a	-0.122394755
122	0x3c9ab06a	0.018882949
123	0x3bba6ac8	0.005688999
124	0x3d225304	0.03962995
125	0x3dcc278a	0.09968479
126	0x3cfa41fd	0.030549044
127	0x3d5ea39e	0.054355256
128	0xbcfc4008	-0.030792251
129	0x3d82a0fa	0.0637836
130	0x3d939620	0.072063684
131	0x3db5692a	0.08857949
132	0x3b24e60a	0.0025161528
133	0xbe1be929	-0.15225662
134	0xbd806554	-0.06269327
135	0xbccaefb4	-0.024772502
136	0xbd4b0ce7	-0.04957285
137	0x3e0b4b37	0.13602911
138	0xbd2f0b18	-0.04273519
139	0xbe17d88c	-0.148287
140	0xbe063270	-0.13105178
141	0x3d6f85c5	0.058477182
142	0x3d667013	0.056259226
143	0x3d0c6349	0.034274373
144	0x3b6f2c9d	0.0036495097
145	0xbda8493f	-0.082170956
146	0x3d2b90bb	0.041886073
147	0xbcaee7a8	-0.021350697
148	0x3d9bbcbe	0.07604359
149	0xbe0bfffd	-0.1367187
150	0x3e007261	0.12543632
151	0x3d2c1f93	0.0420223
152	0xbbc89339	-0.006121066
153	0x3c8cda5b	0.017193964
154	0x3d1f13f5	0.038837392
155	0xbd523352	-0.051318474
156	0x3df85330	0.12125242
157	0xbdef3fd4	-0.11682096
158	0xbd6ab59c	-0.057302102
159	0xbde5d508	-0.11222273
160	0xbd77a155	-0.060456593
161	0xbd531a26	-0.05153861
162	0xbe0da385	-0.13831909
163	0xbce2156a	-0.027598102
164	0x3d26ed3b	0.040753584
165	0xbdd8643a	-0.10565992
166	0xbcf0b6b7	-0.029384
167	0x3ce8181c	0.028331809
168	0xbd8f7f85	-0.07006744
169	0x3d4b9fa3	0.04971279
170	0x3d57a951	0.052651707
171	0xbd9fb647	-0.077984385
172	0xbdab4d15	-0.083643116
173	0xbdedb90a	-0.11607559
174	0xbbc7e078	-0.006099757
175	0xbd3a5210	-0.045488417
176	0xbd74f82a	-0.05980698
177	0x3d570ef5	0.0525045
178	0x3d5de081	0.05416918
179	0xbd1b4513	-0.03790767
180	0xbd7b1b00	-0.061305046
181	0xbde20c26	-0.110374734
182	0xbd61e504	-0.055150047
183	0xbe079688	-0.13241017
184	0xbe1a4c4c	-0.15068167
185	0xbdc98f69	-0.098418064
186	0x3d941bab	0.0723184
187	0xbde277d3	-0.11058011
188	0xbd90fde8	-0.07079679
189	0xbdbb564c	-0.09147319
190	0x3d069ba2	0.032863267
191	0xbd9bd736	-0.076094076
192	0xbd5fdbb5	-0.05465289
193	0xbd202305	-0.039095897
194	0x3dbbf03d	0.09176681
195	0xbd1dde40	-0.038542032
196	0xbc253c1b	-0.010085131
197	0xbde6d778	-0.11271566
198	0x3c58ca4f	0.013231828
199	0xbc86c769	-0.016452508
200	0x3d3130bf	0.04325938
201	0x3d7051cb	0.058671754
202	0x3dc6ac15	0.09700791
203	0xbdb7e175	-0.089785494
204	0x3dc0ddeb	0.094173275
205	0x3d891cff	0.06694984
206	0xbc900edc	-0.01758521
207	0x3d9fe3a6	0.07807092
208	0xbd95f0d2	-0.073213235
209	0x3ddebaa8	0.108754456
210	0x3dd7d32e	0.10538326
211	0xbce45257	-0.027871294
212	0xbbc6025b	-0.0060427613
213	0x3c6bdd96	0.014396092
214	0x3daa5fde	0.083190665
215	0xbd261fdf	-0.04055774
216	0x3b9045f5	0.004402871
217	0x3db282e6	0.08716373
218	0x3dd22578	0.10261053
219	0xbdafd69d	-0.08585856
220	0xbcdbc44a	-0.026826996
221	0xbd57c0bd	-0.052674044
222	0x3d967d04	0.073480636
223	0xbe0a8a78	-0.13529384
224	0xbd5af9b9	-0.05346081
225	0x3beb5a2d	0.0071823807
226	0x3c4d1712	0.012517707
227	0xbdcf7e5e	-0.101315245
228	0x3d648dfa	0.055799462
229	0x3cb0762e	0.021540727
230	0x3db768cf	0.089555375
231	0x3deb4ef7	0.11489671
232	0x3de49d02	0.11162759
233	0xbe0906c4	-0.13381487
234	0xbd6887ab	-0.056770008
235	0xbcf337a5	-0.02968962
236	0x3d09c7de	0.033637874
237	0xbcc44c06	-0.023962032
238	0xbddaea1e	-0.106891856
239	0x3dab24a9	0.08356602
240	0xbe07e026	-0.132691
241	0xbc297c60	-0.010344595
242	0xbdf3f38b	-0.119116865
243	0x3dda85c5	0.10670046
244	0xbe019386	-0.12653932
245	0x3ce94d09	0.028479116
246	0x3c7a9e94	0.015296597
247	0xbe11ef0c	-0.14251345
248	0x3cf36c9a	0.029714871
249	0x3d85a39c	0.06525347
250	0x3da89439	0.08231396
251	0xbc2ac39d	-0.010422614
252	0x3e0289b1	0.12747838
253	0x3d467f3b	0.04846118
254	0x3d4c4e1b	0.049879175
255	0x3b7e21df	0.0038777513

regressor.3.bias f4 [64]
0	0xbd3a3522	-0.045460828
1	0x3dbf2f8e	0.09335242
2	0xbd310d10	-0.043225348
3	0x3dc455a5	0.09586648
4	0xbd1f079f	-0.038825627
5	0xbd39ece8	-0.045391947
6	0x3df1343c	0.11777541
7	0xbd6eea9a	-0.058329202
8	0xbd84cc51	-0.06484283
9	0xbddc29c5	-0.107501544
10	0xbd68ce09	-0.056837115
11	0x3dc5c58b	0.09656819
12	0x3de4cc80	0.11171818
13	0xbd2005b2	-0.03906793
14	0xbd972e15	-0.07381836
15	0x3dacd1f8	0.08438486
16	0xbd0e7c3b	-0.034786444
17	0xbd766a58	-0.06016001
18	0x3da63084	0.08114722
19	0xbd1169f7	-0.035501447
20	0xbd45731b	-0.048205476
21	0x3dc84236	0.09778254
22	0x3dbc9d62	0.09209706
23	0xbd72a8f4	-0.059243158
24	0xbd54a420	-0.051914334
25	0xbd393b9e	-0.04522287
26	0xbd2c1f30	-0.04202193
27	0xbd200782	-0.03906966
28	0xbd31e40f	-0.043430384
29	0xbd335717	-0.043784227
30	0xbd3f7252	-0.046739884
31	0xbd350ad4	-0.04419978
32	0xbd8f40f9	-0.069948144
33	0xbd93bf71	-0.07214249
34	0xbd440252	-0.047853775
35	0x3dd33f07	0.10314756
36	0xbd4fd7d2	-0.05074293
37	0xbd22fcf3	-0.039792012
38	0xbd7f0ab4	-0.062266067
39	0x3e09ff2b	0.13476245
40	0x3dbef6c7	0.09324413
41	0xbd8ef51e	-0.06980346
42	0xbd5476f2	-0.051871248
43	0x3de91be0	0.1138227
44	0x3de3d187	0.111239485
45	0x3dbf9ea9	0.09356434
46	0xbd29e548	-0.041478425
47	0xbd8baae8	-0.06819707
48	0xbdd532b9	-0.10410065
49	0xbd8cd94d	-0.06877384
50	0xbd70a5c8	-0.05875185
51	0xbd417747	-0.047232892
52	0xbd0661f7	-0.03280827
53	0x3db8a072	0.090149775
54	0x3db04096	0.08606069
55	0xbd2b8c42	-0.041881807
56	0x3df8f532	0.12156142
57	0x3de95db1	0.11394823
58	0xbd3bd0ba	-0.045853354
59	0xbd1c7683	-0.03819896
60	0xbd59777d	-0.05309247
61	0x3dccf29a	0.1000721
62	0xbd2f4f32	-0.042800136
63	0x3ddc91b4	0.10769978

regressor.5.weight f4 [1, 64]
0	0xbea5343b	-0.3226641
1	0x3dcaa704	0.09895137
2	0xbe82357f	-0.2543144
3	0x3df059e4	0.11735895
4	0xbe467fe0	-0.19384718
5	0xbe8f1a2c	-0.27949655
6	0x3dc01107	0.09378248
7	0xbeb85404	-0.360016
8	0xbe937e19	-0.28807142
9	0xbe6a8865	-0.22903593
10	0xbed211f5	-0.41029325
11	0x3e8b89b3	0.27253494
12	0x3da97b1d	0.08275435
13	0xbebf9ed2	-0.37425858
14	0xbd975ab0	-0.07390344
15	0x3dd90cff	0.10598182
16	0xbedcbe60	-0.43113995
17	0xbe6dda6d	-0.23227854
18	0x3dd3b56a	0.10337336
19	0xbed51a15	-0.41621462
20	0xbe7bf1ec	-0.24604005
21	0x3e428930	0.18997645
22	0x3ec164f5	0.37772337
23	0xbe3670e7	-0.17816506
24	0xbe44df70	-0.1922586
25	0xbe5f56cd	-0.21810456
26	0xbe678dc1	-0.22612669
27	0xbeab3738	-0.33440566
28	0xbe751aa1	-0.2393594
29	0xbe93b95d	-0.28852358
30	0xbe3b716e	-0.18304989
31	0xbe5cc77d	-0.21560474
32	0xbe023f8e	-0.12719557
33	0xbea707d2	-0.32623154
34	0xbe519693	-0.20467596
35	0x3e81009c	0.25195777
36	0xbeef0a26	-0.4668743
37	0xbe93d88b	-0.28876147
38	0xbe0bc94c	-0.13651007
39	0x3e682c4c	0.22673148
40	0x3ebf5bdd	0.37374774
41	0xbe5b12b1	-0.21393849
42	0xbebc83ee	-0.36819404
43	0x3e9501cb	0.2910293
44	0x3e811fff	0.25219724
45	0x3e60e905	0.2196389
46	0xbe795261	-0.24347831
47	0xbe8acf0a	-0.27111083
48	0xbea9d6f3	-0.33171806
49	0xbe64c5df	-0.22341107
50	0xbea50b38	-0.32235122
51	0xbef88522	-0.48539072
52	0xbeade797	-0.33965752
53	0x3eb1e856	0.3474757
54	0x3e005538	0.12532508
55	0xbe3888b1	-0.18020894
56	0x3dec6ec6	0.11544566
57	0x3db6813b	0.089113675
58	0xbed16257	-0.4089534
59	0xbe87ffb3	-0.2656227
60	0xbe727bb9	-0.23680009
61	0x3e64b9fb	0.22336571
62	0xbe3f696a	-0.18692556
63	0x3e94697e	0.28986734
