src/simple-FT_ver1.00/data/experiments/fecu_to_fefe_finetune_target256_20260116_173643/models/pretrained_model.pth (torch, 225349 bytes, 9 tensors)

encoder.0.weight f4 [256, 2]
000000 d9 2e 29 3e b5 4b e5 3d 73 eb bb bd e7 ff 0a be
       0.16521777 0.111960806 -0.09175768 -0.13574181
000010 a5 ea 89 3d 6e 8b 03 be ab b1 26 3d b4 22 30 bd
       0.06734208 -0.12846157 0.04069678 -0.043001845
000020 fc 63 7e 3c a6 6c 8b bd ae a1 2a 3e 18 51 49 3e
       0.015526768 -0.068078324 0.16663238 0.19659841
000030 2f 27 91 be 43 7d 42 3d f1 7d ee bd f9 68 dc bd
       -0.28350207 0.04748274 -0.11645115 -0.107622094
000040 7e f1 ce 3d 49 97 66 bd 6d 3b e2 bd 8a 99 a6 bd
       0.10104655 -0.05629662 -0.11046491 -0.08134754
000050 41 a4 30 3e 58 3b 26 be 30 3c 6e bd 48 b8 a6 bd
       0.17250158 -0.16233575 -0.058162868 -0.081406176
000060 95 44 8f 3d fe 7c 8c 3d f8 82 60 be d2 94 58 bd
       0.06995503 0.06859778 -0.2192496 -0.0528763
000070 12 57 28 3c 6f da b9 bd 8f a4 88 bd f2 b2 84 3b
       0.010274665 -0.09074866 -0.06672012 0.0040496523
000080 75 d3 76 3e 17 de 6d 3e 0d 19 05 be 2f 12 53 bd
       0.24104102 0.23229252 -0.12997837 -0.051531013
000090 b2 f0 4e bd 71 20 ce bd 22 e4 fb 3d 9f 95 3d 3d
       -0.050522514 -0.100647815 0.12299372 0.046285268
0000a0 73 67 37 3c a9 dc bd 3d a0 97 7c bb 96 f4 8f 3d
       0.011194098 0.09270603 -0.0038542524 0.07029073
0000b0 16 30 df 3d a5 a5 1f be a8 83 61 bc 11 be 8d 3d
       0.108978435 -0.15590532 -0.013764299 0.06921018
0000c0 80 2e 22 be 6f 52 93 bd 89 86 c1 3d 15 da 9f 3c
       -0.15838051 -0.07193457 0.09449489 0.01951317
0000d0 86 83 3e be 46 55 2f 3d 52 18 19 3e f0 09 84 3d
       -0.1860486 0.042805932 0.14950684 0.06447208
0000e0 c8 4c 02 be 83 a0 fa bd 83 3b a1 bd 0e bc fe bc
       -0.12724602 -0.122376464 -0.07872679 -0.03109553
0000f0 f3 c3 1a 3e 5f 23 11 bc 23 79 10 3d 6d b6 54 3d
       0.15113811 -0.008858531 0.035271775 0.051931787
000100 6c 31 31 be 79 0a e5 bc bb 32 d5 3d ba 34 8b bd
       -0.17304009 -0.027959095 0.10410067 -0.06797166
000110 5b e1 41 3b 98 5d 2a bd 79 1b 1a be 9f 0f 00 be
       0.0029583785 -0.041593164 -0.15049542 -0.12505959
000120 e7 9c 5e 3c 0c e2 0d be 1e c5 5b 3e 95 c2 0e 3e
       0.013587213 -0.13855761 0.21461913 0.13941415
000130 17 e8 2b 3e e4 66 d2 bd 6f 7c e6 3d 63 53 2b be
       0.16787754 -0.10273531 0.112542026 -0.16731028
000140 84 0b 90 3d 5b 64 87 3d 85 0f e4 3c e1 3c 92 bd
       0.070334464 0.06610938 0.027839432 -0.07140518
000150 d3 5e 2a bd 5e 7e 4a bd bf ab 35 3e d1 e6 af 3d
       -0.041594338 -0.04943692 0.17741297 0.085889466
000160 58 27 05 bd 8e 78 0f bd f6 90 95 bd 68 12 82 bb
       -0.032508224 -0.03502708 -0.0730304 -0.0039694794
000170 c8 10 76 3e 2a 33 34 3e e2 de 0b 3e d9 d8 de bd
       0.24029839 0.17597643 0.13659242 -0.10881204
000180 ec ef 9d 3d 11 05 b7 3d eb d3 5f 3e 8c bc e4 3d
       0.07711777 0.08936513 0.21858184 0.11168775
000190 02 18 0f 3e f2 c3 0e be 1e 7f a2 be 7f 58 49 bd
       0.13974002 -0.13941935 -0.31737608 -0.049156662
0001a0 a9 64 06 3e 55 56 f6 3d 62 f7 61 be 86 c5 77 3d
       0.13124336 0.12028185 -0.22067025 0.060491107
0001b0 68 fc 4e be 47 9d 05 3e 84 a9 01 be 35 c5 93 3d
       -0.20213473 0.13048278 -0.12662321 0.07215349
0001c0 48 d4 eb 3d 3c 4d 01 3e 58 90 c1 3d 98 2d b8 bd
       0.11515099 0.12627119 0.094513595 -0.08993071
0001d0 c1 19 f9 bd e0 11 08 be 29 f8 2c 3c 0f 84 f9 bc
       -0.12163115 -0.13288069 0.010557213 -0.030458478
0001e0 51 75 51 3d 66 d5 16 be 2d 84 14 be 49 8e c5 bc
       0.051137272 -0.14729843 -0.14503546 -0.024115698
0001f0 eb 36 da bd 4f 2d 34 bd 50 35 2e be ce 60 22 be
       -0.10655006 -0.043988522 -0.17012525 -0.1585724
000200 7b 7e 12 be 1d fc a3 bd d9 6a e3 3c da e3 ca bd
       -0.14306061 -0.08007071 0.02776091 -0.099067405
000210 bc a0 21 be d0 41 d7 bc 7d 30 87 3e 45 72 3a 3e
       -0.15783972 -0.026276499 0.2640418 0.18207653
000220 6b 34 c8 bd 5f 01 0a be 28 ea 2c 3d 0e a5 10 be
       -0.09775623 -0.13477086 0.042215496 -0.14125463
000230 e5 88 88 be 33 5d 4f bd 6a ba 82 3d db 39 a3 bd
       -0.26666942 -0.05062599 0.06383212 -0.079700194
000240 28 7b a1 3c f1 8c 31 3c a3 e1 ab bd e6 bc 27 ba
       0.019712046 0.010836826 -0.08392646 -0.00063986925
000250 42 a7 c6 3d 03 02 cf bd 2c 26 6d bd 58 34 07 be
       0.09699871 -0.101078056 -0.05789773 -0.13203561
000260 68 fb b9 bd 09 43 23 be f1 af f6 bd 87 77 df bd
       -0.09081155 -0.1594354 -0.12045277 -0.1091147
000270 f2 1c ab 3c ea 77 3e 3c 1b 03 6c 3d 33 b1 e1 3d
       0.020887826 0.011625269 0.05762015 0.11020126
000280 a2 23 5d 3c 04 a9 3e bc f6 64 1e 3b 23 25 b1 bd
       0.013497265 -0.011636976 0.0024169064 -0.086496614
000290 69 bf 28 ba 0c 41 26 3d bb ff 75 3e 7f 1c 4c 3e
       -0.0006437214 0.040589377 0.24023335 0.19932745
0002a0 9a fa 94 be 1f e3 85 bd 0c 49 24 3e da 74 97 bc
       -0.29097444 -0.065374605 0.1604349 -0.018488336
0002b0 44 d5 a6 be 77 29 41 3c 38 5d 83 bc 8c 0b 92 bd
       -0.32584584 0.011789671 -0.016035661 -0.07131109
0002c0 4e 85 68 be d6 6a 85 3d 4a 56 f8 3d ba 3a 00 bc
       -0.22707102 0.06514518 0.12125833 -0.0078265015
0002d0 19 e1 16 3e 69 50 97 3d 66 8d 33 be 39 f5 ba bd
       0.14734305 0.07388384 -0.17534408 -0.09128804
0002e0 4f df 1b bd 99 1f 9f 3c ec 32 39 be d3 22 8f 3c
       -0.03805476 0.019424247 -0.18085831 0.01747266
0002f0 a3 78 83 bd 1f 87 96 bd 03 da 54 3d 79 aa 32 bb
       -0.06419494 -0.07349991 0.051965725 -0.0027262254
000300 bb 1e db ba 79 ba a1 bd a2 16 d4 3d a2 7c a5 3d
       -0.0016717532 -0.07896895 0.10355879 0.080804124
000310 c0 22 cc bb 16 64 0a bc 32 37 25 3e f9 57 40 bd
       -0.0062297285 -0.008446714 0.16134337 -0.046958897
000320 f8 16 4f bd d1 f2 b1 bd 97 0b f5 3d 64 a9 c8 bd
       -0.050559014 -0.08688892 0.11965101 -0.09797934
000330 87 ce c3 3d 24 be 6d bd 97 21 bf 3d 41 c7 71 3d
       0.09560876 -0.05804266 0.09332579 0.059027914
000340 c5 33 bf 3d 1f 77 c1 bb 84 6c 13 bd 26 2d db 3c
       0.09336046 -0.005904093 -0.03599216 0.026754927
000350 60 e1 1b be 8b 73 60 3c b3 12 e9 bb c0 ba 3b 39
       -0.15222692 0.013699423 -0.007112825 0.0001790328
000360 7d 7d 27 3e ee 56 09 be 8a a3 3a 3e d4 43 d7 3d
       0.16356464 -0.13412067 0.18226448 0.10510984
000370 e5 41 2d be ef ac 83 3d a7 9f 6c bc 68 36 fd bd
       -0.16919668 0.06429469 -0.014442361 -0.12363893
000380 b4 fa 2c be d6 af 2f bd 7e 3a 48 be 39 62 53 bc
       -0.1689251 -0.0428923 -0.19553563 -0.012901836
000390 76 94 d6 3d fa a9 d9 bd 98 93 e3 3d fc 8a d7 3c
       0.104775354 -0.106281236 0.11112136 0.02631139
0003a0 5a 66 5d 3e 23 c5 28 3e 37 fb 12 be 40 f7 d5 bd
       0.21621075 0.16481452 -0.14353643 -0.1044755
0003b0 67 31 b5 be c3 a5 24 be 79 08 79 3d 7e ea d8 3d
       -0.35389253 -0.16078858 0.060799096 0.10591601
0003c0 93 0f 21 3e 39 48 19 3d de 21 ac bd b0 3b cf b9
       0.15728597 0.037422393 -0.08404897 -0.00039526587
0003d0 a1 ca f5 3d c8 ec 05 3e 7a a6 fa 3d 4d 86 fc bd
       0.12001539 0.13078606 0.12238784 -0.12330303
0003e0 b8 26 44 bd 87 f5 a4 bc f8 1a 0c 3d c2 fd 14 be
       -0.047888488 -0.020136608 0.034205407 -0.14549926
0003f0 a8 b6 24 3e 65 ff 0d 3e 54 e2 11 3e 04 b1 96 3c
       0.16085303 0.13866957 0.14246494 0.018394955

encoder.0.bias f4 [256]
000000 1a 17 f9 bd 24 90 b2 3d f1 a7 ae 3d f8 f7 c7 3d
       -0.121626094 0.08718899 0.08528126 0.09764093
000010 1c bc bb 3d dd 4d 03 be 16 66 14 be 28 78 b2 3d
       0.091667384 -0.12822671 -0.14492068 0.08714324
000020 05 db db 3d 74 03 92 3d a3 73 f1 3d f0 cc 70 3d
       0.10735134 0.07129565 0.11789634 0.058789194
000030 d4 d1 0d 3e d7 b1 1a be 7c a9 9b 3d b3 68 fb bd
       0.13849574 -0.15106903 0.07600686 -0.12275829
000040 45 f2 f4 bd a6 5a 6b 3d 82 ad 9c 3d 12 6b 14 3e
       -0.11960272 0.057459496 0.076502815 0.14493969
000050 0f dc e8 bd ea e3 ec bd ae fd c9 3d 16 2f f3 bd
       -0.11370098 -0.11566909 0.09862839 -0.11874215
000060 be f5 0b be 37 59 ed bd e6 32 e5 bd 67 2c dc bd
       -0.13667962 -0.11589282 -0.11191349 -0.107506566
000070 0a 46 a5 3d a0 11 de bd ab 8b 15 3e 20 3a f2 bd
       0.080699995 -0.108432055 0.1460406 -0.11827493
000080 93 43 ba 3d e3 c7 cc 3d 5c 40 e4 bd 09 a8 9d 3d
       0.0909492 0.09999063 -0.11145088 0.07698066
000090 b9 2f be 3d 60 a2 dc bd 28 68 ed 3d 08 f0 cc 3d
       0.09286446 -0.10773158 0.11592132 0.1000672
0000a0 f2 ff 11 3e 83 3c bc 3d cb 36 d2 3d 66 43 ea bd
       0.14257792 0.09191229 0.10264357 -0.114386365
0000b0 08 75 c7 3d 67 9c e9 bd 2e 0c 04 be 35 db e8 3d
       0.09739119 -0.114067845 -0.12895271 0.113699354
0000c0 2b 71 a4 bd 55 3e cd bd 76 37 e7 3d 0a b2 2a be
       -0.080293976 -0.100216545 0.11289875 -0.16669479
0000d0 b2 d0 f9 bd 26 c8 0c be b3 7d f3 3d ba 8c f7 bd
       -0.121980086 -0.13748226 0.118892096 -0.12087388
0000e0 e1 5d 04 be 7f 9d 6c 3d f0 c5 88 3d 59 27 dc 3d
       -0.12926437 0.057767387 0.066783786 0.107496925
0000f0 1d 3a d2 3d 13 39 ac 3d 37 b6 a2 3d 4f ae 74 3d
       0.102649905 0.084093235 0.07944911 0.059736546
000100 0e 80 ac 3d 85 3a c1 3d d8 77 b8 3d 10 1d eb bd
       0.08422862 0.0943499 0.090072334 -0.114801526
000110 f8 28 ec 3c 6f 81 e0 3d eb f5 26 be 08 42 c4 3d
       0.02882813 0.109621875 -0.16304748 0.09582907
000120 cb b2 d3 3d a7 19 ed bd cf f6 d3 3d b3 ff 20 3d
       0.103368364 -0.115771584 0.103498094 0.039306354
000130 0a bb b3 3d 8e 91 b8 3d 3f b0 bf 3d 72 11 c5 bd
       0.08775909 0.09012137 0.09359788 -0.09622468
000140 d6 2c e3 bd 42 2b d8 bd 25 f8 ee bd ce 2e e1 bd
       -0.11092536 -0.10555126 -0.116684236 -0.109952554
000150 42 f0 37 be a9 29 11 3e ac 08 2a be ad 80 8c 3d
       -0.17962745 0.14176048 -0.1660487 0.068604805
000160 a0 f0 ed bd a7 fc 07 be 33 00 af bd 47 99 51 3d
       -0.11618161 -0.13279973 -0.0854496 0.051171567
000170 fe 7c d3 3d 85 34 06 be b0 80 c5 3d d9 7b d6 3d
       0.10326575 -0.13105972 0.09643686 0.10472841
000180 36 7f d2 3d 98 05 f8 bd 37 d8 ea bd 30 07 09 3e
       0.1027817 -0.12110442 -0.11467021 0.13381648
000190 d3 10 b3 3d e3 a2 d5 3d 8e 87 e6 3d 6f 72 1e 3e
       0.08743443 0.10431459 0.11256324 0.1547334
0001a0 14 56 02 be 0e 22 cd 3d 4b bc 00 be 6a 6a eb bd
       -0.12728149 0.10016261 -0.12571828 -0.11494906
0001b0 0d f2 b9 3d 69 3d d5 bd da 46 ec bd f4 29 c3 3d
       0.09079371 -0.10412104 -0.11536951 0.09529486
0001c0 ef 09 02 be 4c 0f 81 3d 45 25 82 3d 33 27 0a 3e
       -0.12699102 0.06301746 0.06354765 0.13491516
0001d0 e3 f9 e3 bd 02 f7 0a be b2 f3 3b be b0 c9 e3 bd
       -0.111316465 -0.13570789 -0.18354681 -0.11122453
0001e0 26 f2 22 3e a7 24 de bd ff ce f1 bd cc 4d eb 3d
       0.15912685 -0.10846835 -0.118070595 0.11489448
0001f0 c2 ac c1 3d 1b ac d2 3d 72 c1 f5 bd 06 6f 0a 3e
       0.09456779 0.10286733 -0.119997874 0.13518915
000200 a9 4b 08 3e 45 e7 d5 3d a9 51 f2 bd 16 a0 cf 3d
       0.13310112 0.10444502 -0.11831982 0.10137956
000210 b1 18 1e be 4f 0f e8 bd 64 fe 9f 3d 85 ac e0 bd
       -0.15439107 -0.11331045 0.07812193 -0.109704055
000220 48 24 e4 3d 25 88 f4 3d a3 99 92 3d 93 cf f5 bd
       0.111397326 0.1194003 0.0715821 -0.12002482
000230 5e c5 ed 3d 3e 89 d1 3d cd 27 d3 3d 61 0c fa 3d
       0.116099104 0.10231255 0.10310326 0.12209392
000240 62 db ab 3d 78 37 d9 bd f8 3d ff bd 69 2d 9e 3d
       0.08391453 -0.10606283 -0.124629915 0.07723505
000250 08 92 fa bd dc 63 d5 3d ca 3a d1 3d c8 59 f1 bd
       -0.122348845 0.10419437 0.10216291 -0.117847025
000260 c1 e1 c6 3d 0c 92 ed 3d 07 35 ca 3d b9 a5 c5 3d
       0.09711028 0.11600122 0.098733954 0.0965075
000270 a9 ed ef bd bd ce dc 3d 29 f9 ea bd c4 f4 fe 3d
       -0.11715252 0.1078162 -0.11473305 0.12449029
000280 34 de eb 3c 58 81 d0 3d 38 b7 03 be 9b e1 f9 bd
       0.028792478 0.1018092 -0.12862861 -0.12201234
000290 cd 29 c5 3d 98 95 f0 bd 85 ca ae 3d ac ab 0a be
       0.096271135 -0.11747283 0.08534721 -0.1354205
0002a0 73 f8 00 be e4 35 aa 3d 84 f3 d8 3d 2b af f5 bd
       -0.12594776 0.0831106 0.10593322 -0.11996301
0002b0 01 82 e3 bd 65 60 0f be e1 82 d8 3d 91 41 f0 bd
       -0.11108781 -0.14001615 0.10571838 -0.11731256
0002c0 b9 26 00 be 49 82 ed bd 38 ef 0a 3e 0a a9 96 3d
       -0.12514772 -0.115971155 0.13567817 0.073564604
0002d0 1a 51 dc 3d c5 51 cb 3d 9f 4c d8 3d 5d 0a d3 3d
       0.107576564 0.09927706 0.10561489 0.10304711
0002e0 c6 0a b8 3d 2e 92 c7 3d 97 2f 8b 3d 5b 92 a0 3d
       0.0898643 0.097446784 0.067961864 0.07840415
0002f0 4b d2 b5 3d d6 e1 cb 3d e6 86 d3 3d 73 e4 18 3e
       0.08878001 0.09955184 0.10328464 0.14930896
000300 70 ae d2 3d a8 8a 26 be 41 dc e6 bd 0e 5c d6 bd
       0.102871776 -0.1626383 -0.11272479 -0.10466777
000310 2f b4 b8 3d 3e 3c 18 3e 6d ce 06 3e 62 5e f4 bd
       0.09018742 0.1486673 0.13164683 -0.119320646
000320 cb 02 e6 3d fc b3 d6 bd 2a f9 20 be 68 d0 03 3e
       0.112310015 -0.10483548 -0.15720049 0.1287247
000330 ed 91 c2 3d 3f 49 c9 3d 84 fe db 3d 37 12 d9 3d
       0.095004894 0.09828424 0.107419044 0.10599177
000340 a3 4d cf 3d fe a2 04 3e b7 ab e5 bd b7 89 b4 3d
       0.1012223 0.12952802 -0.11214393 0.088153295
000350 22 26 ad 3d dc 10 eb bd 20 42 dc bd f9 36 b8 3d
       0.08454539 -0.11477825 -0.107548 0.0899486
000360 33 b6 c0 3d 72 1d 89 bd bd 09 c2 3d a1 85 c8 3d
       0.09409752 -0.066950694 0.09474514 0.09791113
000370 a3 12 ef bd ac 45 bd 3d 94 0b d7 3d ab 91 e4 3d
       -0.116734765 0.092418045 0.10500255 0.111605965
000380 ef 41 6f 3d c5 6e dc bd 63 b2 c0 3d 9d 52 ad 3d
       0.05841249 -0.10763315 0.094090246 0.08463023
000390 85 58 bd 3d ae fc b0 3d 06 ab c6 3d b4 fc e8 3d
       0.092453994 0.08641945 0.09700589 0.11376324
0003a0 ed e7 e9 3d c6 0e ca 3d fa 5c e7 bd 3e ce dd bd
       0.114211895 0.09866099 -0.11297031 -0.10830353
0003b0 8c dd ed bd 05 b9 c4 3d e1 91 01 be 63 a8 c0 3d
       -0.11614522 0.09605602 -0.12653305 0.09407117
0003c0 b3 63 d6 3d 1e 7d 9b 3d d5 33 b7 3d c2 36 d8 3d
       0.10468235 0.075922236 0.08945433 0.10557319
0003d0 38 40 f6 bd 33 d3 ef bd e6 d2 1f 3e 8b 89 f6 bd
       -0.120239675 -0.11710205 0.15607795 -0.12037953
0003e0 9d 06 b5 3d ab 0c e5 bd 87 9a c9 bd dc 44 0a be
       0.08839152 -0.11184057 -0.09843927 -0.1350283
0003f0 63 66 fa 3d 25 46 e6 bd 7a 1f db 3d a7 04 e2 3d
       0.1222656 -0.11243848 0.10699363 0.110360436

encoder.3.weight f4 [64, 256]
000000 23 cc 06 3e 15 a3 e0 bd 71 23 2f bd 11 5d 15 3e
       0.1316381 -0.109686054 -0.04275841 0.14586283
000010 2a 1e a9 bd 22 1f cc 3d 79 88 87 be c7 e4 ae 3d
       -0.082577065 0.099668756 -0.26471308 0.085397296
000020 6f 22 0e 3e fe ef 52 bb de 79 79 3c 6f 46 f6 bc
       0.13880323 -0.0032186504 0.015226809 -0.030062882
000030 3d ec 82 3e e8 c9 b0 be cd e3 09 3e 7b 89 0d be
       0.2557086 -0.34529042 0.13465805 -0.13821976
000040 bb 1c c5 bd 30 b9 f8 bd c2 57 d6 bd e8 fa 5b 3e
       -0.096246205 -0.12144697 -0.10465957 0.21482432
000050 fb e0 d8 bd 2c 89 3e 3c ae 76 38 3d 01 78 d8 3c
       -0.105897866 0.011629384 0.045035057 0.02642441
000060 db 84 2f be 5d af c7 bd 32 c5 ac be 15 63 c1 3d
       -0.17140524 -0.09750245 -0.33744198 0.094427265
000070 73 ab 9d bd 68 c7 85 be cb 68 ca 3d 8b b7 2e be
       -0.07698717 -0.26128697 0.09883269 -0.17062204
000080 c1 ea f1 bd 9d aa ee 3d d3 4d 3f 3d 88 f4 37 bc
       -0.11812354 0.11653636 0.04670508 -0.011227734
000090 fd fe cf 3c f2 e0 0c bc a0 ae a1 3d bf 40 26 3e
       0.025390143 -0.008598553 0.07894635 0.16235636
0000a0 73 3b 7c 3e ef 9a d6 3d 59 a5 fb 3d 63 11 0a 3e
       0.24632053 0.1047877 0.12287397 0.13483195
0000b0 52 18 99 3c b3 e6 4b be 93 6d a6 3d 60 76 16 3e
       0.018688355 -0.19912224 0.081263684 0.14693594
0000c0 a9 f4 9a bb d5 c6 ec bc ae e0 21 3e 94 50 b1 be
       -0.004728873 -0.028903404 0.15808365 -0.3463179
0000d0 ec ff a7 3d d8 f1 c0 be e7 fb 3f bd 9f df 79 be
       0.0820311 -0.37684512 -0.046871092 -0.24401711
0000e0 ee b5 1b 3d a7 07 56 bb 91 41 7d bd 32 b8 10 3e
       0.0380153 -0.003265837 -0.061830107 0.14132765
0000f0 c9 b2 a6 3d 0f 00 f3 bc 2e 69 1a 3d 68 c4 e7 bc
       0.08139569 -0.029663114 0.037697963 -0.028291896
000100 52 a9 4b 3d bc a8 f9 3c 65 94 55 3d ae 07 a8 3d
       0.049722023 0.030475967 0.052143473 0.0820459
000110 46 16 99 bd 43 a9 2c 3e 77 a2 86 be c8 7b 33 3e
       -0.074749514 0.16861443 -0.26295826 0.17527688
000120 6a 69 8d bd ea 20 8b be 70 be 17 3e c3 e8 9c 3c
       -0.06904872 -0.2717355 0.1481874 0.019153958
000130 70 9c 84 bd ac 9f 86 bd f0 cb d7 3d 91 ce f3 3d
       -0.064751506 -0.06573424 0.10536945 0.11904634
000140 96 d7 30 bc 28 17 81 3d ab bb 6e 3d 5b 9d 2d 3d
       -0.010793587 0.06303245 0.058284443 0.042386394
000150 c6 f1 89 be 71 3d 20 3e 3a 6c c4 be b6 32 3a 3d
       -0.2694227 0.15648438 -0.3836382 0.045458518
000160 ff 66 81 be 92 ce 47 bd 7a 19 89 bc 1f 3e 08 be
       -0.25273892 -0.048780985 -0.016735781 -0.13304947
000170 ce 23 16 bb 41 4a 34 be e6 be ba 3d 46 06 b7 3c
       -0.0022909525 -0.1760645 0.09118442 0.022341859
000180 ec df 47 3d 33 cf 5f bd 0d f5 43 be 4b 9b 83 3e
       0.048797533 -0.05464096 -0.19136448 0.25704417
000190 05 17 c5 3d 99 3b 73 3e 21 57 7d 3e 9a a9 fe 3d
       0.09623531 0.23753203 0.24740268 0.12434693
0001a0 fc 38 91 3c d7 c9 38 3d 7d a5 c3 be 9d 2d 35 3d
       0.017727368 0.045114364 -0.38212195 0.044232953
0001b0 80 e4 d8 3c 65 3c 07 3c 09 9a 90 be 3d e8 63 3d
       0.026476145 0.008254145 -0.2824252 0.0556414
0001c0 ea a0 24 be d7 73 69 bd 22 66 f8 3c 5d 0a 94 3e
       -0.16077009 -0.05699524 0.030322138 0.28914157
0001d0 57 4b f7 bd bd f3 8b be 65 9a a9 be 75 19 d8 3b
       -0.12074917 -0.27334395 -0.33125606 0.0065948316
0001e0 c9 8b 91 3e 9c 56 88 bd 64 f9 89 bd b5 e5 83 3d
       0.2842696 -0.066571444 -0.067370206 0.064402975
0001f0 5a 03 29 3d 91 49 64 bd 18 d9 e0 bd fe 5a 95 3e
       0.041262962 -0.05573422 -0.10978907 0.29170984
000200 a0 8e 60 3e 84 a3 b2 bd 72 b1 1f be 63 93 ae 3d
       0.21929407 -0.087225944 -0.15595034 0.085242055
000210 d5 5c 9f be be 5a 95 bd b8 1c a4 3d 93 88 42 be
       -0.31125513 -0.07292698 0.0801329 -0.18997411
000220 db 2f 7e 3e d1 a8 24 3e a4 54 27 bd 67 e9 0a be
       0.24822943 0.16080023 -0.040852204 -0.13565598
000230 94 d6 0f 3e 85 4e 37 3d df 01 a6 3c 9f 6c 19 3e
       0.14046699 0.044752616 0.020264564 0.14982842
000240 4d d0 c2 3d 0a b7 61 3d 58 a8 3d be 2f d4 47 3d
       0.095123865 0.0551062 -0.1852125 0.04878634
000250 6f 2f e1 bd 69 39 b0 3c 09 bb ff 3d b1 06 a0 bd
       -0.10995375 0.02151175 0.12486846 -0.07813776
000260 ec be e6 bd 4f 8c 81 3e 70 90 06 3d 8a be 1a 3e
       -0.11266884 0.2530236 0.03285259 0.15111747
000270 bb 11 c2 3d da 55 ca 3c f8 c8 ca be d5 83 09 3e
       0.09476038 0.02469914 -0.39606452 0.13429196
000280 d8 1b e1 bd da ab b8 3d c3 3d 4c be 19 e1 f7 3d
       -0.10991639 0.09017153 -0.19945435 0.12103481
000290 97 89 c8 bd a9 55 cf 3c 17 b7 5d bd ae 07 ca be
       -0.09791868 0.0253094 -0.054129686 -0.39458984
0002a0 d1 c5 27 be 4c 96 73 3e 35 18 0e bd 60 1f c9 3d
       -0.16384055 0.23787802 -0.034691054 0.098204374
0002b0 a6 3c 52 be e7 b6 6e be f1 e4 71 3d 1c 7d 69 be
       -0.20530948 -0.23311959 0.059056226 -0.22801632
0002c0 03 72 ca be 64 d2 05 be 23 28 fb 3d 33 9c 6f 3c
       -0.3954011 -0.13068539 0.12263515 0.014624643
0002d0 d8 4a 54 3d 31 f3 77 3a 1c 3a 80 bd d2 31 4a 39
       0.05182919 0.00094585406 -0.062610835 0.0001928278
0002e0 59 c9 b0 3d e1 23 ef bd 65 cb 1f bd cf 52 f9 bd
       0.08632154 -0.11676765 -0.03901233 -0.121739976
0002f0 5a 38 be bd 80 bd ba 3d ae 90 79 3e 01 c1 71 3d
       -0.09288092 0.091181755 0.24371597 0.059021953
000300 4d 2c e6 3c 1e ce d2 be 55 38 4b be 76 9b 05 be
       0.028097296 -0.4117288 -0.19845708 -0.13047585
000310 b0 7a 9e bd fa ec 9c 3e e8 97 3c 3e 51 d5 31 be
       -0.077382445 0.3064955 0.18417323 -0.1736653
000320 b2 d9 e6 bd 1b ef 83 3d b3 6e 69 be 14 d9 67 3e
       -0.11271991 0.0644209 -0.22796135 0.22641402
000330 4c ba 0d bd 80 82 c7 bc 87 1d d2 3d f8 12 90 3d
       -0.034601495 -0.02435422 0.10259538 0.07034868
000340 51 ce 9e 3d 0e 3e 8d 3e 9c 3f 9b bc 7c d7 2d bb
       0.077541955 0.27586406 -0.01895123 -0.0026526144
000350 42 e4 15 3e 83 cb 8e bc a5 2e da 3c e6 18 14 bd
       0.14637855 -0.017431026 0.02663357 -0.036156558
000360 b5 90 09 be 43 b0 1c 3d 95 31 e0 3d f7 0e 02 3e
       -0.13434108 0.038254034 0.10946957 0.12701021
000370 66 24 63 be bd 2c 64 bd 72 c4 f1 3d 62 5d de bc
       -0.22181854 -0.05570673 0.11805047 -0.027144138
000380 d0 5a 49 bd 2f fc 23 be e5 bd 6c 3d 64 08 15 bd
       -0.04915887 -0.16014169 0.057798285 -0.036384955
000390 40 84 38 3d 6f b6 c1 bd 33 67 6b 3c 61 4f 8f 3d
       0.045048 -0.094586246 0.014367866 0.06997562
0003a0 5f 39 75 3e 16 f0 30 3e b5 d7 df 3d b6 ef 97 be
       0.23947667 0.17279086 0.10929815 -0.29675072
0003b0 b0 b9 40 bd 89 12 7e bd 92 0f 83 be c2 af 66 3d
       -0.047052085 -0.062029395 -0.25597817 0.05631996
0003c0 e3 f0 83 bd 9e 75 18 be f1 4c 83 bc a8 5d 35 3e
       -0.0644243 -0.14888617 -0.0160279 0.17711508
0003d0 1d a6 c3 bd 59 6a 8e 3d cf 33 74 3e 90 6b 26 bc
       -0.09553168 0.06953878 0.23847888 -0.010157481
0003e0 8f c3 19 be db 72 6c 3d 42 56 27 be fa 82 9b be
       -0.15016006 0.057726722 -0.16341498 -0.30373365
0003f0 08 51 29 3d d2 9c 50 3d ef c9 b2 3d 98 20 ff bd
       0.041337043 0.050930806 0.08729922 -0.12457389

encoder.3.bias f4 [64]
000000 4b ff d8 3d a1 b5 d7 bd 54 08 e5 3d 62 aa dc 3d
       0.10595568 -0.1053269 0.11183229 0.107746854
000010 d6 5b e0 bd 93 3c eb bd a4 27 d0 bd 0d f9 e5 3d
       -0.10955016 -0.11486163 -0.10163811 0.11229143
000020 57 f7 e0 bd 42 34 e2 3d d3 03 f6 bd 69 db db 3d
       -0.10984676 0.11045124 -0.12012448 0.107352085
000030 5b d3 d2 3d a0 c7 e9 bd 60 cc d4 3d 1a 20 d8 bd
       0.10294219 -0.114150286 0.10390544 -0.10552998
000040 84 85 d6 bd 5f e7 e8 bd ab 1e dd bd e7 54 e1 3d
       -0.10474685 -0.113722555 -0.10796865 0.11002522
000050 ec 32 d8 bd 04 d2 e5 bd e6 6a f3 3d dc 51 e9 3d
       -0.105565876 -0.11221698 0.11885624 0.113925666
000060 d7 22 d5 3d 22 ae de 3d 8a e4 ea bd 94 0d e2 3d
       0.10407036 0.10873057 -0.114693716 0.11037746
000070 c1 4b e1 3d 86 21 e4 3d d3 ab f0 3d eb 24 b5 bd
       0.11000777 0.111392066 0.11751523 -0.08844932
000080 38 d9 e5 3d 96 11 e2 bd 1a 81 f4 bd 9c ea d9 3d
       0.11223072 -0.110385105 -0.11938687 0.10640451
000090 4c 66 e9 bd be 12 cf bd c3 24 f8 bd d6 7d e9 bd
       -0.11396465 -0.10110997 -0.12116387 -0.114009544
0000a0 10 5d df 3d 3e 93 d9 bd 61 8b ee 3d c5 1e ef bd
       0.10906422 -0.10623787 0.11647678 -0.11675791
0000b0 9e 33 e2 3d 35 a0 d7 bd 5c 9f e9 3d 19 d2 dc 3d
       0.110450014 -0.10528604 0.114073485 0.107822604
0000c0 19 59 d5 bd 46 08 f7 3d ff c8 ec bd c9 10 ec bd
       -0.10417385 0.12062125 -0.115617745 -0.11526639
0000d0 7b 41 f1 bd 4d 3a 81 bd a5 13 df 3d 1d 3f e2 bd
       -0.117800675 -0.06309948 0.10892419 -0.11047194
0000e0 95 87 e7 3d d9 31 e2 3d 70 9d de bd a9 01 dd bd
       0.11305157 0.11044664 -0.108698726 -0.10791332
0000f0 2e 81 e1 3d ac d5 e3 bd 12 3c c8 3d 32 46 f6 bd
       0.11010967 -0.11124739 0.097770825 -0.120251074

regressor.0.weight f4 [256, 64]
000000 61 73 1d 3e 0b 28 4c bd d8 fe 29 3e 8a 41 77 bd
       0.15376045 -0.049842875 0.16601121 -0.060365237
000010 83 a9 12 be 68 4a 22 be 7f a2 72 3d d5 1d 18 3e
       -0.14322476 -0.15848696 0.059237 0.1485513
000020 43 04 d2 bd 8a c7 a4 3d 2b ee 75 bd af 7c 39 3d
       -0.10254719 0.080458716 -0.060041588 0.045284923
000030 35 41 88 bd e7 b3 0e be ee 48 b4 3d e4 d7 49 b9
       -0.06653062 -0.13935815 0.08802973 -0.0001924928
000040 73 9c ad bd 6f a5 f7 bd 47 e6 0e be 64 d5 28 bd
       -0.08477106 -0.12092101 -0.13955031 -0.04121913
000050 9c fc 16 be 73 79 70 3d 26 07 3a bc 5b 3b d2 3d
       -0.147448 0.058709573 -0.011354243 0.102652274
000060 e9 11 66 3c 17 77 3f 3a 68 f9 1c 3d 90 41 da 3d
       0.014042356 0.00073038175 0.03832379 0.10657036
000070 d8 d6 00 3e bd 35 bb 3d ae a2 39 3e 42 ae 53 bb
       0.12581956 0.09141109 0.18128464 -0.003229991
000080 c9 90 ca bc 70 2b df bd b1 bd 05 3d 42 1d 32 3e
       -0.024727242 -0.10896957 0.032651607 0.17393973
000090 14 8e 27 be 6a 7c 77 3d 3a 63 0a be 7a 4c bc 3d
       -0.16362792 0.060421385 -0.13514414 0.09194274
0000a0 34 a5 4d bd dc 55 34 bb fc b8 0e 3e 41 5c a5 3d
       -0.050206378 -0.0027516996 0.13937753 0.08074237
0000b0 29 12 5a 3d c5 a9 4e bc 15 79 18 3d 61 70 a5 bd
       0.053239975 -0.012613718 0.037224848 -0.08078075
0000c0 55 5b 02 3d 9e 0c b4 3d 17 36 30 be 17 11 30 be
       0.031825382 0.08791469 -0.17208134 -0.1719402
0000d0 c9 f5 1e be dd 60 64 bc 29 01 07 3e 8d 96 94 3d
       -0.15523447 -0.01393911 0.13184036 0.07255278
0000e0 a9 f2 3e bd d6 53 72 3b 97 46 a0 3d 2f 26 23 be
       -0.046618138 0.003697624 0.07825964 -0.15932535
0000f0 67 aa 1b 3d d0 c1 2b be 86 1a fa bc f9 50 41 be
       0.038004305 -0.16773152 -0.030530225 -0.18878545
000100 ee 50 6e be 9d 79 49 bd 90 04 87 3c 5f 12 aa bd
       -0.2327306 -0.049188245 0.016481668 -0.08304285
000110 1b c9 2e 3e 9d c6 a9 3e de a5 b3 3e fe fc cf bd
       0.17068903 0.33159342 0.35087484 -0.10155676
000120 50 bf 55 bd 50 06 6a 3d fd d2 77 3d 8f fb 3c bd
       -0.052184403 0.057134926 0.06050395 -0.046138342
000130 4b a3 b0 bd 83 56 67 3c c3 c4 07 be 8e b0 be 3d
       -0.08624896 0.014119747 -0.13258652 0.09311019
000140 ae f7 2c 3c b0 01 1a 3e ba a4 c0 bd b2 c0 b2 bd
       0.010557098 0.15039706 -0.09406419 -0.0872816
000150 7e d2 b8 3d ad fd 9e 3c 1e 63 d4 bd 81 dc 08 3d
       0.09024523 0.019408071 -0.103704676 0.033413414
000160 1e 94 89 be b2 67 dd 3d 87 99 a8 bd 55 cb 92 bd
       -0.26870817 0.10810794 -0.08232408 -0.07167689
000170 d0 8d e9 bd 45 78 ab be d0 ef 7b bd 2a db 58 be
       -0.11404002 -0.33490196 -0.061508 -0.21177354
000180 b7 c6 b4 bc 10 53 4b 3d 20 f1 8b bb ba fc 73 3d
       -0.02206741 0.04963976 -0.0042706877 0.05956719
000190 56 46 db bd bb b0 71 3e b6 3b ad bd e5 e5 c4 3b
       -0.10706775 0.23602574 -0.084586546 0.006008851
0001a0 e5 5e 42 bd e1 ef 01 3e 18 69 d5 3c 38 af 1d be
       -0.04745378 0.12689163 0.02605109 -0.15398872
0001b0 a3 ae f1 3c 56 b9 85 3d bb 10 d8 3c 5b 65 8d bd
       0.029502219 0.06529491 0.026375165 -0.06904098
0001c0 57 c1 9d 3d 4b fa d0 3d 2f 37 57 bd eb 0e 8a bc
       0.07702892 0.102039896 -0.05254286 -0.016852817
0001d0 6b a6 ab bd ec 22 56 be f0 43 6f 3a 72 c6 87 3d
       -0.08381351 -0.20911759 0.000912725 0.06629647
0001e0 2a 0f c5 3d d6 8e 0f be 86 4a 0f 3e 6c 5c 5e 3e
       0.09622033 -0.14019331 0.13993272 0.21714944
0001f0 51 c7 60 bd 0b fe 0a 3e a0 a8 44 bd 81 20 85 bd
       -0.054877583 0.13573472 -0.048012376 -0.0650034
000200 88 f3 be 3d 67 91 79 3d e2 fc 0b bd 78 ac fd bc
       0.09323794 0.060929682 -0.034176715 -0.030966029
000210 65 a5 1d be 56 3f fe bc 9f df 06 be 48 47 bf 3d
       -0.15395124 -0.03103606 -0.13171242 0.09339768
000220 2b 24 f4 bd 4c e1 4b bd e8 f6 08 be 50 fe e5 3c
       -0.11920961 -0.049775407 -0.13375437 0.028075367
000230 1d f1 a0 3d 89 65 9c bb 6d 0a 4a 3e ca 46 02 be
       0.07858489 -0.004772846 0.1973054 -0.12722316
000240 80 dc bd bc 79 d1 a7 bd 29 a7 9d 3d 70 ee 2f 3e
       -0.023176432 -0.081942506 0.07697899 0.171808
000250 57 61 9f 3d 64 3c 15 be 0f a0 61 3d 15 f5 d6 bd
       0.07782238 -0.14573818 0.055084284 -0.104959644
000260 08 8b 56 3e 3a be 00 be c7 67 bd 3d 20 d3 3a 3e
       0.20951474 -0.12572566 0.092483096 0.182446
000270 6e 35 43 3d ad b2 ef 3d 2b c1 d3 bd ea 97 36 bc
       0.047658376 0.117040016 -0.10339578 -0.011144618
000280 0e 26 8c 3d c5 79 08 bd 8d 49 ed bd b4 8f d3 bd
       0.06843196 -0.033319253 -0.11586294 -0.103301436
000290 63 a3 9e bd 5a 2f 26 bc a7 63 0c bc 28 35 0a be
       -0.07746007 -0.010143125 -0.008568681 -0.1349684
0002a0 5b 88 ee 3d d7 b3 1c be cc b9 51 3d ba 9b b7 3d
       0.116471015 -0.15302978 0.05120258 0.08965249
0002b0 5c 6a 91 3c 6d da 39 bc 3f 87 4c bd d6 6c c7 bb
       0.017750911 -0.011343581 -0.04993367 -0.0060859723
0002c0 43 3a 02 be 56 e9 c1 3c 5b 17 c7 bd a3 58 cd bd
       -0.12717538 0.023670834 -0.097212516 -0.10026672
0002d0 92 23 fe bd 6e 12 c9 3d a8 9e 8e bd 1e ed 2d be
       -0.12409128 0.09817968 -0.06963855 -0.16984984
0002e0 0e 21 6a 3d 8e fa 36 3e f5 93 3f be af 95 6c be
       0.05716043 0.17869017 -0.18708785 -0.23103975
0002f0 2b 2c 13 3e e1 23 c2 bd c9 1f 52 3d ae 52 fa 3d
       0.14372317 -0.094794996 0.051299844 0.12222801
000300 2c 4a b8 3d 56 ae db 3c 52 7e 9f bd a5 7f a8 bd
       0.08998522 0.026816528 -0.077877656 -0.08227471
000310 fe 25 0f 3d 1d a4 6b 3d 47 38 cc 3d aa da b1 3d
       0.03494834 0.057529557 0.099716716 0.08684285
000320 7a 7e 8b 3c fe 93 92 bd 90 71 24 3e 13 bd cd bd
       0.017028082 -0.071571335 0.16058946 -0.10045829
000330 3a 69 03 be a2 aa b2 3c 01 6c 31 3d e9 34 f5 3c
       -0.1283311 0.02180988 0.04331589 0.029932456
000340 1b 85 d8 bc 28 02 ce 3d a0 eb b9 bd a6 75 7e 3c
       -0.026430657 0.10059005 -0.09078145 0.015530979
000350 03 08 db 3d 74 57 66 3c c3 21 d2 3d 68 50 b6 bd
       0.106948875 0.014058936 0.10260346 -0.08902055
000360 31 39 66 bd ad 58 d0 3d 2e a6 23 3d 97 8e fc bd
       -0.056206886 0.101731636 0.039953403 -0.12331884
000370 07 df 93 bd fd df d4 3c c4 dc 59 bd a6 7f 02 3e
       -0.072202735 0.025985712 -0.053189054 0.12744007
000380 a4 c4 0b be ce fa ad 3d 18 45 fb bc 28 22 08 be
       -0.13649231 0.08495103 -0.030672595 -0.1329428
000390 d1 21 98 bd e0 ad ec 3d e4 d0 e8 bc 57 b0 01 be
       -0.07428325 0.115566015 -0.02841992 -0.12664925
0003a0 b9 c3 cf 3d 61 54 64 3d e9 18 d3 3d 05 fb 8c bd
       0.10144753 0.055744532 0.103074856 -0.06883816
0003b0 6f 01 8e bd 71 b2 0a 3e 1e 5b ba 3d 2e cc 0f bd
       -0.06933867 0.13544632 0.090994105 -0.03510683
0003c0 b3 14 87 bd fe 19 6b 3d 02 d6 05 3c cc 46 c7 3d
       -0.06595745 0.057397835 0.008168699 0.097303
0003d0 ac 09 db bd 9e 8c 58 bd 2e 80 d7 3d 83 a1 f4 3a
       -0.10695204 -0.052868478 0.10522495 0.0018663857
0003e0 69 3a e2 3d fb 79 af bc f0 ff d0 3d 3f 31 6e 3d
       0.11046297 -0.02142047 0.10205066 0.058152433
0003f0 46 e5 c9 bc c0 98 f8 3d 94 2c 5a 3a 89 4a 95 3d
       -0.024645459 0.1213851 0.00083226827 0.07289607

regressor.0.bias f4 [256]
000000 e0 37 a1 3d 59 24 0a bd 80 11 ad 3d 97 29 83 bd
       0.078719854 -0.03372607 0.084506035 -0.06404417
000010 30 94 db 3d 51 ef 31 bd c7 d5 de 3d 5d f7 f2 bd
       0.10721624 -0.04344112 0.108806185 -0.11863587
000020 da 25 ca 3d 68 61 b1 3d 4e 04 70 bd be 67 bc bc
       0.09870501 0.08661157 -0.058597855 -0.022998687
000030 3d 90 e0 bc 23 3a 60 bd 8e 8c 52 bd 5b 68 ae 3d
       -0.027412528 -0.054742943 -0.051403575 0.08515998
000040 71 58 2d bd d9 ec 3d bd a4 f1 b3 3d 52 13 57 bd
       -0.042320672 -0.046368454 0.08786324 -0.05250866
000050 8f 0a 7f bd 2b 41 ba 3d f2 03 ac bc 79 18 b8 3d
       -0.06226593 0.09094461 -0.020997975 0.08989043
000060 87 be dd 3d ca 7d 19 bd d4 5e 6e bd d1 22 d3 3d
       0.10827356 -0.037473477 -0.058195904 0.10309375
000070 c0 13 44 bd cf 27 a8 3d 53 a8 af 3d e0 1a 19 3d
       -0.047870398 0.08210718 0.08577027 0.037379146
000080 c6 54 2c bd 50 a0 d2 3d 7e dc d7 3d eb e3 d9 3d
       -0.042073034 0.102844834 0.105401024 0.10639175
000090 81 9c ca 3d fa 0b 13 3e 5a 4c 23 3d c8 56 ca 3d
       0.09893132 0.14360037 0.039867736 0.098798335
0000a0 71 da 72 bd 6e db b6 3d 91 67 76 bd 58 a5 0a bd
       -0.059290353 0.08928572 -0.060157362 -0.03384909
0000b0 b3 8f 5c bd 33 a7 e9 bc 83 f9 b1 3d 6b 6e 07 3d
       -0.05384798 -0.02852211 0.08690169 0.033064287
0000c0 a9 31 1e bd 8a d6 4d bc 9e 62 de 3d 89 75 62 bd
       -0.03862158 -0.012563357 0.108586535 -0.05528787
0000d0 62 b9 cd 3d 9e 15 0e bd 1f af cd 3d 59 c9 eb 3d
       0.100451246 -0.034688585 0.10043167 0.115130134
0000e0 02 d6 de 3d 34 da d1 3d 4c f0 af 3d 25 a5 1d bd
       0.108806625 0.10246697 0.08590755 -0.038487572
0000f0 c4 33 63 3d 2a 66 69 bd 50 97 05 3e ad 3e d2 3d
       0.05546929 -0.056982197 0.13046002 0.10265861
000100 fe 04 d0 3d 01 c0 61 bd 4f 5e b4 bc 61 2a f6 bc
       0.10157202 -0.05511475 -0.022017626 -0.030049505
000110 24 99 a5 3d f9 f3 42 bd 2a 55 27 bd d8 8f e1 bc
       0.0808585 -0.04759595 -0.040852703 -0.02753441
000120 b1 70 c4 3d 84 ae d0 3d 8a 78 50 bd de 46 ff 3d
       0.09591807 0.10189536 -0.050896205 0.12464689
000130 5b f6 cb 3d e9 62 cf 3d 32 25 c5 3d ef 9c d7 3d
       0.09959098 0.101262875 0.09626235 0.105279796
000140 fd 43 c6 3d a7 03 b2 3d 2a 8b c1 3d 0f c9 d4 3d
       0.096809365 0.08692103 0.094503716 0.103899114
000150 a3 07 d4 3d 9b 75 0d bd de 9f f4 3d da b9 24 bd
       0.10353019 -0.034535985 0.11944555 -0.040216304
000160 61 29 9a 3d d1 0d 5c bd 32 db d9 3d cc e8 e9 3d
       0.07527424 -0.053724114 0.10637511 0.114213556
000170 cd d8 c6 3d b0 4d 57 bd ce 10 24 be ed 2f c9 3d
       0.0970932 -0.052564323 -0.16022035 0.09823594
000180 c5 eb c7 3d 52 3c b8 3d de 12 97 bd 2a 71 a6 3d
       0.09761766 0.0899588 -0.073766455 0.08127053
000190 02 d0 b7 3d 56 e2 31 3e 7c f8 de 3d 10 51 28 bd
       0.08975221 0.17371497 0.108872384 -0.041092932
0001a0 30 7f 86 bd d6 ef 04 be a0 15 d2 3d 25 71 1a bd
       -0.06567228 -0.12982115 0.10258031 -0.03770556
0001b0 09 05 17 bd b0 5d d5 3d 50 78 b1 3d 94 d6 80 bd
       -0.036870036 0.1041826 0.08665526 -0.062909275
0001c0 c4 f1 63 bc fa d2 f1 bc 63 93 e3 3a e6 31 b4 bc
       -0.013912622 -0.029519547 0.001736265 -0.02199645
0001d0 cc 93 cd 3d 7b 97 4e be ab dd 88 bc 08 53 28 bd
       0.10037956 -0.20174973 -0.016707262 -0.04109481
0001e0 eb d4 ce 3d ec 61 cf 3d 6b 8d 9a bd c7 59 da 3d
       0.10099205 0.10126099 -0.075465046 0.10661655
0001f0 bb 31 c6 3d 68 0b f8 3d cc d4 b0 3d 6c 03 48 3c
       0.09677454 0.121115506 0.08634338 0.012207847
000200 e4 a7 31 bd 00 8a 21 bd 1d ce c9 bc 9e e2 90 bd
       -0.043373004 -0.039438248 -0.024634415 -0.07074474
000210 84 a5 bb 3d 4c 4e 88 bc 80 e9 de 3d 06 25 96 bd
       0.09162429 -0.016638897 0.1088438 -0.073312804
000220 b5 6c db 3d 9e 75 11 bd 06 48 d2 bc 72 68 d6 3d
       0.107140936 -0.03551256 -0.02566911 0.1046914
000230 b4 19 f7 bc 57 95 d9 3d 02 61 67 3d 6e d4 fc bc
       -0.030163623 0.106241874 0.056489 -0.030863013
000240 f5 4e d1 3d d5 40 eb 3d fa d3 5e bd b9 10 60 bd
       0.10220138 0.11486975 -0.054401375 -0.054703448
000250 5b 71 22 bd 94 c6 d4 3d 54 39 e1 3d d1 22 9d bc
       -0.039658885 0.10389438 0.109972626 -0.01918164
000260 0d f6 c6 3d 85 81 ef bd f9 97 df 3d 8d 9b 23 3c
       0.09714899 -0.11694626 0.10917658 0.009985817
000270 9f 8e 10 bd 0e 5d 2b bd 02 06 f6 3d da c5 50 bd
       -0.035292264 -0.04183679 0.12012865 -0.050969936
000280 2e 57 2d bd db 67 c1 3d 04 a8 b2 3d 1f 69 21 bd
       -0.04231947 0.09443637 0.08723453 -0.039406892
000290 e9 5b 2a bd e0 0b c6 3d a8 09 82 bc 5e 48 dc 3d
       -0.04159156 0.09670234 -0.015873745 0.107559904
0002a0 96 01 d6 3d 8a 32 4d bd b4 7a 17 bd c6 52 a7 3d
       0.10449521 -0.050097026 -0.036982253 0.08170085
0002b0 c1 6d e7 3d 42 cf f5 bc 39 bd 39 bd b7 56 8d 3d
       0.11300231 -0.030006055 -0.045346472 0.06901305
0002c0 c4 38 e0 3d 1c ab a3 3d 5b 01 ca 3d bd 12 31 bd
       0.10948327 0.07991621 0.0986354 -0.04323076
0002d0 a6 db 5e bd a6 fc 4c bd 8f 34 e5 3d 19 9f a2 3d
       -0.05440869 -0.05004563 0.111916654 0.07940502
0002e0 a7 0a 34 bd 54 dd 55 bd ef 09 95 3d a7 1f b9 3d
       -0.04395547 -0.052213028 0.07277285 0.0903924
0002f0 0a 08 df 3d 95 1c 4b bd a9 27 e7 3d 5f c9 5d bd
       0.10890205 -0.049587805 0.112868614 -0.05414712
000300 2f 87 c0 3d 01 cd e7 3d 9a 71 19 bd 93 e2 4b bd
       0.09400784 0.11318398 -0.037461855 -0.049776625
000310 97 1a 61 bd 79 0e e3 3d 2e 4f ae bb 15 6e 60 bd
       -0.054957 0.11086745 -0.0053194975 -0.054792482
000320 5a 69 73 bd 98 db 0c bd 1f 2c 65 bd 04 47 1c bd
       -0.059426643 -0.03438911 -0.05595028 -0.038153663
000330 55 8a 9d 3d 20 a2 16 bd 13 2d d9 3d 9d 71 c2 3d
       0.076924 -0.03677571 0.106043 0.09494326
000340 96 bf b2 3d a7 08 e2 3d e7 ba 65 bd d3 97 2c 3d
       0.08727948 0.110368066 -0.056086447 0.04213698
000350 ec 7d f3 3d 08 07 52 bd ec 74 2d bd 55 2c 90 3d
       0.11889252 -0.051276237 -0.042347834 0.07039706
000360 5a b0 46 3d 32 a4 b3 3d 52 44 1b bd 9e f8 e0 3d
       0.048508026 0.08771552 -0.037906952 0.1098492
000370 9f 6d c3 bc d8 d3 c8 3d aa f0 c3 3d 92 2a 9e 3d
       -0.023855982 0.09806031 0.095673874 0.077229634
000380 17 05 57 3d d5 98 72 bd 6a 98 cf 3d 04 d7 c1 3d
       0.05249509 -0.059227783 0.101364926 0.09464839
000390 10 83 db 3d 0c ed df 3d 53 e7 3c bd 71 5d 2d bd
       0.107183576 0.10933885 -0.046119045 -0.04232544
0003a0 c2 cc 30 bd 03 fa dd 3d 9c 08 33 bd d0 c4 cc 3d
       -0.043164022 0.108387016 -0.043709382 0.099984765
0003b0 f2 a7 07 bd b1 f1 c0 ba a7 b1 9e bd 67 29 c9 3d
       -0.03311915 -0.0014720467 -0.07748728 0.0982235
0003c0 e8 d0 c9 3d 59 36 43 bd e1 59 02 3e 0d 1d 04 bd
       0.09854299 -0.04765925 0.12729599 -0.032254267
0003d0 9e 2f cf 3d 64 1e 08 bd 7f aa e3 3d 1c 80 e3 3d
       0.10116504 -0.033232108 0.11116504 0.11108419
0003e0 37 2c 65 bd 0d dc 3b bd 6a 4b ce 3d 8f 9a 23 bd
       -0.05595037 -0.045864154 0.10072978 -0.03994232
0003f0 75 01 2f bd e6 e6 5a bd 2d b0 d1 3d 49 10 ff bc
       -0.042726 -0.05344286 0.10238681 -0.031135695

regressor.3.weight f4 [64, 256]
000000 95 b2 ee bd 76 71 91 bd 73 50 a9 3d 74 08 d3 3c
       -0.116551556 -0.07101719 0.082672976 0.025760867
000010 1a 0c 11 3d e6 00 81 3d 5b 41 91 3d de 87 89 3d
       0.03541193 0.062989995 0.07092544 0.06715368
000020 bc 9b 9a 3d 30 05 12 3e a0 29 d4 bb 58 b9 84 3d
       0.07549235 0.14259791 -0.0064746886 0.06480664
000030 25 dc b2 3c 10 40 2e 3d ac 93 b0 3d c2 07 a2 bd
       0.021833489 0.042541564 0.08621916 -0.07911636
000040 08 48 e6 3d d8 b0 b7 3d 57 28 8a bc 25 15 f7 3b
       0.112442076 0.08969277 -0.016864939 0.0075403624
000050 fa 50 21 bd 98 b7 c2 bb c0 3e d7 bd 5b d6 89 3a
       -0.039383866 -0.0059422962 -0.105100155 0.0010516153
000060 e1 35 6e 3d 77 b7 a0 bd e5 8f fe bc f0 86 63 bb
       0.05815685 -0.07847493 -0.031074474 -0.003471788
000070 31 2b 9c bd 67 42 0f 3d eb ba 4e bc bb 4a 53 bd
       -0.076254256 0.034975436 -0.012617807 -0.05158494
000080 19 62 03 bd 9e 37 29 bd 8f b3 fc bd e4 be c5 bc
       -0.032075975 -0.041312806 -0.123389356 -0.024138875
000090 31 cf 85 bd 8a 64 b8 bd a8 da 0e bd c2 c8 21 bd
       -0.06533659 -0.09003551 -0.034876496 -0.0394981
0000a0 19 64 cc bd 15 32 dc 3d 99 a1 6e bd 0b 26 75 3d
       -0.099800296 0.1075174 -0.05825958 0.059850734
0000b0 e8 ca 86 3d 2d 91 31 3d b1 0a 82 ba 8c 5c 79 bd
       0.0658167 0.04335134 -0.0009921399 -0.060879275
0000c0 d5 03 06 be 8a 50 04 bd fc 73 a9 bb aa 62 2a 3d
       -0.130874 -0.03230337 -0.005171297 0.041598
0000d0 2a a8 f3 3d c8 46 b8 bb 17 c5 14 bd e7 93 c2 bc
       0.11897309 -0.005623672 -0.036320772 -0.023752166
0000e0 9e 92 8c 3d 84 9e d9 bc da 58 c3 ba 09 61 b6 bd
       0.068639025 -0.026564844 -0.0014903799 -0.08905227
0000f0 cf b0 b2 3d 6b c8 82 3d 5f de 77 3d 62 8b c5 bd
       0.0872513 0.06385883 0.060514804 -0.09645726
000100 47 41 c4 3d 1b a8 77 3c 3d 96 95 bd 99 3d 04 be
       0.09582763 0.015115763 -0.07304046 -0.12914123
000110 a0 b2 c6 bb 5e 04 c3 3d e1 5e 9f bd 5e d1 9e bd
       -0.006063774 0.09522317 -0.077817686 -0.07754777
000120 4d a0 c4 3c 73 30 27 bd 46 50 1b 3d be 8d b0 3d
       0.024002219 -0.04081769 0.03791835 0.08620785
000130 7d 34 b4 3d 7f 76 b9 3c 6b 23 80 3d ba 9b 4f bc
       0.08799074 0.022639511 0.062567554 -0.012671405
000140 0d f2 aa bd 85 b3 b4 bc e5 ef c7 3d 76 8e 85 3c
       -0.08346949 -0.022058258 0.09762553 0.016303282
000150 9e 36 b1 3c df e9 db 3d 67 10 9f 3d fd 13 04 bd
       0.021632489 0.10737967 0.077668004 -0.032245625
000160 4c f0 09 bd ab ec 75 3d 12 39 a8 3d b0 43 e7 bc
       -0.03367643 0.060040157 0.0821401 -0.028230518
000170 62 09 85 3d e4 b1 1a bd 33 26 2e bd e3 63 eb 3b
       0.0649593 -0.037767306 -0.0425169 0.0071835383
000180 5e 7d 6c 3d ba 17 0d bd 73 f2 ba 3c a2 ab 06 3e
       0.057736747 -0.034446456 0.022820687 0.1315141
000190 7f 40 75 3d f4 6e dd bc b4 27 87 bb c0 c6 a4 bd
       0.05987596 -0.027030446 -0.004124606 -0.08045721
0001a0 c5 19 a4 3d e8 45 6a 3d ad 08 72 bd dc 74 28 bc
       0.08012728 0.057195574 -0.059090305 -0.010281768
0001b0 c9 d4 99 3d e5 02 9d 3d 1b 53 9c bd da 71 8b bd
       0.07511289 0.07666568 -0.076330386 -0.06808825
0001c0 fa 90 02 be e4 fc 00 be 0a 3a 6c bd 44 b4 d2 bd
       -0.12750617 -0.1259647 -0.057672538 -0.10288289
0001d0 d4 af a4 bd 31 42 5f bd d1 60 6b bc e4 77 84 3b
       -0.08041349 -0.054506484 -0.014366345 0.0040426124
0001e0 81 6e 8c 3d 2f f4 fb bd 46 a3 95 3c c2 a7 a0 3b
       0.068570144 -0.12302434 0.018266331 0.004902811
0001f0 33 7c 1b 3d 53 b9 c9 3d da 73 fa 3c e0 9c 68 3d
       0.037960242 0.09849801 0.03057282 0.056790233
000200 0c 28 ef bc bd 7a 83 3d 7d e4 94 3d 01 1e b8 3d
       -0.0291939 0.06419895 0.07270143 0.08990098
000210 ec dc 1f 3b 66 36 1a be 92 33 82 bd 1b 8c c0 bc
       0.0024393154 -0.15059814 -0.063574925 -0.023504307
000220 03 76 4c bd b1 1c 0b 3e 5d bc 28 bd 03 66 19 be
       -0.049917232 0.13585164 -0.041195262 -0.1498032
000230 ee fe 02 be cc ea 68 3d 32 96 5e 3d 25 fc 17 3d
       -0.1279256 0.056864545 0.054342456 0.0371057
000240 21 ac 35 3b f9 86 a9 bd 08 a8 31 3d be b3 99 bc
       0.0027721005 -0.08277697 0.043373138 -0.018762466
000250 9a 4c 9e 3d c6 e2 0d be b8 0d fe 3d 46 e6 29 3d
       0.07729454 -0.13856038 0.124049604 0.04147937
000260 bc ed 02 bc ed 82 8d 3c ec 2c 1b 3d 60 f6 45 bd
       -0.007991251 0.017274344 0.037884638 -0.048330665
000270 3c ff f8 3d aa 07 ed bd a7 ff 70 bd c9 65 e3 bd
       0.12158057 -0.115737274 -0.05883756 -0.11103398
000280 6b 2b 78 bd 9c 76 54 bd 77 21 0f be e2 33 e0 bc
       -0.06058828 -0.051870927 -0.1397761 -0.02736849
000290 3c 6f 2b 3d 24 eb dc bd 26 c1 da bc ad fa e2 3c
       0.04185413 -0.10787037 -0.026703428 0.027707422
0002a0 ea d6 92 bd da 97 50 3d 56 91 56 3d fa 30 9f bd
       -0.07169898 0.050926067 0.052384697 -0.077730134
0002b0 37 38 ac bd 09 c8 ec bd a4 d8 cc bb d5 ca 39 bd
       -0.0840916 -0.11561591 -0.0062514115 -0.04535945
0002c0 e0 88 76 bd 47 12 53 3d 91 55 59 3d 2b bc 23 bd
       -0.060189128 0.051531103 0.053060118 -0.039974373
0002d0 3c d7 75 bd a3 e2 e0 bd de 32 64 bd 2b 16 08 be
       -0.060019717 -0.109807275 -0.055712573 -0.13289706
0002e0 d9 12 18 be 29 98 c5 bd 0f bf 93 3d d8 76 e2 bd
       -0.1485094 -0.09648163 0.07214176 -0.11057824
0002f0 da 9d 95 bd 06 ac b9 bd e1 1c 05 3d 46 ad 9b bd
       -0.073054984 -0.09066014 0.032498244 -0.07601409
000300 f5 0f 63 bd 3d a0 22 bd 7e 58 bc 3d a7 cf 14 bd
       -0.05543514 -0.039703596 0.09196566 -0.036330845
000310 a5 1b 17 bc 1e 64 eb bd c9 17 57 3c 9a 45 83 bc
       -0.0092229 -0.11493705 0.013128229 -0.0160244
000320 a1 4f 34 3d da fc 71 3d c8 e1 c7 3d e4 97 b6 bd
       0.044021253 0.05907903 0.09759861 -0.089156896
000330 6f e6 bf 3d 4c 80 88 3d 48 da 90 bc b9 c4 9d 3d
       0.093701236 0.06665096 -0.01768221 0.077035375
000340 8f 58 97 bd 51 3a de 3d 43 be da 3d c7 49 ca bc
       -0.07389938 0.10850967 0.10680821 -0.024693383
000350 4a fc db bb 09 43 8a 3c 26 f6 ab 3d 47 8a 29 bd
       -0.006713425 0.016877668 0.083965585 -0.041391637
000360 a7 3a ab 3b 1d 25 b0 3d f3 05 d8 3d 6a f0 b2 bd
       0.0052254978 0.08600829 0.1054801 -0.087372616
000370 52 51 c1 bc 99 fb 5c bd a3 ef 94 3d 3b f1 0b be
       -0.023598347 -0.05395088 0.072722696 -0.13666241
000380 d9 0f 5b bd 07 56 18 3c c0 5e 35 3c 9e cd d4 bd
       -0.05348191 0.009297854 0.011069953 -0.10390781
000390 a9 99 5d 3d 31 2d ac 3c ab 67 b9 3d b9 ec ed 3d
       0.05410162 0.021017643 0.09052976 0.11617417
0003a0 10 88 e5 3d 30 12 0b be 08 f9 65 bd 51 46 02 bd
       0.112075925 -0.13581157 -0.056145698 -0.03180534
0003b0 64 6d 0d 3d 79 a7 a6 bc 9d 01 d7 bd e5 5b b0 3d
       0.03452815 -0.020343529 -0.104983546 0.086112775
0003c0 50 a3 09 be 4b cc 0e bc ee 21 f7 bd 7a 77 db 3d
       -0.13441205 -0.008715699 -0.120670184 0.10716148
0003d0 b3 7b 04 be 20 a4 e5 3c 9c ce 6e 3c f7 a8 13 be
       -0.12937813 0.028032362 0.014575627 -0.14419924
0003e0 a9 27 07 3d 2e 8c 85 3d 8a cd a6 3d 26 49 28 bc
       0.032996807 0.06520878 0.08144672 -0.010271346
0003f0 cc bd 02 3e 5d ba 4d 3d 9b 1a 45 3d 87 a1 79 3b
       0.12767714 0.050226558 0.048121076 0.0038090663

regressor.3.bias f4 [64]
000000 58 5e 37 bd 85 ce bd 3d 90 e7 37 bd 3a 3b be 3d
       -0.044767708 0.09267906 -0.04489857 0.0928864
000010 b9 b5 24 bd 71 82 2a bd b7 cd e0 3d 1d f5 59 bd
       -0.040212367 -0.041628305 0.10976737 -0.053212274
000020 81 d9 75 bd b6 0b d3 bd 3a ef 55 bd 38 91 b4 3d
       -0.06002188 -0.10304968 -0.052230097 0.08816761
000030 5d 86 dd 3d 6c 7f 34 bd 76 3b 89 bd 0c 8d ac 3d
       0.108166434 -0.04406683 -0.067007944 0.0842534
000040 15 e2 1a bd 03 8e 64 bd 27 84 a3 3d 30 61 12 bd
       -0.037813265 -0.055799495 0.079841904 -0.035737216
000050 ba f4 42 bd fd 54 b8 3d 04 90 ae 3d 3c fa 6a bd
       -0.04759667 0.09000585 0.085235626 -0.05736755
000060 7f 62 55 bd 8c 14 4e bd d5 c0 34 bd 4e e8 2e bd
       -0.052095886 -0.050312564 -0.04412921 -0.04270201
000070 e7 1b 3c bd 2e 6a 32 bd 1c 33 4d bd be a9 32 bd
       -0.045925047 -0.043558292 -0.05009757 -0.04361891
000080 62 46 90 bd 46 4c 8b bd 79 83 45 bd 62 c7 be 3d
       -0.070446745 -0.068016574 -0.048221085 0.09315373
000090 2c 46 3b bd 33 5f 2f bd 97 7b 87 bd c6 b1 fc 3d
       -0.045721218 -0.0428154 -0.0661537 0.12338595
0000a0 54 75 af 3d c5 98 85 bd a9 3c 40 bd 79 1e d2 3d
       0.085673004 -0.06523279 -0.04693285 0.102597184
0000b0 42 e1 cc 3d 1a f7 b3 3d c0 c4 22 bd 5d b9 81 bd
       0.10003902 0.08787365 -0.039738417 -0.06334183
0000c0 52 f0 d3 bd 84 47 83 bd 37 9b 5b bd 85 48 2e bd
       -0.10348572 -0.06410125 -0.05361482 -0.04254963
0000d0 08 92 30 bd 31 ba ac 3d 88 be af 3d 64 d1 3e bd
       -0.043108016 0.08433951 0.08581263 -0.04658641
0000e0 84 06 e2 3d 63 51 dd 3d c4 41 26 bd 5d 49 28 bd
       0.11036399 0.10806539 -0.040590063 -0.04108559
0000f0 84 a2 41 bd 6f c2 b9 3d 44 af 45 bd 91 d8 c5 3d
       -0.047274128 0.090702884 -0.04826285 0.096604474

regressor.5.weight f4 [1, 64]
000000 35 15 9d be cb a2 d2 3d e7 b1 7c be 33 2b f5 3d
       -0.30680242 0.102849565 -0.2467724 0.1197113
000010 b2 f8 38 be 47 17 8c be b7 ed bc 3d e5 28 ba be
       -0.1806362 -0.2736151 0.09225028 -0.36359325
000020 d4 42 95 be 74 33 6e be 44 92 d3 be b8 c0 8a 3e
       -0.29152548 -0.23261815 -0.4132253 0.27100158
000030 a2 61 ad 3d d4 08 b6 be 77 0f 9d bd db 97 e1 3d
       0.084658876 -0.3555361 -0.07668965 0.11015292
000040 23 32 d4 be ee c3 71 be 08 ad da 3d c5 90 cd be
       -0.414445 -0.23609897 0.10677534 -0.40149513
000050 1b 27 74 be 57 5e 41 3e 46 f3 c0 3e 09 1e 29 be
       -0.23843043 0.18883644 0.37685603 -0.16515364
000060 ff 81 36 be a1 3b 52 be 43 cd 57 be 85 93 a3 be
       -0.17823027 -0.20530559 -0.21074395 -0.31948486
000070 93 07 6b be f7 a7 8d be 07 6b 2a be b2 91 4f be
       -0.22952108 -0.2766721 -0.1664239 -0.20270422
000080 1a ed f1 bd bf ee a8 be d2 67 45 be 34 8d 7e 3e
       -0.11812802 -0.3299465 -0.19277886 0.24858552
000090 c2 ad f0 be 94 b6 8a be e1 2b f8 bd a0 6c 5c 3e
       -0.47007567 -0.2709242 -0.12117744 0.21525812
0000a0 b8 be be 3e 5b 84 5e be 19 73 be be 02 d3 90 3e
       0.37254882 -0.21730177 -0.37197188 0.28285986
0000b0 a4 bc 7a 3e 36 a8 61 3e 11 00 74 be 58 cc 8c be
       0.24486023 0.22036824 -0.2382815 -0.27499652
0000c0 10 ee aa be cb a9 68 be 08 e9 a6 be 25 7d fa be
       -0.33384752 -0.22721021 -0.32599664 -0.48923603
0000d0 c1 eb a2 be 3d 23 b2 3e 72 93 02 3e 3b 52 27 be
       -0.3182049 0.3479251 0.12751558 -0.16339962
0000e0 d6 98 e1 3d 10 77 b7 3d ad 5e d3 be 8b d2 7c be
       0.11015479 0.08958256 -0.4128317 -0.24689691
0000f0 4f 44 6e be a0 4e 62 3e 4f cd 32 be 7f 07 91 3e
       -0.23268245 0.22100306 -0.17461132 0.28326032
